model/actor_gru.pth (torch, 796067 bytes, 8 tensors)

weight_ih_l0 f4 [384, 128]
0.0847807 -0.08588149 -0.07137648 -0.0148140015 0.02156932 -0.041927647 -0.087767504 -0.05093658
0.04301738 -0.031189047 -0.07486932 0.0495642 0.0042613614 -0.06285778 -0.013805575 -0.04923947
0.051293515 0.03690905 -0.02965077 -0.039496846 0.076224886 -0.036343157 -0.05723159 0.08219287
0.066532105 0.046486292 0.01860765 -0.05768893 -0.036440503 0.049368408 0.06840054 -0.03124471
-0.06859527 -0.07888239 -0.0736397 -0.03353265 -0.007794497 0.06466702 0.011029185 -0.046139047
-0.07920244 -0.055529546 -0.058722682 -0.08348092 -0.08271608 0.06653322 -0.013908429 -0.051716674
-0.03188606 0.08403677 -0.014533428 -0.06183234 -0.038157087 0.0836214 0.0431374 0.051167294
0.07938935 -0.041937087 0.07610127 0.034804046 -0.061694525 0.04546475 -0.01491072 -0.036114175
-0.023710402 0.04467606 -0.005769204 -0.0056341486 -0.078663744 0.06744594 0.0747836 -0.0077447784
-0.08103696 0.08537483 -0.04444975 0.009498245 -0.060177572 -0.05039483 0.040853776 -0.024550512
-0.06565646 0.031471748 -0.003024896 0.011559532 -0.03668159 0.062686026 -0.048989672 0.027562628
0.05021661 0.03156565 0.029408112 -0.056895696 0.07138054 -0.06965152 -0.03855329 -0.05994591
-0.070459925 -0.042628817 0.0016399233 0.06846743 -0.021317964 -0.056642402 -0.03943015 0.032288432
0.07131511 -0.03197015 0.059046365 0.043879174 0.017059136 0.0027936695 0.05751398 0.03194029
-0.07380287 -0.079741836 -0.013263825 0.0737245 -0.08223818 -0.03660011 0.07845064 -0.018481685
-0.057227433 -0.082233146 -0.0042098896 -0.047527663 0.057117894 -0.043654434 -0.012289244 0.053181812
-0.048285924 0.05625166 -0.0454781 -0.047176547 0.07611008 0.014783579 -0.05194785 0.06746554
0.011832127 -0.055733684 0.040221315 -0.02730776 -0.0033054447 0.014770598 -0.010987824 -0.010364163
-0.0783107 0.006932384 0.056212995 -0.072757274 -0.026595134 0.082027406 -0.07881623 -0.034156315
-0.035640687 0.025388269 0.065538466 -0.00061269925 0.0032398177 -0.015922394 0.036598705 -0.069070876
-0.019893624 -0.06663223 0.021574968 0.013042252 0.082808256 -0.01032571 -0.038975056 0.046317294
-0.026103165 -0.017336527 0.007713415 -0.07661195 0.056524236 0.039605897 -0.06319745 0.07858338
0.07992481 -0.030354507 -0.059882198 0.08544577 -0.01606271 -0.0036544162 -0.025103146 0.06985731
0.043072887 -0.05255049 -0.0043395883 -0.017294519 0.049218014 0.06971825 -0.06526834 -0.059947178
-0.0742747 -0.065563284 0.061044082 -0.004573523 -0.076038875 -0.044961356 0.030228132 -0.07810659
-0.078901544 0.012389188 0.07750732 0.0017404541 -0.05762192 0.08564372 -0.05300985 -0.0033578812
0.08134663 -0.086437434 -0.084267944 0.07290678 0.04800563 -0.0021513214 -0.022662792 0.078865975
0.044731252 -0.056930423 -0.055837628 0.017369037 0.087947175 -0.05920907 0.028795112 -0.040025387
0.08428888 -0.026737504 0.068938985 -0.059881985 -0.056335628 -0.010520949 -0.037569243 -0.039193936
7.637009e-05 0.051984098 -0.08030778 0.00074415357 0.074407175 0.009388621 0.075987235 -0.02638947
-0.053608358 0.042771906 0.08465013 -0.08790402 0.025287952 0.0087950425 -0.08475853 0.0751676
-0.07023787 0.032875117 -0.06451653 -0.08313743 0.063444674 -0.005069782 -0.02212124 -0.03194383
00000000: 81a1 ad3d a2e2 afbd d52d 92bd 6db6 72bc
00000010: 24b2 b03c 53bc 2bbd 73bf b3bd e0a2 50bd
00000020: fe32 303d 2c80 ffbc 1655 99bd d503 4b3d
00000030: e4a2 8b3b 94bb 80bd c730 62bc 54af 49bd
00000040: 2619 523d f22d 173d 2ce6 f2bc 72c7 21bd
00000050: cb1b 9c3d 90dc 14bd ac6b 6abd bc54 a83d
00000060: fc41 883d 6968 3e3d 126f 983c 3a4b 6cbd
00000070: a342 15bd 8736 4a3d 9515 8c3d e8f4 ffbc
00000080: ad7b 8cbd 178d a1bd 69d0 96bd 8859 09bd
00000090: fb68 ffbb 2570 843d c1b3 343c 4cfc 3cbd
000000a0: e434 a2bd f372 63bd 3287 70bd 0bf8 aabd
000000b0: 0c67 a9bd 9242 883d 2ee0 63bc ddd4 53bd
000000c0: f59a 02bd 781b ac3d 9d1d 6ebc e843 7dbd
000000d0: 9b4a 1cbd b241 ab3d d8b0 303d cc94 513d
000000e0: e296 a23d 39c6 2bbd fcda 9b3d b08e 0e3d
000000f0: 66b3 7cbd 3f39 3a3d 184c 74bc 75ec 13bd
00000100: 513c c2bc 3ffe 363d 970b bdbb aa9e b8bb
00000110: 751a a1bd 1921 8a3d 2528 993d e9c7 fdbb
00000120: b5f6 a5bd 00d9 ae3d f110 36bd 879e 1b3c
00000130: c27c 76bd cf6a 4ebd 4a56 273d 281e c9bc
00000140: e576 86bd 85e8 003d 553d 46bb 3164 3d3c
00000150: 6f3f 16bd 8861 803d 65a9 48bd 05cb e13c
00000160: efaf 4d3d fc4a 013d 48e9 f03c 760b 69bd
00000170: f62f 923d 75a5 8ebd 0eea 1dbd d889 75bd
00000180: 4b4d 90bd 8e9b 2ebd b2f2 d63a a738 8c3d
00000190: 03a3 aebc dd01 68bd 8281 21bd e040 043d
000001a0: a80d 923d 22f3 02bd 9ada 713d a6ba 333d
000001b0: 9abf 8b3c ff15 373b c793 6b3d d2d3 023d
000001c0: f625 97bd b04f a3bd 8450 59bc dffc 963d
000001d0: 7e6c a8bd ffe9 15bd bbaa a03d e766 97bc
000001e0: 5067 6abd da69 a8bd 1df3 89bb 5eac 42bd
000001f0: 74f4 693d fece 32bd d358 49bc 2cd5 593d
00000200: 76c7 45bd 2468 663d 3f47 3abd 323c 41bd
00000210: 9adf 9b3d d336 723c 45c7 54bd 5f2b 8a3d
00000220: 8adb 413c 0149 64bd 1bbf 243d 86b4 dfbc
00000230: 29a0 58bb 6100 723c 4606 34bc 73ce 29bc
00000240: 5c61 a0bd 0d29 e33b 993f 663d c401 95bd
00000250: 0ade d9bc fcfd a73d 676a a1bd 7ee7 0bbd
00000260: f8fb 11bd 0ffb cf3c 0839 863d 8d9d 20ba
00000270: 1f53 543b ae6f 82bc 86e8 153d 0875 8dbd
00000280: f4f7 a2bc 7b76 88bd fdbd b03c 2baf 553c
00000290: 6097 a93d 2b2d 29bc 4fa4 1fbd 34b7 3d3d
000002a0: 4ed6 d5bc 5505 8ebc d1c0 fc3b bae6 9cbd
000002b0: f585 673d cb39 223d aa6d 81bd 53f0 a03d
000002c0: 9eaf a33d 04aa f8bc 0947 75bd 31fe ae3d
000002d0: f295 83bc ee7e 6fbb 1da5 cdbc 5911 8f3d
000002e0: 326d 303d 2f3f 57bd 1b33 8ebb 3cad 8dbc
000002f0: d498 493d 71c8 8e3d 68ab 85bd 2c8b 75bd
00000300: 551d 98bd 0b46 86bd 5c09 7a3d 7edd 95bb
00000310: 45ba 9bbd 6629 38bd fda0 f73c 59f6 9fbd
00000320: 2297 a1bd 05fc 4a3c 28bc 9e3d f31f e43a
00000330: f604 6cbd fa65 af3d db20 59bd e60f 5cbb
00000340: 1099 a63d 1c06 b1bd ac94 acbd 2650 953d
00000350: 8da1 443d 2ffd 0cbb 52a7 b9bc 7c84 a13d
00000360: 1e38 373d e02f 69bd ffb5 64bd 8349 8e3c
00000370: a61d b43d 3685 72bd bae3 eb3c a9f1 23bd
00000380: a69f ac3d 9c08 dbbc e22f 8d3d d046 75bd
00000390: 30c0 66bd 0f60 2cbc 35e2 19bd d289 20bd
000003a0: e128 a038 47ed 543d 6878 a4bd 4d13 433a
000003b0: ca62 983d bbd2 193c 329f 9b3d bb2e d8bc
000003c0: 7094 5bbd 9831 2f3d 0c5d ad3d 0607 b4bd
000003d0: ae28 cf3c 1519 103c e195 adbd 78f1 993d
000003e0: dfd8 8fbd 0fa8 063d 3e21 84bd f543 aabd
000003f0: 48ef 813d 6a20 a6bb 9a37 b5bc 89d7 02bd

weight_hh_l0 f4 [384, 128]
-0.03693511 0.06571968 0.010995538 0.046629433 -0.053706877 0.020921512 0.058805957 0.008207192
-0.0050837435 -0.032331396 -0.045018602 0.03669813 -0.007270284 0.0685528 -0.034367967 -0.06593982
-0.0188221 -0.06975013 0.027325116 0.07457811 0.056029666 0.011637675 0.0039212056 0.07941858
0.07687875 -0.035107456 0.046262998 -0.055568688 0.0010832268 0.055747014 -0.06996459 -0.0036548944
-0.08334965 -0.04351998 0.038583487 0.026262816 -0.031543218 0.06065636 0.063713424 0.039430704
-0.05883768 -0.029559992 0.06408224 0.06876753 0.034368422 -0.07104438 0.08833921 0.055175286
0.013152718 -0.039842684 0.08675458 0.051175553 -0.0066692685 -0.013641419 -0.0563246 -0.030508498
-0.010360442 0.01519968 0.0024038355 -0.068486154 0.029347485 -0.006748574 -0.06095377 0.009871847
-0.061400153 0.03239209 -0.033018608 -0.038224403 -0.048177123 -0.036914043 -0.05194731 0.03714728
0.047984023 0.02040953 -0.0114954915 -0.049138743 -0.019822989 -0.0065954803 -0.046035696 0.03721731
-0.068251766 0.07136138 -0.07017972 0.048216626 0.07219032 0.009922836 0.06380005 0.088074125
-0.048045408 0.03631344 0.06619468 0.034402713 0.06693353 -0.051210064 -0.020159952 -0.03669811
0.0192371 -0.017130433 -0.019356515 0.08150024 -0.027744167 0.06161317 0.06143496 0.01304769
-0.0049792384 -0.036322504 0.05009198 0.0070927814 0.04236646 -0.020754207 -0.038962092 -0.03421986
-0.017725866 0.06863716 -0.019729294 0.044211216 -0.01622777 0.01563832 -0.007271164 -0.028288286
0.085431784 -0.08028052 0.01830023 0.085174456 -0.0069997464 -0.010811193 0.05212499 -0.08834364
-0.00880042 -0.029934917 -0.086491466 -0.02034422 0.040287863 -0.02086642 -0.06610408 -0.014040198
0.062203772 -0.033567734 0.07878523 0.01959974 0.01914439 -0.08355692 -0.039613068 -0.024454523
-0.01905779 0.009339213 0.08738198 -0.061493598 0.056474704 0.057516705 0.0064850687 0.010104515
0.0089086685 -0.0672104 0.054104447 -0.05081684 0.03302612 0.08094957 -0.014477241 0.045809932
0.063611746 -0.08752814 0.0076822275 0.0594076 0.03908054 -0.068367235 0.013919928 0.013258566
0.08107795 -0.014553597 0.03189672 -0.010891481 0.060222592 0.02254197 -1.1065507e-06 0.08106244
0.00045665842 -0.013289186 -0.06803434 0.05249193 0.06846823 -0.040886793 0.019641524 0.029316364
0.074020185 0.05732277 0.06337507 0.041587267 0.08045666 -0.050883498 -0.046536315 0.018868607
0.008311239 0.009739907 0.0197548 -0.046021458 0.037203856 0.009283087 -0.00048652725 0.032425106
0.03228879 0.00060656294 0.059721056 -0.07791849 0.06282958 0.06356977 0.007733922 0.047767058
0.03592452 -0.0777083 0.0382442 0.05238591 -0.052918177 0.0031438787 -0.043862198 -0.03276792
0.07268493 0.044725914 0.024002204 0.0132999495 0.08050145 0.069687314 0.017507566 -0.007870829
-0.052112225 -0.057314724 -0.08693669 0.059457995 -0.058337588 -0.07175923 -0.036309253 -0.044166565
-0.04792674 -0.05226851 -0.07801361 -0.0068966406 0.03939075 0.08797724 -0.029123584 0.02873278
-0.079113886 -0.038360916 0.08128928 0.04442888 0.06384758 -0.04611942 -0.020572914 -0.052173417
0.026016107 0.07582573 -0.05878258 0.07406653 0.08116646 -0.039119825 0.026920518 -0.0686032
00000000: 4549 17bd 0a98 863d a126 343c 81fe 3e3d
00000010: befb 5bbd 9763 ab3c 84de 703d 7577 063c
00000020: 8895 a6bb ed6d 04bd 6d65 38bd c750 163d
00000030: 903b eebb 6965 8c3d 6dc5 0cbd 750b 87bd
00000040: ce30 9abc 28d9 8ebd ecd8 df3c 68bc 983d
00000050: 5d7f 653d f2ab 3e3c 757d 803b 35a6 a23d
00000060: 9b72 9d3d d6cc 0fbd 457e 3d3d fe9b 63bd
00000070: 0ffb 8d3a fb56 643d 9849 8fbd f486 6fbb
00000080: 39b3 aabd 0242 32bd b809 1e3d 1e25 d73c
00000090: 7633 01bd ce72 783d 2f7c 823d 1782 213d
000000a0: c7ff 70bd cc27 f2bc 8d3d 833d fed5 8c3d
000000b0: e7c5 0c3d b77f 91bd 30eb b43d 7bff 613d
000000c0: 7f7e 573c 1532 23bd 63ac b13d 759d 513d
000000d0: e189 dabb 4280 5fbc a0b4 66bd f5ec f9bc
000000e0: d8be 29bc 1408 793c ab89 1d3b 7842 8cbd
000000f0: 236a f03c 2423 ddbb a9aa 79bd 87bd 213c
00000100: ba7e 7bbd 91ad 043d 853e 07bd 3191 1cbd
00000110: 6055 45bd 2e33 17bd b4c6 54bd bf27 183d
00000120: e58a 443d e331 a73c 9657 3cbc b545 49bd
00000130: d263 a2bc e61e d8bb ed8f 3cbd 2e71 183d
00000140: 95c7 8bbd ea25 923d 63ba 8fbd cc7e 453d
00000150: 85d8 933d 6493 223c 9aa9 823d 3560 b43d
00000160: 43cb 44bd 67bd 143d 1491 873d dce9 0c3d
00000170: 7214 893d a5c1 51bd 7c26 a5bc c250 16bd
00000180: 1f97 9d3c 1f55 8cbc 8e91 9ebc 99e9 a63d
00000190: bc47 e3bc 175e 7c3d 3aa3 7b3d fac5 553c
000001a0: e128 a3bb e8c6 14bd 3f2d 4d3d 906a e83b
000001b0: 7488 2d3d ba04 aabc b796 1fbd 202a 0cbd
000001c0: d635 91bc a491 8c3d 549f a1bc d216 353d
000001d0: 1af0 84bc ef1b 803c f242 eebb d6bc e7bc
000001e0: dcf6 ae3d 1d6a a4bd 5dea 953c f26f ae3d
000001f0: 215e e5bb 6e21 31bc 0381 553d 83ed b4bd
00000200: a32f 10bc 123a f5bc 7022 b1bd eca8 a6bc
00000210: e304 253d 0ef0 aabc 9361 87bd dc08 66bc
00000220: 62c9 7e3d 527e 09bd 275a a13d a28f a03c
00000230: b2d4 9c3c e41f abbd 5041 22bd da54 c8bc
00000240: 151f 9cbc 8003 193c 53f5 b23d b6e0 7bbd
00000250: 0552 673d a396 6b3d b380 d43b 688d 253c
00000260: aaf5 113c 9ba5 89bd a09c 5d3d 5225 50bd
00000270: 6646 073d e3c8 a53d f331 6dbc 32a3 3b3d
00000280: e046 823d f441 b3bd 32bb fb3b 6255 733d
00000290: eb12 203d 1f04 8cbd 6910 643c 753a 593c
000002a0: 320c a63d 3672 6ebc 23a6 023d 2f72 32bc
000002b0: f7ab 763d f0a9 b83c cb84 94b5 1104 a63d
000002c0: a86b ef39 e3ba 59bc 9755 8bbd c701 573d
000002d0: 1239 8c3d e978 27bd 43e7 a03c df28 f03c
000002e0: e597 973d 48cb 6a3d caca 813d 6957 2a3d
000002f0: 76c6 a43d 376b 50bd dd9c 3ebd 5692 9a3c
00000300: dd2b 083c 2294 1f3c d1d4 a13c ff80 3cbd
00000310: 1263 183d 1718 183c 9514 ffb9 30d0 043d
00000320: 4041 043d c001 1f3a 119e 743d bb93 9fbd
00000330: cbac 803d de30 823d d76c fd3b 64a7 433d
00000340: 9725 133d 8725 9fbd f3a5 1c3d 9c92 563d
00000350: bbc0 58bd 8809 4e3b d9a8 33bd a837 06bd
00000360: d6db 943d 8532 373d 45a0 c43c 08e8 593c
00000370: f2dd a43d 39b8 8e3d 076c 8f3c a6f4 00bc
00000380: a173 55bd d8c2 6abd dd0b b2bd 3a8a 733d
00000390: 65f3 6ebd 81f6 92bd 03b9 14bd 00e8 34bd
000003a0: d44e 44bd 8117 56bd 99c5 9fbd 37fd e1bb
000003b0: 3258 213d 692d b43d 9594 eebc 0261 eb3c
000003c0: 7606 a2bd 5620 1dbd fe7a a63d 0ffb 353d
000003d0: 85c2 823d b8e7 3cbd 8788 a8bc cbb3 55bd
000003e0: bb1f d53c 854a 9b3d 01c6 70bd 31b0 973d
000003f0: 9a3a a63d 1c3c 20bd 6b88 dc3c d67f 8cbd

bias_ih_l0 f4 [384]
0.011184296 0.06972682 -0.07951759 -0.015393594 0.0073608477 0.048529822 0.05026191 0.01353596
0.07008063 0.063386716 -0.049292333 -0.044519246 -0.047793746 -0.024488056 -0.06676571 -0.0779065
-0.055785775 0.05677581 -0.004006972 -0.058491115 -0.07088074 -0.018911542 0.07115374 0.04913949
0.008139865 0.017776847 0.0027737252 0.061895177 -0.059389845 -0.05333673 0.067837216 -0.07534459
-0.074251994 -0.03522522 -0.02372708 -0.04916367 0.06881128 0.05578779 0.04166727 -0.08318821
-0.08095114 0.02188423 -0.07944636 0.080036536 -0.051971 0.03372153 0.005241734 -0.05409459
-0.07728976 -0.052033078 0.011420255 -0.028272666 -0.056290004 0.016206224 -0.05735901 0.026396604
-0.04973816 -0.08006149 0.081957564 0.07131531 -0.0052761477 0.045754425 0.027750358 -0.0075492375
0.049347896 -0.033401113 0.024884209 0.040819358 -0.024772307 0.07037293 0.065507665 -0.039803702
0.0860474 0.009407481 0.03447497 -0.06756091 -0.041566122 0.026473347 0.025468748 0.08481052
0.084239386 0.08266411 0.006328186 0.01572423 0.01574919 0.08828152 0.006452072 0.007453595
-0.047465302 0.018442249 0.065716214 0.031167187 0.07841377 0.087958835 -0.07168516 -0.005281991
-0.046707604 0.0725654 0.055877063 -0.06453708 -0.040292006 0.047257867 -0.086640544 -0.061682936
0.08148004 0.0012810389 0.058700483 0.0072697313 0.051775116 0.018614473 0.07131953 -0.0698915
-0.05744714 0.019776458 0.03928822 0.04434536 -0.03468032 0.022871483 -0.08584197 0.003838642
0.0679465 0.08053435 0.055040386 0.04060599 0.063757375 0.0853912 -0.03268852 -0.06555545
0.047557157 -0.06696278 0.068993196 0.01783241 -0.04707863 -0.027877048 0.034508005 0.03746915
0.07958282 0.047963932 -0.05893732 0.03767846 -0.059187047 0.07535923 0.06665075 0.012980623
-0.02277383 -0.029656442 0.027176624 0.011572164 0.05416765 -0.012630388 -0.084428936 0.05871316
0.08687492 -0.04305319 -0.029794177 0.02606105 -0.06473066 -0.040875733 -0.07561168 -0.028473783
0.027067382 -0.046796218 0.07363813 -0.047750246 0.059522454 0.07211282 0.013023678 0.004394407
0.0035709105 -0.05514241 -0.013696591 0.05905981 -0.03845907 0.06355894 0.074741594 0.08356069
-0.04166953 0.06687924 0.022369428 -0.021452554 0.0139503945 -0.023765847 -0.028197905 -0.0074882368
0.073290214 0.024687696 0.06751939 -0.040960193 -0.062372897 -0.054934263 -0.046253026 -0.07554866
0.044106007 -0.026309922 0.079925306 0.018200954 0.004856086 -0.06826178 0.007922279 -0.04864117
0.06280852 -0.08622849 -0.07115381 -0.06909658 0.036655553 0.057605546 -0.08220832 0.08478662
-0.037987154 -0.02575662 -0.034715082 0.022736447 0.055939537 0.08500893 -0.022816382 -0.06557272
-0.06684531 -0.01901854 -0.054217275 -0.07824341 -0.06285667 -0.00028974906 -0.083644815 0.030169891
0.00509554 0.0004263156 0.07732808 -0.04846043 -0.0094637005 -0.06099192 0.079501376 0.07668598
-0.0438078 -0.038470156 0.025530947 -0.05391888 0.079371005 0.05335896 0.07429488 0.07090554
0.07844855 0.035936818 0.04390209 -0.011832509 -0.057435516 -0.063711956 -0.019865198 0.072898515
-0.02771017 -0.060117535 -0.016765168 -0.018620126 0.014480388 0.056600705 -0.061106686 -0.072994165
00000000: 563e 373c efcc 8e3d 1eda a2bd 6a35 7cbc
00000010: 4433 f13b 35c7 463d 6fdf 4d3d eec5 5d3c
00000020: 6f86 8f3d e5d0 813d c2e6 49bd d059 36bd
00000030: 60c3 43bd 2d9b c8bc 76bc 88bd 718d 9fbd
00000040: a07f 64bd c08d 683d eb4c 83bb 6194 6fbd
00000050: ec29 91bd 61ec 9abc 0db9 913d 7d46 493d
00000060: 115d 053c c0a0 913c 63c7 353b cc85 7d3d
00000070: c442 73bd 9d77 5abd 3dee 8a3d 444e 9abd
00000080: 6e11 98bd 5248 10bd 4b5f c2bc d85f 49bd
00000090: eeec 8c3d bd81 643d 4dab 2a3d 955e aabd
000000a0: b6c9 a5bd 8f46 b33c c6b4 a2bd 32ea a33d
000000b0: 8bdf 54bd 961f 0a3d dac2 ab3b 4a92 5dbd
000000c0: 184a 9ebd a320 55bd 051c 3b3c 149c e7bc
000000d0: 5990 66bd eac2 843c 48f1 6abd b13d d83c
000000e0: 3eba 4bbd 47f7 a3bd 5ed9 a73d c30d 923d
000000f0: 89e3 acbb fe68 3b3d b854 e33c 985f f7bb
00000100: 0521 4a3d 9bcf 08bd f8d9 cb3c 3332 273d
00000110: 4bef cabc af1f 903d e228 863d 3509 23bd
00000120: 9f39 b03d d621 1a3c a035 0d3d 605d 8abd
00000130: 3d41 2abd a2de d83c d6a3 d03c 23b1 ad3d
00000140: b385 ac3d cd4b a93d ac5c cf3b 1ad0 803c
00000150: 7204 813c f1cc b43d e76b d33b 493d f43b
00000160: fa6a 42bd 3314 973c 3996 863d 5452 ff3c
00000170: 6697 a03d c323 b43d abcf 92bd 8d14 adbb
00000180: 7950 3fbd 2b9d 943d 59df 643d 042c 84bd
00000190: 3b09 25bd 7791 413d 9970 b1bd 3fa7 7cbd
000001a0: 02df a63d 88e8 a73a eb6f 703d ed36 ee3b
000001b0: 2512 543d 617d 983c f90f 923d 4623 8fbd
000001c0: b14d 6bbd 3d02 a23c afec 203d 7ba3 353d
000001d0: f40c 0ebd fa5c bb3c eacd afbd ba91 7b3b
000001e0: 8927 8b3d 31ef a43d 0772 613d 7752 263d
000001f0: 3a93 823d 95e1 ae3d 66e4 05bd f041 86bd
00000200: 4bcb 423d c823 89bd 4e4c 8d3d 4615 923c
00000210: 86d5 40bd 685e e4bc 4458 0d3d 4079 193d
00000220: 51fc a23d d475 443d 4268 71bd bb54 1a3d
00000230: 1e6e 72bd f155 9a3d 3080 883d aeac 543c
00000240: 2f90 babc 11f2 f2bc 83a1 de3c 2c99 3d3c
00000250: e6de 5d3d b0ef 4ebc 14e9 acbd 367d 703d
00000260: 7aeb b13d 8b58 30bd eb12 f4bc fc7d d53c
00000270: 8291 84bd 506d 27bd 4cda 9abd da41 e9bc
00000280: 6abc dd3c 64ad 3fbd 97cf 963d c395 43bd
00000290: d1cd 733d e3af 933d 4461 553c f5fe 8f3b
000002a0: f005 6a3b 02dd 61bd ab67 60bc b3e8 713d
000002b0: 4287 1dbd 312b 823d 1f12 993d de21 ab3d
000002c0: abad 2abd fcf7 883d 1740 b73c 44bd afbc
000002d0: 3290 643c 98b0 c2bc 4bff e6bc e25f f5bb
000002e0: 2e19 963d da3d ca3c 9b47 8a3d e0c5 27bd
000002f0: b97a 7fbd c002 61bd d073 3dbd 41b9 9abd
00000300: 80a8 343d e887 d7bc e1af a33d 2b1a 953c
00000310: cd1f 9f3b d5cc 8bbd 72cc 013c f73b 47bd
00000320: c1a1 803d 9098 b0bd 17b9 91bd 8282 8dbd
00000330: 2224 163d cbf3 6b3d d65c a8bd 9ca4 ad3d
00000340: 6b98 1bbd 8cff d2bc 6731 0ebd c941 ba3c
00000350: db20 653d 2919 ae3d 6ce9 babc fd4a 86bd
00000360: 32e6 88bd c5cc 9bbc ef12 5ebd 153e a0bd
00000370: ffba 80bd 76e9 97b9 f94d abbd d926 f73c
00000380: 7df8 a63b 1c83 df39 2f5e 9e3d 727e 46bd
00000390: a30d 1bbc aad2 79bd 9ed1 a23d 8a0d 9d3d
000003a0: cf6f 33bd e292 1dbd 4726 d13c 0bda 5cbd
000003b0: 448d a23d ed8e 5a3d ea27 983d ec36 913d
000003c0: a2a9 a03d 7c32 133d aed2 333d 24dd 41bc
000003d0: 8141 6bbd 6a7b 82bd 57bc a2bc d14b 953d
000003e0: 7000 e3bc ce3d 76bd 1b57 89bc 3c89 98bc
000003f0: 263f 6d3c 24d6 673d 014b 7abd f77d 95bd

bias_hh_l0 f4 [384]
-0.04376179 0.0046551386 -0.004621836 -0.0459748 -0.023774145 0.056984637 0.041681908 0.04614978
0.0505426 0.07209018 0.032601595 0.05700858 0.058939025 -0.07977142 0.07607211 -0.052463543
-0.07454868 -0.028103836 -0.024458108 0.083544925 0.061265595 -0.027212344 -0.018428933 0.0013462814
0.05122544 0.038204845 0.06136031 -0.0040076026 0.088103965 0.055586636 -0.08094528 0.064267024
0.07855195 0.020518234 -0.03053975 -0.07117701 -0.04802804 -0.022931734 -0.053034127 0.048718806
0.06880905 -0.0037270708 0.08182732 0.03138266 -0.02827988 -0.028028471 -0.019423991 -0.033296768
-0.06990483 -0.008744293 9.670312e-05 -0.024020081 0.033591002 -0.010899468 -0.018938133 0.07677604
0.0090464195 -0.04259243 -0.057588756 0.027917767 -0.087475896 0.014425714 0.070672125 0.0005293333
-0.027486945 0.0020856704 -0.053949255 -0.040529873 0.044970643 0.03442952 -0.026991392 0.082969464
-0.018780243 -0.07586202 0.024453115 0.00827479 0.021584617 -0.071831554 -0.05948402 0.032730415
0.075170405 -0.0059966175 0.04334314 0.06066565 0.042319924 0.086725034 0.08409196 -0.027446091
-0.061308637 0.078081325 -0.036120296 0.07506802 0.037640445 -0.044545904 0.07012496 0.020848539
0.031452347 -0.05461232 -0.027294481 -0.086886615 -0.08307057 0.02808515 -0.01535829 0.03758094
-0.0037959106 0.082040265 0.06404492 0.049149897 -0.045612022 0.07059602 0.02278414 0.030243969
0.08388114 0.038194872 -0.08217908 0.0038890014 -0.042479873 -0.08415539 0.022611752 -0.015640765
-0.054442003 0.034750637 0.04234544 -0.016206158 -0.063799486 -0.007260636 0.030177264 0.013260723
0.07150722 0.06572957 0.07304317 0.0035193725 -0.043119453 -0.014337741 0.08462846 -0.04412127
-0.022135587 0.060476974 0.031344846 -0.038657866 -0.082396306 0.06352426 0.01701379 0.016438581
0.023984978 0.011212082 -0.029434886 -0.03331439 0.0034381354 -0.08241488 0.008216207 -0.0769809
-0.07239611 -0.03847935 -0.027577791 -0.027211849 0.032900136 -0.046844855 0.029408716 0.026949657
0.018033499 -0.04560773 0.07254945 0.03468808 0.06545079 -0.032586563 0.050840758 -0.05497888
-0.0056165014 0.038041186 0.08123224 0.07104861 0.081927545 -0.023174549 0.07637051 0.021265486
0.04612442 -0.04745182 0.0054320437 0.0007782115 0.033844657 -0.013685248 0.008358911 0.024954522
-0.01080007 0.0736595 0.0134594105 0.05229285 0.00027071324 0.01182979 -0.069437206 -0.03571558
0.0073503745 -0.02104244 0.005268302 0.034983754 0.06859839 0.04609363 -0.008898992 -0.070093915
0.06154373 0.071075685 0.079208754 -0.045322236 0.07714853 0.007904245 0.06751585 0.02859439
-0.038901698 0.082589 -0.04583559 -0.01359541 -0.023664238 -0.054557238 -0.021167006 -0.06663132
0.016928151 0.044835716 -0.05314998 0.031325664 -0.04973033 -0.009272169 -0.037729282 -0.0787868
-0.032527708 -0.078818634 -0.07484429 -0.0234724 0.08563388 0.07683196 0.0062231505 0.043758407
-0.06746514 -0.08863964 0.08162836 -0.06529048 0.074256726 0.014443553 0.005333258 0.08286942
0.073643714 0.009373231 -0.00046213323 -0.017825527 -0.00535001 -0.055978835 0.02404754 -0.043306462
-0.03179485 0.082108386 0.06535147 -0.019324621 0.006458683 0.06999259 0.083267376 -0.07145566
00000000: 903f 33bd 228a 983b c572 97bb 1250 3cbd
00000010: ffc1 c2bc b968 693d a6ba 2a3d 8d07 3d3d
00000020: c205 4f3d 04a4 933d 4089 053d d481 693d
00000030: 0c6a 713d 335f a3bd b2cb 9b3d 03e4 56bd
00000040: faac 98bd 043a e6bc 5f5c c8bc 9a19 ab3d
00000050: a2f1 7a3d 6cec debc 46f8 96bc b575 b03a
00000060: c4d1 513d af7c 1c3d f354 7b3d 3552 83bb
00000070: da6f b43d d0ae 633d a4c6 a5bd 6e9e 833d
00000080: d8df a03d db15 a83c 7f2e fabc 41c5 91bd
00000090: 0db9 44bd 55db bbbc 503a 59bd 5f8d 473d
000000a0: c2eb 8c3d df41 74bb 1595 a73d 1b8b 003d
000000b0: 35ab e7bc f79b e5bc 101f 9fbc 3162 08bd
000000c0: 432a 8fbd 3944 0fbc 18cd ca38 c3c5 c4bc
000000d0: b896 093d af93 32bc 2524 9bbc c23c 9d3d
000000e0: 6f37 143c 6675 2ebd 30e2 6bbd cdb3 e43c
000000f0: 9026 b3bd d459 6c3c 8cbc 903d f5c2 0a3a
00000100: 4d2c e1bc beaf 083b e5f9 5cbd a702 26bd
00000110: 2333 383d f805 0d3d 0d1d ddbc e5eb a93d
00000120: 06d9 99bc 8c5d 9bbd e651 c83c fc92 073c
00000130: 39d2 b03c 6c1c 93bd 84a5 73bd 5410 063d
00000140: f1f2 993d 467f c4bb 9488 313d 8b7c 783d
00000150: a857 2d3d e59c b13d 6838 ac3d a0d6 e0bc
00000160: c41e 7bbd 1ae9 9f3d e0f2 13bd 43bd 993d
00000170: de2c 1a3d c475 36bd ad9d 8f3d 8eca aa3c
00000180: 2dd4 003d 2bb1 5fbd ad98 dfbc 9cf1 b1bd
00000190: e720 aabd d412 e63c 56a1 7bbc 79ee 193d
000001a0: d0c4 78bb ba04 a83d fc29 833d 6751 493d
000001b0: acd3 3abd a594 903d cea5 ba3c 33c2 f73c
000001c0: e0c9 ab3d 3a72 1c3d 814d a8bd 9ede 7e3b
000001d0: 60ff 2dbd a959 acbd 483c b93c 1021 80bc
000001e0: 94fe 5ebd af56 0e3d 6972 2d3d c7c2 84bc
000001f0: 4ea9 82bd a1ea edbb 4f36 f73c 8143 593c
00000200: 6172 923d 3a9d 863d a897 953d 46a5 663b
00000210: 069e 30bd d8e8 6abc b051 ad3d 81b8 34bd
00000220: b155 b5bc b4b6 773d 7463 003d b657 1ebd
00000230: 65bf a8bd 0219 823d 8160 8b3c 34aa 863c
00000240: 257c c43c e1b2 373c 6e21 f1bc ab74 08bd
00000250: 5752 613b 22c9 a8bd 459d 063c 29a8 9dbd
00000260: 6944 94bd 869c 1dbd d2ea e1bc 62eb debc
00000270: 4bc2 063d 64e0 3fbd 8cea f03c 87c5 dc3c
00000280: fdba 933c 2ccf 3abd ce94 943d 1715 0e3d
00000290: 100b 863d 7d79 05bd 663e 503d 8931 61bd
000002a0: a10a b8bb 13d1 1b3d 175d a63d ef81 913d
000002b0: a1c9 a73d 8dd8 bdbc 2468 9c3d f534 ae3c
000002c0: f6ec 3c3d d75c 42bd 49ff b13b e400 4c3a
000002d0: b2a0 0a3d 1738 60bc d0f3 083c 6d6d cc3c
000002e0: c7f2 30bc cbda 963d dc84 5c3c 0731 563d
000002f0: 84ee 8d39 bcd1 413c 1835 8ebd 804a 12bd
00000300: 69db f03b 3261 acbc b8a1 ac3b 204b 0f3d
00000310: 507d 8c3d adcc 3c3d 14cd 11bc 668d 8fbd
00000320: 4715 7c3d 2190 913d 3338 a23d cfa3 39bd
00000330: 0c00 9e3d ce80 013c c045 8a3d c83e ea3c
00000340: 6357 1fbd 6c24 a93d 1abe 3bbd 48bf 5ebc
00000350: 81db c1bc 6977 5fbd 6e66 adbc 0076 88bd
00000360: e8ac 8a3c a8a5 373d cbb3 59bd 574f 003d
00000370: 08b2 4bbd 4cea 17bc 058a 1abd f95a a1bd
00000380: c63b 05bd aa6b a1bd f747 99bd 3149 c0bc
00000390: d160 af3d 135a 9d3d 92eb cb3b 043c 333d
000003a0: 2a2b 8abd b388 b5bd c52c a73d 04b7 85bd
000003b0: e913 983d a7a4 6c3c 9cc2 ae3b 71b7 a93d
000003c0: 84d2 963d 2e92 193c 794a f2b9 d706 92bc
000003d0: 234f afbb 104a 65bd 59ff c43c 1e62 31bd
000003e0: 513b 02bd 7128 a83d fed6 853d ab4e 9ebc
000003f0: 5ca3 d33b 4658 8f3d 1688 aa3d 5857 92bd

weight_ih_l1 f4 [384, 128]
-0.058141124 0.0036722508 -0.019351993 0.013700876 -0.050096635 -0.003379452 0.041777454 -0.06947306
0.08636455 -0.029715708 0.07950556 -0.0706154 0.08627852 0.083678246 0.00734225 0.065214306
-0.010116838 -0.014443088 -0.07538086 -0.08336189 0.04888453 0.053695127 -0.06711028 0.057419136
0.049867842 0.034571424 0.061440654 0.053933565 0.06064278 0.009108031 0.003798407 -0.048246212
0.014032669 -0.010591352 0.06832778 0.019537434 0.05578192 -0.042147204 -0.05659042 -0.058791906
0.006942603 0.08363871 0.012924301 -0.020720555 -0.018796174 0.026643332 0.04684745 0.08245966
0.059029978 0.04253371 0.051643383 0.08329596 0.03328063 0.044403728 0.07964628 -0.077529766
0.06160603 -0.0036486797 0.03253967 0.06418454 -0.00253206 -0.016349595 0.031606473 0.08350571
0.05214994 0.020287331 -0.004308986 0.069336586 -0.004668398 -0.041863587 0.079463944 0.0612901
0.066976964 0.06361192 0.02831666 -0.08273699 -0.02023996 -0.088159055 0.035365548 0.029000353
0.027488872 -0.017684288 -0.06043024 0.04101187 0.05278173 0.053181883 0.019705566 -0.06198399
-0.05310697 -0.03154865 0.04001899 0.07735463 -0.023696266 0.05720813 0.08440869 0.0014631067
0.04595666 0.0059979227 -0.02430075 0.0730293 -0.028952256 0.08395375 -0.07936064 0.015142072
-0.006811497 -0.06471443 -0.022310108 0.024234472 0.035004657 0.008748116 -0.017583884 -0.08539507
-0.07177239 -0.008926493 0.018899435 0.018428832 -0.036917884 0.006440822 0.047398392 -0.031915598
0.07681159 -0.07392111 0.0008050272 0.03931123 0.06226591 -0.06836643 0.04797176 -0.06650413
-0.057276584 0.0064674052 -0.06296907 -0.077592164 -0.008584281 -0.07361606 -0.031675547 0.009255857
-0.07111151 0.04430256 0.060364828 0.0063998266 -0.043773644 0.037088774 0.040864803 0.057937153
-0.060166776 -0.08585625 0.058226112 0.05469163 -0.08212789 0.06488196 0.016358031 -0.003279816
0.02370948 -0.011333259 -0.0526003 0.08522468 0.06756268 0.0688005 0.040869787 0.08662838
0.03295575 0.04560629 -0.014014001 0.08796126 -0.073826365 -0.03383037 -0.071153834 0.039596524
-0.08737003 -0.073379286 -0.011641166 0.080291204 -0.0044349516 0.075581744 0.07414976 -0.049296927
-0.053037222 -0.03242833 -0.008195365 -0.048451923 0.03377314 -0.054047376 -0.0226977 0.05888058
-0.029897045 -0.008053738 -0.021087717 0.06577663 -0.009097508 0.04224972 0.0033334761 0.08367224
-0.053435545 0.033319205 0.083415225 -0.05534861 0.07406527 0.06968858 0.05660134 0.032805663
0.06917569 -0.03109543 -0.00520026 0.055724353 -0.05976282 -0.028430747 0.03667043 -0.07885922
-0.001948 0.028290072 -0.051775202 0.029113028 0.008509313 0.066971704 -0.07503809 0.021596149
0.052440744 0.026474008 0.084552035 -0.027970979 -0.07375368 -0.07835151 -0.042806547 0.049426846
-0.0076237554 -0.054807633 0.037026737 0.03245363 0.030775385 0.020779537 0.07232014 0.02838167
0.0056506805 0.060399953 -0.00460378 -0.05199068 -0.044670075 0.01814673 0.06755759 -0.08544755
-0.004367577 0.06315024 -0.052736036 -0.06357206 0.053841203 0.07437642 -0.023934273 -0.00014303152
0.08397757 0.0013731103 -0.06303596 -0.039963923 -0.011653173 0.044813447 0.01357227 0.017112834
00000000: 6325 6ebd 25aa 703b 1288 9ebc a479 603c
00000010: 2132 4dbd cc79 5dbb d61e 2b3d e447 8ebd
00000020: e6df b03d 5b6e f3bc d0d3 a23d cf9e 90bd
00000030: cbb2 b03d 805f ab3d 4297 f03b 148f 853d
00000040: 18c1 25bc b4a2 6cbc 4861 9abd a3b9 aabd
00000050: 253b 483d 6cef 5b3d 1d71 89bd 5430 6b3d
00000060: 3942 4c3d c49a 0d3d 32a9 7b3d 71e9 5c3d
00000070: 9064 783d da39 153c b2ee 783b d29d 45bd
00000080: 48e9 653c 5a87 2dbc 6fef 8b3d f80c a03c
00000090: 957b 643d 8ca2 2cbd 5bcb 67bd c8cf 70bd
000000a0: c67e e33b c64a ab3d 73c0 533c 27be a9bc
000000b0: 6ffa 99bc 1e43 da3c 1de3 3f3d 9ce0 a83d
000000c0: 6bc9 713d d437 2e3d 0388 533d 1397 aa3d
000000d0: 4551 083d afe0 353d 971d a33d edc7 9ebd
000000e0: 9b56 7c3d b01e 6fbb 5148 053d 2f73 833d
000000f0: ebf0 25bb 96ef 85bc ca75 013d 0b05 ab3d
00000100: 2d9b 553d 9e31 a63c 6532 8dbb 5700 8e3d
00000110: 5cf9 98bb 2779 2bbd febd a23d 540b 7b3d
00000120: 382b 893d f746 823d 57f8 e73c 0372 a9bd
00000130: 46ce a5bc bc8c b4bd 77db 103d 2692 ed3c
00000140: 5830 e13c a4de 90bc b385 77bd 10fc 273d
00000150: a831 583d 3fd5 593d 916d a13c ede2 7dbd
00000160: b286 59bd 2839 01bd f4ea 233d 1b6c 9e3d
00000170: ac1e c2bc 1253 6a3d 77de ac3d b7c5 bf3a
00000180: 0d3d 3c3d 398a c43b 5e12 c7bc 6390 953d
00000190: 482d edbc f2ef ab3d d587 a2bd 7416 783c
000001a0: fa32 dfbb 0089 84bd b0c3 b6bc 5f87 c63c
000001b0: 0b61 0f3d 4254 0f3c 140c 90bc 9ce3 aebd
000001c0: 67fd 92bd 6d40 12bc fdd2 9a3c 10f8 963c
000001d0: 3537 17bd 880d d33b d124 423d eeb9 02bd
000001e0: 654f 9d3d f363 97bd 7608 533a d004 213d
000001f0: 8a0a 7f3d b303 8cbd 097e 443d 5133 88bd
00000200: da9a 6abd 87ec d33b eef5 80bd a4e8 9ebd
00000210: 16a5 0cbc 04c4 96bd 38be 01bd e1a5 173c
00000220: e9a2 91bd 9a76 353d 1c41 773d a3b5 d13b
00000230: fe4b 33bd 66ea 173d da61 273d 824f 6d3d
00000240: 7071 76bd 67d5 afbd 817e 6e3d 5504 603d
00000250: ab32 a8bd d5e0 843d 4701 863c 2ef2 56bb
00000260: 623a c23c 22af 39bc 6a73 57bd 478a ae3d
00000270: 4d5e 8a3d 47e7 8c3d 1467 273d 386a b13d
00000280: 9cfc 063d a9cd 3a3d fb9a 65bc 0825 b43d
00000290: 4732 97bd b791 0abd 1ab9 91bd f72f 223d
000002a0: 0fef b2bd e147 96bd 97ba 3ebc b76f a43d
000002b0: 1253 91bb 9aca 9a3d d4db 973d 93eb 49bd
000002c0: 8f3d 59bd 92d3 04bd da45 06bc 8675 46bd
000002d0: b455 0a3d c860 5dbd 87f0 b9bc c32c 713d
000002e0: a6ea f4bc d3f3 03bc 26c0 acbc e6b5 863d
000002f0: b70d 15bc 0b0e 2d3d 7376 5a3b 5a5c ab3d
00000300: 3bdf 5abd b879 083d 9ad5 aa3d 39b5 62bd
00000310: 88af 973d e3b8 8e3d cfd6 673d 3b5f 063d
00000320: fcab 8d3d d8bb febc f166 aabb 383f 643d
00000330: dcc9 74bd 99e7 e8bc bc33 163d f180 a1bd
00000340: 0954 ffba 95c0 e73c 3c12 54bd 727e ee3c
00000350: a56a 0b3c 7628 893d 92ad 99bd 68ea b03c
00000360: 1bcc 563d 05e0 d83c 9e29 ad3d 6523 e5bc
00000370: 2b0c 97bd c276 a0bd eb55 2fbd ce73 4a3d
00000380: b2d0 f9bb f87d 60bd 59a9 173d 19ee 043d
00000390: a91c fc3c d939 aa3c 951c 943d ad80 e83c
000003a0: 5829 b93b f165 773d 4edb 96bb 2ef4 54bd
000003b0: f8f7 36bd 73a8 943c a25b 8a3d 20ff aebd
000003c0: e41d 8fbb ea54 813d be01 58bd 1132 82bd
000003d0: 9888 5c3d aa52 983d cf11 c4bc bbfa 15b9
000003e0: 6ffc ab3d f0f9 b33a ff18 81bd 36b1 23bd
000003f0: f3ec 3ebc 4e8e 373d 3a5e 5e3c 3730 8c3c

weight_hh_l1 f4 [384, 128]
0.06002752 -0.0018497034 0.063873455 0.07177677 -0.035534397 0.07698296 -0.059481673 0.056576174
0.08484515 -0.045143425 0.054878682 0.05492076 0.056970567 0.021331996 -0.060104486 -0.06115578
-0.05431473 0.04826149 0.0839744 -0.007286977 0.010396173 -0.07035199 0.039986562 -0.018882621
-0.04753829 0.03257089 0.010051117 -0.030264921 -0.063253194 0.06797059 -0.08283618 0.024746748
-0.077089846 -0.035863172 0.02547781 -0.005086417 -0.06819919 -0.020394623 -0.0729746 0.06105066
-0.04980599 0.06736865 0.010868111 0.02927499 0.009020244 0.033312377 0.07253128 -0.0063020433
0.04156267 0.038627606 0.05436407 -0.02435518 0.07130424 -0.06959269 -0.07242845 0.0105397925
-0.025213731 0.028485825 0.021757243 -0.03440599 -0.0777462 -0.039142206 -0.032075454 0.07589704
0.08772548 -0.07021194 0.043875992 -0.011235626 -0.037031952 0.039243646 0.053341094 -0.046961486
0.019891115 0.002570232 0.04057835 -0.047523573 0.07673064 -0.07588202 -0.083866484 -0.02204316
0.040930144 0.019366376 -0.010160496 0.07839197 -0.084025174 -0.045035787 -0.017229456 -0.05152422
-0.008764421 0.06363612 0.07975174 -0.021566495 0.07478222 0.042506695 -0.006938692 0.077020146
-0.074416526 -0.015901482 0.06384765 0.04524031 -0.015268381 -0.04397492 0.07281688 -0.026496109
-0.057135224 -0.047544234 -0.013492864 0.024490966 0.029236797 0.052002035 0.027843028 0.07797589
0.080226 -0.03565658 0.007933901 -0.03195584 -0.0853762 0.07648638 -0.0026691428 0.07634728
-0.054553777 0.08154925 -0.028818203 0.06767645 -0.059507474 0.0066731153 0.05937129 -0.04159941
0.077911615 0.08009278 -0.047533985 0.005098442 -0.038583394 0.058517497 -0.07861433 0.085466385
0.0808547 -0.012077681 0.08237192 0.033676267 0.033849884 0.020882318 0.06455942 -0.0029806506
0.009231895 -0.008711557 0.035100013 0.03375144 -0.013087047 -0.020392032 -0.030555101 -0.061768245
-0.06274016 0.028906664 0.026637293 0.050342914 -0.07967775 -0.0314286 0.032649722 0.05082056
-0.009063605 -0.028033936 -0.0042106244 -0.017952256 -0.03249382 0.08219353 0.012334115 0.0061129574
0.011443243 -0.08292702 -0.00973942 0.03138935 -0.06809274 -0.07118321 -0.0020359869 0.06443354
-0.061004467 0.0036798152 -0.015650757 -0.045135796 -0.018204516 -0.012493184 0.00945332 0.058645844
0.059704028 -0.0040636263 0.04436174 0.04268134 -0.05715147 -0.026703015 0.061101824 -0.085631296
-0.061921198 -0.023050832 0.027842669 0.08173724 -0.012201901 -0.043140605 0.012565441 -0.04254774
0.08837855 0.0675105 -0.057139594 0.05058679 0.05857468 0.06021396 0.079396956 -0.006112625
-0.043945167 -0.07160213 0.028993655 -0.062243555 0.007982084 0.07732182 -0.011338864 0.015294263
-0.047641646 -0.08112589 0.079810195 -0.024378648 -0.07943692 0.07728684 0.007991837 -0.00046992383
-0.030760884 0.06783349 0.04967872 -0.087335505 0.0043712687 -0.0733142 0.00055619667 0.020944959
0.0011942282 0.0312992 0.085046254 0.040011268 -0.040625505 -0.082169674 -0.02904883 -0.0374951
-0.011462878 -0.068569586 0.049892224 0.050876178 0.003245514 0.047846872 -0.020386053 0.07427808
-0.007861326 -0.019786278 -0.040762715 -0.028135275 -0.0610536 0.0788818 0.08321631 0.0402451
00000000: 6bdf 753d bf71 f2ba 16d0 823d b3ff 923d
00000010: 848c 11bd 3ea9 9d3d 0ea3 73bd 6bbc 673d
00000020: 4bc3 ad3d 50e8 38bd 78c8 603d 97f4 603d
00000030: f859 693d 70c0 ae3c 1f30 76bd 7c7e 7abd
00000040: 1f79 5ebd d7ad 453d c5fa ab3d 98c7 eebb
00000050: b654 2a3c b414 90bd f3c8 233d baaf 9abc
00000060: 83b7 42bd 0e69 053d 71ad 243c 24ee f7bc
00000070: e48a 81bd 2a34 8b3d 04a6 a9bd b1b9 ca3c
00000080: 48e1 9dbd 43e5 12bd d7b6 d03c f5ab a6bb
00000090: 04ac 8bbd a012 a7bc b573 95bd 4210 7a3d
000000a0: 5e01 4cbd 93f8 893d 2910 323c 1bd2 ef3c
000000b0: a5c9 133c 8f72 083d 488b 943d 5f81 cebb
000000c0: 9e3d 2a3d fb37 1e3d dcac 5e3d 8484 c7bc
000000d0: f507 923d 9d86 8ebd 5e55 94bd 18af 2c3c
000000e0: 078d cebc 1b5b e93c 3f3c b23c 4ced 0cbd
000000f0: 6639 9fbd 9453 20bd 8d61 03bd e86f 9b3d
00000100: 6ba9 b33d 47cb 8fbd 50b7 333d a215 38bc
00000110: d1ae 17bd f2bd 203d 317c 5a3d b05a 40bd
00000120: b1f2 a23c 5671 283b 7c35 263d 14a8 42bd
00000130: f424 9d3d 0868 9bbd 31c2 abbd db93 b4bc
00000140: 5ea6 273d 3ca6 9e3c 3678 26bc f88b a03d
00000150: 6415 acbd 7277 38bd ca24 8dbc 0f0b 53bd
00000160: a598 0fbc a753 823d e154 a33d 38ac b0bc
00000170: 6c27 993d 801b 2e3d f85d e3bb bdbc 9d3d
00000180: b167 98bd d343 82bc 8fc2 823d e74d 393d
00000190: 3b28 7abc 0c1f 34bd 0421 953d 5e0e d9bc
000001a0: a006 6abd bebd 42bd 2c11 5dbc 47a1 c83c
000001b0: 0282 ef3c 1600 553d 1017 e43c d3b1 9f3d
000001c0: 874d a43d a20c 12bd 31fd 013c 20e4 02bd
000001d0: b8d9 aebd e4a4 9c3d c9ec 2ebb f65b 9c3d
000001e0: c873 5fbd 4b03 a73d 2714 ecbc f399 8a3d
000001f0: 1cbe 73bd 26aa da3b 4f2f 733d 2564 2abd
00000200: 2090 9f3d af07 a43d ffb2 42bd d510 a73b
00000210: 9f09 1ebd 0bb0 6f3d 8d00 a1bd 0009 af3d
00000220: 2697 a53d 77e1 45bc 9cb2 a83d 20f0 093d
00000230: 2da6 0a3d 6511 ab3c bb37 843d 0557 43bb
00000240: 6041 173c ebba 0ebc 08c5 0f3d f33e 0a3d
00000250: 0e6b 56bc 310d a7bc b14e fabc b300 7dbd
00000260: ea7d 80bd abcd ec3c 7436 da3c 5f34 4e3d
00000270: 172e a3bd 47bb 00bd b7bb 053d 3829 503d
00000280: 847f 14bc 6da7 e5bc 47f9 89bb 9c10 93bc
00000290: 3d18 05bd 1555 a83d 0715 4a3c 344f c83b
000002a0: 717c 3b3c a4d5 a9bd 1792 1fbc 1e92 003d
000002b0: 3574 8bbd 81c8 91bd 316e 05bb bbf5 833d
000002c0: d2df 79bd 0e29 713b 0436 80bc 50e0 38bd
000002d0: a321 95bc 36b0 4cbc 19e2 1a3c a036 703d
000002e0: 368c 743d 2b28 85bb a8b4 353d a1d2 2e3d
000002f0: a917 6abd 48c0 dabc e845 7a3d 765f afbd
00000300: 15a1 7dbd 19d5 bcbc 4f16 e43c db65 a73d
00000310: 7bea 47bc 34b4 30bd 48df 4d3c 8a46 2ebd
00000320: d0ff b43d f242 8a3d 350b 6abd 1834 4f3d
00000330: 01ec 6f3d eaa2 763d df9a a23d 6a4c c8bb
00000340: d9ff 33bd 23a4 92bd 1a84 ed3c 19f3 7ebd
00000350: 49c7 023c e75a 9e3d a5c6 39bc ca94 7a3c
00000360: e323 43bd 5525 a6bd 8773 a33d bbb5 c7bc
00000370: d3af a2bd 9048 9e3d 32f0 023c 1c60 f6b9
00000380: 40fe fbbc 49ec 8a3d ea7b 4b3d f5dc b2bd
00000390: dc3c 8f3b c125 96bd bacd 113a c394 ab3c
000003a0: a687 9c3a 9733 003d bb2c ae3d dbe2 233d
000003b0: ee66 26bd 9348 a8bd d0f7 edbc 7694 19bd
000003c0: ccce 3bbc 366e 8cbd ca5b 4c3d 8a63 503d
000003d0: b0b2 543b 15fb 433d a700 a7bc 1b1f 983d
000003e0: cbcc 00bc d516 a2bc cef6 26bd f37b e6bc
000003f0: 5713 7abd c88c a13d 506d aa3d 0cd8 243d

bias_ih_l1 f4 [384]
0.0879951 0.039026745 0.02224447 -0.032613687 0.06755125 -0.07174624 0.04667291 -0.046072245
0.06788467 -0.07999515 0.049129304 0.047629394 -0.022936294 -0.08414533 -0.05172453 0.03873803
-0.043089572 0.024998324 0.022398058 -0.04014172 0.05099973 -0.059552506 -0.029997079 0.021712305
0.01456859 -0.011589116 -0.08521681 -0.026732175 0.022571519 -0.020207481 0.053440213 0.007185179
0.018968608 -0.022322431 -0.008737297 0.059212245 -0.054047607 0.028809758 -0.019337036 0.046598736
0.04698992 -0.018161882 -0.07575231 0.04879251 -0.08776416 0.053924657 0.02842431 0.05585037
-0.024239913 -0.07729702 -0.042093184 0.04848402 -0.054117773 -0.08669589 0.008007035 -0.05563208
-0.04247167 -0.08445017 0.06191227 0.027873652 -0.014353518 -0.03046282 0.07741815 -0.05374294
0.016083803 -0.04868305 -0.049572542 0.082469 0.017936008 -0.0050302986 0.081301175 -0.052057795
-0.036566235 0.06861109 -0.007466816 0.0103588095 0.04661514 0.017803378 -0.06341059 0.008084008
0.049020596 -0.030974284 0.024464913 0.06151767 -0.054399807 0.08436181 0.046031035 -0.067174315
0.06786622 0.0015043723 0.020343687 0.07770137 -0.017236345 0.036026064 0.002663107 0.035132907
0.06376111 -0.0030613872 -0.017078012 -0.08044361 0.012108395 -0.05659371 -0.030769123 0.019248793
0.030303137 -0.013553712 -0.06701499 -0.008475192 -0.012412007 -0.071304165 -0.045933735 0.024677943
0.08199664 -0.050145406 0.0096749 -0.07532177 0.04632673 -0.043448526 -0.07562967 -0.04067722
0.003514516 -0.07818387 -0.06970071 -0.046055827 0.02452763 -0.010011214 -0.074987985 -0.028074797
0.045694057 -0.058716796 0.0779679 0.00938578 -0.0518647 0.015302623 0.07653767 -0.054177605
0.06588221 0.07138495 -0.02568 0.05703948 0.012436113 -0.019925945 -0.06659643 0.04766967
-0.07645282 0.001894604 -0.017265545 0.062820286 0.0327145 -0.009138409 0.0165648 -0.016366271
0.008817772 -0.037931126 -0.0440951 -0.04586004 -0.010715455 -0.07701814 0.04632489 0.012314001
0.07878341 0.075363256 0.048643235 0.026550032 0.025780004 0.050463144 0.06655545 -0.0680876
0.04878999 -0.029042458 -0.026126914 0.00396242 -0.02096008 -0.08843166 -0.024979543 0.00023310137
0.074045345 0.021417683 -0.037365288 0.03466851 -0.061616447 0.07839073 -0.08135432 0.04003354
0.04598109 -0.01206661 -0.04703778 -0.06046606 -0.030967556 0.051608887 -0.06265154 -0.046142276
0.07540852 0.048904452 0.0018270314 -0.06045839 0.026420964 0.07580426 0.026557999 0.016639527
-0.037786115 0.07036468 0.06176269 -0.055621367 -0.04114741 0.07433965 0.051255096 0.035143178
0.011095307 0.077839114 0.056732852 0.016150359 -0.08588341 -0.065255016 0.08653974 0.021184918
-0.03536725 0.04189403 0.01109213 -0.050833434 -0.08181332 0.0042466503 -0.057318356 0.024450377
-0.03149138 0.06353909 0.05887503 -0.004558537 -0.03819222 -0.037633974 -0.01608705 0.061652668
-0.047186356 0.024241926 0.032638714 0.028090985 -0.053345542 0.08607789 0.055821404 0.003490434
-0.04792153 0.04083663 0.058743436 -0.051990945 -0.06846587 -0.05646603 -0.041568913 -0.084514044
-0.01075341 -0.060050357 0.050030857 0.0005896604 0.026967116 0.02896759 -0.049609333 0.08557992
00000000: c636 b43d 82da 1f3d 093a b63c ee95 05bd
00000010: 4f58 8a3d b1ef 92bd 182c 3f3d 40b6 3cbd
00000020: 1e07 8b3d 7fd4 a3bd cf3b 493d 0a17 433d
00000030: e5e4 bbbc 6354 acbd 1add 53bd c5ab 1e3d
00000040: b17e 30bd 49c9 cc3c 227c b73c a56b 24bd
00000050: 18e5 503d 54ed 73bd 6fbc f5bc 01de b13c
00000060: 18b1 6e3c 47e0 3dbc 2786 aebd 6ffd dabc
00000070: e8e7 b83c 298a a5bc 20e4 5a3d a671 eb3b
00000080: 0e64 9b3c 88dd b6bc e126 0fbc 8a88 723d
00000090: 0661 5dbd 7102 ec3c b468 9ebc 51de 3e3d
000000a0: 8178 403d 3ac8 94bc 0724 9bbd a8da 473d
000000b0: b2bd b3bd 1ae0 5c3d 19da e83c 5cc3 643d
000000c0: c892 c6bc e64d 9ebd e769 2cbd 2e97 463d
000000d0: 99aa 5dbd 9d8d b1bd f02f 033c 77de 63bd
000000e0: c6f6 2dbd 36f4 acbd b897 7d3d 4957 e43c
000000f0: 052b 6bbc 2a8d f9bc 688d 9e3d 8f21 5cbd
00000100: 2ec2 833c e167 47bd 940c 4bbd 82e5 a83d
00000110: 89ee 923c 34d5 a4bb 3b81 a63d 8e3a 55bd
00000120: 7ac6 15bd f983 8c3d 31ac f4bb ffb7 293c
00000130: 84ef 3e3d 64d8 913c 69dd 81bd c972 043c
00000140: d2c9 483d c8bd fdbc a46a c83c f4f9 7b3d
00000150: 55d2 5ebd e2c5 ac3d 0a8b 3c3d b092 89bd
00000160: 72fd 8a3d 5c2e c53a cea7 a63c e521 9f3d
00000170: 3c33 8dbc 1190 133d 8587 2e3b 86e7 0f3d
00000180: 2f95 823d 8ea1 48bb 30e7 8bbc 9fbf a4bd
00000190: 4a62 463c cece 67bd 870f fcbc a5af 9d3c
000001a0: 493e f83c 6310 5ebc 283f 89bd 88db 0abc
000001b0: bb5b 4bbc eb07 92bd 0325 3cbd 6629 ca3c
000001c0: dbed a73d 4565 4dbd 7983 1e3c 4d42 9abd
000001d0: 19c1 3d3d 15f7 31bd bae3 9abd 289d 26bd
000001e0: cb53 663b dd1e a0bd 3fbf 8ebd 09a5 3cbd
000001f0: 2bee c83c 1306 24bc 4d93 99bd 1efd e5bc
00000200: b129 3b3d 0681 70bd a2ad 9f3d d1c6 193c
00000210: 1470 54bd dab7 7a3c c8bf 9c3d 56e9 5dbd
00000220: 41ed 863d 4632 923d dd5e d2bc 3ba2 693d
00000230: d7c0 4b3c bc3b a3bc b663 88bd 4641 433d
00000240: 4c93 9cbd 5c54 f83a 7970 8dbc eca7 803d
00000250: a4ff 053d 44b9 15bc e7b2 873c 8f12 86bc
00000260: 6b78 103c ab5d 1bbd 109d 34bd bdd7 3bbd
00000270: e08f 2fbc b0bb 9dbd 2bbf 3d3d aac0 493c
00000280: 3259 a13d 0d58 9a3d 213e 473d 747f d93c
00000290: 9630 d33c 71b2 4e3d 394e 883d 8371 8bbd
000002a0: 03d8 473d 73ea edbc 1c08 d6bc 30d7 813b
000002b0: 79b4 abbc a81b b5bd e6a1 ccbc ac6c 7439
000002c0: 16a5 973d 2374 af3c 580c 19bd 9100 0e3d
000002d0: 8761 7cbd 528b a03d 189d a6bd 36fa 233d
000002e0: ab56 3c3d 08b3 45bc b0aa 40bd 42ab 77bd
000002f0: acaf fdbc d763 533d 734f 80bd afff 3cbd
00000300: c86f 9a3d 0950 483d 0079 ef3a 37a3 77bd
00000310: c770 d83c 443f 9b3d 2990 d93c 9e4f 883c
00000320: 9dc5 1abd 5b1b 903d e0fa 7c3d 3bd3 63bd
00000330: 308a 28bd 633f 983d ddf0 513d 4bf2 0f3d
00000340: 17c9 353c 1d6a 9f3d b560 683d c24d 843c
00000350: a4e3 afbd 6ca4 85bd bf3b b13d fe8b ad3c
00000360: 40dd 10bd 1399 2b3d c4bb 353c b836 50bd
00000370: be8d a7bd 7c27 8b3b a7c6 6abd 284c c83c
00000380: 1bfd 00bd c820 823d f226 713d c85f 95bb
00000390: 726f 1cbd 1526 1abd fdc8 83bc 8287 7c3d
000003a0: 7b46 41bd 0197 c63c 2cb0 053d 111f e63c
000003b0: db80 5abd 9b49 b03d fca4 643d c4bf 643b
000003c0: 5e49 44bd 4f44 273d f59c 703d 75f4 54bd
000003d0: d637 8cbd ed48 67bd 2a44 2abd b315 adbd
000003e0: 122f 30bc 5df7 75bd 28ed 4c3d 7193 1a3a
000003f0: 24ea dc3c 704d ed3c 2833 4bbd 8644 af3d
