model/actor_gnn.pth (torch, 890127 bytes, 26 tensors)

weight f4 [128, 4]
0	0x3e618d61	0.22026588
1	0xbbad54ab	-0.005289634
2	0xbda4f3b1	-0.08054293
3	0xbd49238b	-0.049106162
4	0x3ddbdfd5	0.10736052
5	0xbd21e7c8	-0.039527684
6	0xbe3e5e1e	-0.1859059
7	0xbe1572a7	-0.14594518
8	0xbdb03b0d	-0.08605013
9	0x3d7ee2fc	0.062228188
10	0x3df1c742	0.118055835
11	0x3d4ec612	0.050481863
12	0xbd9277f8	-0.071517885
13	0x3cb10422	0.021608416
14	0x3e08baab	0.13352458
15	0x3d13c384	0.03607513
16	0xbc5786e5	-0.01315472
17	0xbc99beff	-0.018767832
18	0xbd0c7869	-0.03429452
19	0x3d399f6d	0.045318056
20	0xbdb079c7	-0.08616977
21	0x3d42af9a	0.047530748
22	0x3da36151	0.07977546
23	0x3c5b6616	0.013391038
24	0xbc1c7bda	-0.009551013
25	0xbe1b1297	-0.1514381
26	0x3caf029e	0.021363553
27	0xbda86a05	-0.082233466
28	0xbd1ac590	-0.037786067
29	0x3db70999	0.089373775
30	0x3dca65f9	0.09882731
31	0xbcd81c04	-0.026380546
32	0xbc592ced	-0.01325534
33	0x3d8e103e	0.06936692
34	0x3dec7819	0.11546344
35	0x3c950236	0.01818953
36	0x3d9ce081	0.07660008
37	0x3c2a9ce9	0.010413387
38	0x3d880c2a	0.06642945
39	0x3d000803	0.03125764
40	0x3d6cf6e5	0.057852644
41	0x3cce06a8	0.025149658
42	0x3d25b0c0	0.040451765
43	0x3d42250c	0.047398612
44	0xbdcf66c6	-0.10127024
45	0x3d17f251	0.037096325
46	0xbe42cf4f	-0.19024394
47	0xbdd73407	-0.1050797
48	0xbd5cd04f	-0.053909596
49	0x3e4b144a	0.19831958
50	0xbdb7a652	-0.0896727
51	0xbd8907fb	-0.06690975
52	0xbc8a85ee	-0.016909566
53	0xbd513467	-0.051075365
54	0x3c942b42	0.018087033
55	0x3dc5c434	0.096565634
56	0xbd501213	-0.050798487
57	0xbca342b2	-0.019929264
58	0xbcffc0a4	-0.031219788
59	0xbe0f09b6	-0.13968548
60	0x3d9442e5	0.072393216
61	0x3d853ed0	0.06506121
62	0xbcda8f26	-0.026679587
63	0x3d7e5b0c	0.062098548
64	0x3d2ed4c9	0.042683396
65	0xbb4a86b4	-0.0030903043
66	0x3d83162d	0.06400714
67	0xbda9eb19	-0.082967944
68	0xbdfa6951	-0.12227119
69	0xbdcd760a	-0.1003228
70	0xbdbfffbc	-0.09374949
71	0xbdb61494	-0.08890644
72	0x3de077fa	0.10960384
73	0xbc860d1a	-0.01636367
74	0x3d9a60e9	0.075380154
75	0xbdcb3083	-0.09921362
76	0x3ccfb9cc	0.02535715
77	0xbe102a5f	-0.14078663
78	0xbe779ee3	-0.24181704
79	0x3ca1c4df	0.019747196
80	0xbcd037fb	-0.025417319
81	0x3d924b03	0.071432136
82	0xbcc1530a	-0.023599166
83	0x3d06f9aa	0.032952942
84	0xbd703197	-0.058641043
85	0xbd25f3d0	-0.04051572
86	0xbd76365d	-0.06011044
87	0xbcc20244	-0.023682721
88	0x3de78a1d	0.1130564
89	0x3e3da64f	0.18520473
90	0x3dbfa7a7	0.09358149
91	0xbe239e4c	-0.15978354
92	0x3d36b68c	0.044607684
93	0x3e221f9b	0.15832369
94	0x3df74de7	0.120754056
95	0xbcb11a34	-0.02161894
96	0xbd48aa19	-0.048990343
97	0x3dee92fe	0.1164913
98	0x3e62eca8	0.2216059
99	0x3dab7737	0.08372348
100	0x3e259d9d	0.16173406
101	0x3e07f0f7	0.13275515
102	0xbd35d351	-0.04439098
103	0xbdd2eb32	-0.10298766
104	0x3dc36580	0.09540844
105	0xbc8da69c	-0.01729136
106	0x3cc71870	0.024303645
107	0x3d805199	0.062655635
108	0xbd3586aa	-0.04431788
109	0x3c9ba670	0.019000262
110	0x3db75d74	0.08953372
111	0x3d87ca78	0.06630415
112	0x3df1058c	0.11768636
113	0xbdf4a585	-0.11945633
114	0x3d1bc67f	0.038031098
115	0xbdcd928d	-0.10037718
116	0xbdaab6d6	-0.083356544
117	0xbdb723f1	-0.08942402
118	0xbd37d3f0	-0.044879854
119	0x3d33d747	0.043906476
120	0x3cf3a76e	0.029742923
121	0x3d5a70ad	0.053330112
122	0x3d99f8a5	0.07518128
123	0x3c946998	0.018116757
124	0xbd6d38bb	-0.05791543
125	0xbd0a6aa9	-0.033793125
126	0xbd76ac96	-0.060223185
127	0x3dc265cd	0.09492073
128	0xbd855f96	-0.06512372
129	0x3df8b465	0.121437825
130	0x3ce98eb5	0.02851043
131	0xbac2dc0d	-0.0014866606
132	0xbdb5aa9b	-0.08870431
133	0x3d6e5519	0.058186624
134	0xbe03a3af	-0.12855409
135	0xbb3be7e8	-0.0028672162
136	0xbd6aec9f	-0.057354566
137	0xbdae6004	-0.08514407
138	0x3da7246b	0.08161243
139	0xbb9cab1b	-0.0047811395
140	0x3d3f36fe	0.046683304
141	0xbd929300	-0.07156944
142	0x3d95bff4	0.07312003
143	0xbd29e2af	-0.041475948
144	0x3d5baf82	0.053634174
145	0x3d849508	0.06473738
146	0xbe08a5ac	-0.13344449
147	0xbcb09825	-0.021556923
148	0xbcab961b	-0.0209456
149	0x3d3ec5bb	0.04657529
150	0x3d16cfe2	0.036819346
151	0xbe2ed97e	-0.17075154
152	0x3dd5857e	0.10425852
153	0xbc0f6347	-0.008751697
154	0x3cfa8536	0.030581098
155	0x3e75a799	0.23989715
156	0xbd170f77	-0.036879983
157	0x3d681669	0.056661997
158	0x3e291ded	0.16515322
159	0xbd76a907	-0.06021979
160	0x3d90877c	0.070570916
161	0xbe005fe6	-0.12536582
162	0x3d081748	0.033225328
163	0xbd2cf10b	-0.042222064
164	0xbdd6bf68	-0.104857266
165	0xbc8df16f	-0.017327039
166	0x3da86d62	0.08223988
167	0xbc9594ab	-0.018259367
168	0x3e16878a	0.14700142
169	0xbddc9661	-0.1077087
170	0xbc99ae05	-0.018759737
171	0x3d8a6848	0.06758171
172	0x3c714a63	0.014727208
173	0x3d0e7b5c	0.034785613
174	0xbde51101	-0.11184884
175	0x3c7ec2eb	0.015549402
176	0xbdc68ac3	-0.096944354
177	0xbdd507f0	-0.104019046
178	0x3c32e270	0.010918245
179	0xbdfbed69	-0.12301142
180	0x3d4a99dd	0.04946314
181	0xbc910779	-0.017703759
182	0xbe325578	-0.17415416
183	0xbd2ee0d1	-0.04269487
184	0xbce01bd5	-0.027357021
185	0xbd10c300	-0.035342216
186	0xbd76d534	-0.06026192
187	0x3d99ba73	0.075062655
188	0x3dce9b59	0.10088224
189	0x3d129dc1	0.035794977
190	0x3b81ce4f	0.0039613615
191	0xbb9b6219	-0.0047419188
192	0x3d3ad34c	0.045611665
193	0xbe6dc622	-0.23220113
194	0x3e11d3e8	0.14240992
195	0x3cd58434	0.026064016
196	0xbd450f8a	-0.048110522
197	0x3d156bda	0.03647981
198	0xbbd8d0e8	-0.0066167004
199	0xbde60d2f	-0.11232983
200	0x3dafa5ba	0.08576532
201	0x3d881b8c	0.06645879
202	0xbde554b1	-0.11197794
203	0xbe666172	-0.2249811
204	0xbdd6abb3	-0.10481968
205	0x3c9e2194	0.01930312
206	0x3cd8fff6	0.02648924
207	0xbd542259	-0.05179057
208	0xbde3fdaa	-0.11132367
209	0x3cebc146	0.028778683
210	0x3c5f521c	0.013630416
211	0x3cbc70e0	0.023003042
212	0x3c767c83	0.015044334
213	0xbda4b6c0	-0.08042669
214	0x3d7eea6a	0.062235273
215	0xbc745101	-0.014911891
216	0xbc66f4bc	-0.014096435
217	0xbdcea7a7	-0.10090571
218	0x3dc1e7c7	0.09468036
219	0xbd610680	-0.05493784
220	0xbe06f287	-0.13178454
221	0xbc2bdfd9	-0.010490381
222	0x3a9de9ea	0.0012047861
223	0xbe624785	-0.22097595
224	0xbd4d738a	-0.050159015
225	0x3dea69bd	0.11445949
226	0xbdb2deff	-0.087339394
227	0xbe03cdce	-0.12871477
228	0xbc341bc0	-0.010992944
229	0xbdceecf2	-0.101037875
230	0x3d7d68f0	0.061867654
231	0x3c0f4926	0.008745467
232	0xbe0674ed	-0.13130541
233	0x3d28a085	0.04116871
234	0x3cf2d251	0.029641302
235	0x3d6c835f	0.057742473
236	0xbd07735d	-0.033069003
237	0x3dcbee79	0.099575944
238	0x3d2ba6e8	0.04190722
239	0xbd73e4b8	-0.059544295
240	0xbe241df7	-0.16027056
241	0x3c76652d	0.015038771
242	0x3bce6ecd	0.0062998296
243	0xbd898005	-0.06713871
244	0x3ccc4dc6	0.024939429
245	0x3cd3e186	0.025864374
246	0xbd8a3702	-0.06748773
247	0xbd80391f	-0.06260895
248	0xbcd4ce96	-0.025977414
249	0x3d1a5cd6	0.03768619
250	0x3cd36aa3	0.025807684
251	0xbdf03cf0	-0.11730373
252	0xbc08ecf8	-0.008357279
253	0xbd86b5f0	-0.065776706
254	0xbd18ac2b	-0.037273567
255	0x3d3ddbbd	0.046352137

bias f4 [128]
0	0xba925b3b	-0.0011166105
1	0xbabdd59a	-0.0014483214
2	0x3a7708df	0.0009423624
3	0x39e17ee1	0.00043009876
4	0xba9b595b	-0.0011852192
5	0xbb0475f8	-0.0020211916
6	0xb9eb2550	-0.00044850493
7	0x3a6dd2c5	0.00090722396
8	0x3b0ce794	0.0021500336
9	0x3964305b	0.00021761788
10	0xbaad96ee	-0.0013243833
11	0xbb4cc0f1	-0.0031242932
12	0x39f2a3a4	0.0004627976
13	0xbb0e055c	-0.0021670675
14	0xba41553a	-0.00073750655
15	0xbb661555	-0.003510793
16	0xbbb2c7d7	-0.0054559517
17	0xba65188d	-0.0008739315
18	0xbaf4fb98	-0.0018690703
19	0x3ba77355	0.005110184
20	0xb8bfe007	-9.149318e-05
21	0x3b2d6ad7	0.0026461387
22	0xba314479	-0.00067622174
23	0xbb29184c	-0.0025801836
24	0xba9d94ba	-0.0012022473
25	0xbaa5f754	-0.001266221
26	0x3b3098b5	0.002694649
27	0x3ad4715e	0.0016208102
28	0xb9ac8342	-0.0003290419
29	0x390f1a0b	0.00013647244
30	0xbb3f857a	-0.0029223845
31	0xbb16ef12	-0.002303068
32	0xba5da87e	-0.0008455588
33	0x3b1ce739	0.002394153
34	0xb9de1ebf	-0.00042366047
35	0xba76d1d1	-0.00094154204
36	0xbb6f76dc	-0.0036539352
37	0x3a49247e	0.0007672979
38	0x3aa0e82b	0.0012276223
39	0x3a9ee221	0.0012121835
40	0xbabd7baf	-0.0014456416
41	0xbb17bd95	-0.0023153771
42	0xbb19d1f1	-0.0023471082
43	0xbaa505ec	-0.0012590266
44	0xba9cb35c	-0.0011955309
45	0x386dd185	5.6700334e-05
46	0xbae3b213	-0.0017371796
47	0xbb42e2cc	-0.0029737232
48	0x3a3ad6ab	0.0007127325
49	0xb9065620	-0.0001281132
50	0xb8ba5664	-8.885263e-05
51	0x39d1dad5	0.0004002663
52	0x38cb088a	9.681385e-05
53	0xbad039df	-0.0015886388
54	0xbad9ec7b	-0.0016626263
55	0x3b283b9b	0.0025670293
56	0x398e1fe9	0.00027108126
57	0xbae47364	-0.0017429409
58	0x3a2ba107	0.0006547127
59	0x3b63c6ef	0.0034756025
60	0xbb364bcf	-0.0027816182
61	0xbb833c3f	-0.0040049846
62	0xba5595c8	-0.00081476243
63	0x3ac71fe8	0.0015192004
64	0xbaa3a2d4	-0.001248444
65	0xb885cb71	-6.379828e-05
66	0x3a237ce0	0.00062365644
67	0xbacd70a4	-0.0015673828
68	0xbb68e428	-0.0035536382
69	0xbb5aad8f	-0.003336761
70	0xbaf8e370	-0.001898868
71	0x3a2c108a	0.0006563744
72	0xbb3e3a18	-0.0029026326
73	0xbba0c2f5	-0.004906053
74	0xb898e983	-7.29142e-05
75	0x3b065009	0.0020494482
76	0x3a7cc43f	0.000964228
77	0x3ac80614	0.00152606
78	0x3a3e5d15	0.0007261795
79	0x3b3a961e	0.0028470824
80	0x3b329a91	0.0027252773
81	0x3917654f	0.00014438223
82	0xbb6c7a8f	-0.0036083793
83	0xb961f409	-0.00021548582
84	0x392c6216	0.00016439738
85	0xba7f82cc	-0.0009746968
86	0xba85fd88	-0.0010222653
87	0xb9ed58ba	-0.0004527027
88	0x38d1499b	9.979607e-05
89	0xb812556e	-3.4888675e-05
90	0x39b79790	0.00035017403
91	0xbac7beb7	-0.0015239333
92	0xbaeb7a1b	-0.0017965467
93	0xba969f80	-0.0011491627
94	0x3b194e6b	0.0023392688
95	0xba2e3f47	-0.00066470023
96	0xbb35b8c4	-0.0027728537
97	0xba863c06	-0.0010241277
98	0x3a44919a	0.0007498503
99	0x3a6773c4	0.0008829201
100	0xbadc9b97	-0.0016831037
101	0x39d3223c	0.00040270563
102	0xbadd6c2d	-0.0016893201
103	0xbb0e5192	-0.00217161
104	0xb994c4f9	-0.00028375516
105	0xbb61607a	-0.003438978
106	0xba9a90d3	-0.0011792429
107	0x3aa3d06b	0.0012498026
108	0xbaaca7c9	-0.0013172562
109	0xb9e6cc37	-0.0004402117
110	0xbb22d88c	-0.002484831
111	0x3af9808c	0.0019035502
112	0x3a0aedab	0.00052996975
113	0xb74cf91d	-1.2217349e-05
114	0xbaebe4e3	-0.0017997291
115	0x39813ec0	0.0002465155
116	0x3ada0595	0.0016633744
117	0xbb8abc6c	-0.0042338874
118	0xba06a83e	-0.00051367644
119	0xbb3f788c	-0.0029216139
120	0xba989552	-0.0011641181
121	0x3a86daed	0.0010288634
122	0xbb11b55e	-0.0022233347
123	0xba5c6ecd	-0.00084088446
124	0x39d38b4f	0.0004034885
125	0xba00e34f	-0.0004916684
126	0x39de5e82	0.00042413553
127	0x38da8f9d	0.000104218

weight f4 [128, 4]
0	0xbe5ba9f7	-0.21451555
1	0xbc661ada	-0.014044488
2	0xbbe2af15	-0.006917844
3	0xbcbff8ba	-0.023434032
4	0x3ca9d7aa	0.02073272
5	0x3a8830cf	0.0010390523
6	0xbc1ca6c6	-0.009561246
7	0x3d8966c5	0.06709055
8	0xbe25305f	-0.16131733
9	0x3de341a2	0.11096503
10	0xbdaca82f	-0.08430516
11	0x3bc33c8c	0.0059581455
12	0x3d155f82	0.036468036
13	0xba874a36	-0.0010321799
14	0xbd0fd42e	-0.03511446
15	0xbd899f29	-0.067198105
16	0x3e082935	0.13296969
17	0xbde6ff9e	-0.11279224
18	0xbdd5e3e6	-0.10443859
19	0xbe44e202	-0.1922684
20	0xbe0f0b71	-0.13969208
21	0x3db41337	0.087927274
22	0x3dc82e38	0.097744405
23	0x3e5ed4e1	0.21760894
24	0xbb97db35	-0.004634286
25	0x3dab8ff9	0.0837707
26	0x3b9e937d	0.0048393593
27	0x3d2a9ebf	0.0416553
28	0xbce6f692	-0.028193746
29	0x3cf4353e	0.029810544
30	0xbda1dd86	-0.0790358
31	0xbd45a3ec	-0.04825203
32	0x3d4677bd	0.048454035
33	0xbd75cdc2	-0.06001068
34	0x3cb9fc2c	0.022703253
35	0x3e66ab5e	0.22526309
36	0xbdddf20f	-0.10837185
37	0xbe12bc00	-0.14329529
38	0x3dc8cdd7	0.09804886
39	0x3d688af2	0.056773134
40	0xbd992ab0	-0.07478845
41	0x3d3d95c8	0.04628542
42	0xbe0e9d49	-0.13927187
43	0xbd7493b3	-0.05971117
44	0x3d994fc0	0.07485914
45	0xbdaeda04	-0.08537677
46	0x3e1ac0a3	0.15112548
47	0x3d674489	0.056461845
48	0x3d943e2c	0.07238421
49	0xbd30d9b5	-0.04317637
50	0x3d425a40	0.04744935
51	0x3d8b7bdf	0.06810736
52	0xbd513f63	-0.05108584
53	0x3e0fef6d	0.14056177
54	0xbd9b7499	-0.075905986
55	0x3e14305a	0.1447157
56	0xbdf79ee4	-0.12090853
57	0xbc41779e	-0.011808304
58	0x3dc2e4f0	0.095163226
59	0x3d62e9d6	0.055398785
60	0x3c33450e	0.010941757
61	0xbcf38223	-0.02972514
62	0x3d4c9e03	0.04995538
63	0x3e320221	0.17383625
64	0x3e033135	0.1281174
65	0xbcf2e202	-0.029648785
66	0x3baa849d	0.005203797
67	0x3da139b8	0.07872337
68	0x3d9cd1d2	0.076572075
69	0xbd6721fc	-0.056428894
70	0x3ded5c36	0.115898535
71	0xbd953c5a	-0.07286902
72	0x3c2e9eed	0.010658008
73	0x3d4f6ed5	0.050642807
74	0x3d9c37ee	0.07627855
75	0x3d9418ad	0.07231269
76	0xbcb2b708	-0.021815792
77	0x3c7501fd	0.014954087
78	0xbbe1837c	-0.0068821292
79	0x3df33d2b	0.11876901
80	0x3d80d8b7	0.06291335
81	0x3dea949d	0.11454127
82	0xbcbd6a45	-0.023121962
83	0xbddb7a57	-0.10716694
84	0xbd83b6ac	-0.06431326
85	0xbd5ea24e	-0.054354005
86	0xbd341c1a	-0.043972112
87	0xbe624f6f	-0.22100614
88	0xbd1804b5	-0.037113864
89	0xbdb548e9	-0.08851797
90	0x3d5cd423	0.053913247
91	0xbcade960	-0.021229446
92	0xbdf031ba	-0.117282346
93	0x3c26a3b6	0.010170868
94	0x3cfbd8ae	0.03074297
95	0xbe2b9a02	-0.16757968
96	0x3de34b19	0.11098308
97	0x3d263713	0.040579867
98	0xbdec20dd	-0.11529706
99	0x3d87bde2	0.06628014
100	0x3cadfcf0	0.021238774
101	0xbd0813b0	-0.0332219
102	0xbdfb1123	-0.12259128
103	0xbdb42cfb	-0.08797642
104	0xbc641f18	-0.013923429
105	0x3dab6810	0.08369458
106	0x3d62ccab	0.055370968
107	0x3c75422e	0.014969392
108	0x3d5e5212	0.054277487
109	0x3d867719	0.06565685
110	0xbdd150e2	-0.10220505
111	0x3d029757	0.03188261
112	0x3d9aedf7	0.075649194
113	0xbdf7cb05	-0.1209927
114	0x3d8ea3cd	0.06964836
115	0xbe43254d	-0.19057198
116	0x3d1b6d90	0.037946284
117	0x3b8b7096	0.0042553646
118	0xbd507f48	-0.050902635
119	0xbe086a85	-0.13321884
120	0x3dc0a3eb	0.09406265
121	0x3bafb3ba	0.0053620012
122	0x3ca913f1	0.020639392
123	0x3c96001a	0.018310595
124	0x3cc65785	0.024211654
125	0xbcf3a3f1	-0.02974126
126	0x3ccf12ac	0.025277458
127	0x3cef3ef1	0.029204817
128	0x3d5dd48b	0.054157775
129	0x3d08066b	0.033209246
130	0xb974db71	-0.00023351402
131	0x3bcb2e37	0.0062005776
132	0x3d91b136	0.071138784
133	0xbdb6a6de	-0.08918546
134	0xbe260b43	-0.16215234
135	0x3cea60e8	0.028610662
136	0x3e7f106c	0.24908608
137	0xbc587b3f	-0.013212978
138	0xbcf1ae8f	-0.029502181
139	0x3e2cda88	0.16880238
140	0x3d89d89a	0.067307666
141	0x3cf82f87	0.0302961
142	0x3decb73c	0.11558387
143	0xbd201df3	-0.03909106
144	0x3e379351	0.1792729
145	0xbb7efe0c	-0.0038908748
146	0xbe3eb66f	-0.1862428
147	0xbd1fdb77	-0.039027657
148	0xbe22691b	-0.15860407
149	0xbe072196	-0.13196406
150	0x3c89c598	0.016817853
151	0x3d3d10e9	0.046158705
152	0xbb9624d3	-0.0045820265
153	0xbd867cf0	-0.06566799
154	0xbcbd21ee	-0.023087468
155	0x3e0b625e	0.13611743
156	0xbd497945	-0.049187917
157	0xbd556edb	-0.052107673
158	0x3de4c0fc	0.11169621
159	0x3c50a166	0.012733793
160	0xbc9b4509	-0.018953817
161	0x3d20356e	0.039113455
162	0xbe694b51	-0.22782637
163	0x3dd9faf2	0.10643567
164	0x3d2e42fe	0.042544357
165	0x3df9b0b0	0.121919036
166	0x3cdeff96	0.027221482
167	0xbe213b2a	-0.15745226
168	0xbd863bf7	-0.06554406
169	0x3db20089	0.08691508
170	0xbe2d6150	-0.16931653
171	0xbd39b056	-0.045334183
172	0x3d77ee02	0.060529716
173	0x3e934118	0.287606
174	0x3cd6b91c	0.026211314
175	0x3e271a8b	0.16318719
176	0x3d6e6299	0.0581995
177	0x3df40a7e	0.11916064
178	0x3e1ff499	0.1562065
179	0x3ccde64e	0.025134232
180	0x3d218b45	0.03943946
181	0xbdf4ffc9	-0.1196285
182	0xbc144ec7	-0.009051985
183	0x3daaf684	0.083478004
184	0x3db1901b	0.08670064
185	0xbe21868a	-0.15773979
186	0xbcb5d166	-0.022194576
187	0xbc9cd131	-0.019142719
188	0x3dd70818	0.10499591
189	0x3e52a6cd	0.20571442
190	0xbcdac5b9	-0.02670561
191	0xbc28a28c	-0.01029266
192	0xbdeccc3d	-0.11562393
193	0xbddc1b8b	-0.10747441
194	0x3d3607a5	0.044440884
195	0xbd8147b3	-0.06312504
196	0x3d089982	0.03334952
197	0x3ae42c65	0.001740825
198	0x3dba324e	0.09091626
199	0xbabf6a48	-0.0014603818
200	0x3da9f14b	0.08297976
201	0xbcfbcdbb	-0.030737748
202	0x3cd69912	0.026196036
203	0xbe221f0c	-0.15832156
204	0xbe31238c	-0.17298716
205	0x3d83359b	0.06406709
206	0x3d3670b4	0.044541076
207	0xbdb244fe	-0.087045655
208	0xbda96a20	-0.08272195
209	0xbbb88e0a	-0.0056321668
210	0x3da309ec	0.07960877
211	0x3d99c06f	0.07507407
212	0xbd8f5711	-0.069990285
213	0xbc6d495a	-0.01448282
214	0x3da75eef	0.08172404
215	0x3c893000	0.016746521
216	0x3ca9ced4	0.020728506
217	0xbd4c3f25	-0.049864907
218	0x3e07109d	0.13189931
219	0x3e47f6b4	0.19527704
220	0x3dfc1c42	0.12310077
221	0x3d5dcce8	0.054150492
222	0x3d197b63	0.037471186
223	0x3c1352bb	0.008991892
224	0xbdd8f426	-0.105934426
225	0xbda2d9a7	-0.0795167
226	0xbdbeaebf	-0.09310674
227	0x3c7bde69	0.015372851
228	0xbdd82086	-0.10553078
229	0x3e0c69ac	0.13712186
230	0xbd70e726	-0.05881419
231	0x3d18de5b	0.03732143
232	0x3d27fa3a	0.04101012
233	0xbd9bc6ea	-0.07606299
234	0x3d03f450	0.032215416
235	0x3ccfc9fa	0.025364865
236	0x3e12e7e3	0.1434627
237	0x3df2d644	0.11857274
238	0x3ddcd9b5	0.10783712
239	0xbc29d4b1	-0.010365651
240	0x3ce8f33f	0.028436301
241	0xbd638064	-0.055542365
242	0xbd07ce75	-0.033155877
243	0xbd2a5cd1	-0.041592423
244	0xbdf61a73	-0.120167635
245	0x3defc5d2	0.11707653
246	0x3d667b89	0.056270156
247	0x3d921c2a	0.07134278
248	0xbd7ff51b	-0.06248961
249	0x3d68efe7	0.056869414
250	0xbe193d0c	-0.14964694
251	0xbc44671e	-0.011987476
252	0xbe181153	-0.14850359
253	0xbe4c7421	-0.19966175
254	0x3d818ec4	0.063260585
255	0x3dd306b9	0.103040166

bias f4 [128]
0	0xbb0c9da7	-0.0021456273
1	0xba702552	-0.00091608346
2	0xbb03f129	-0.0020132756
3	0x3ad5b07a	0.0016303204
4	0xbb718782	-0.003685445
5	0xba9357ee	-0.0011241415
6	0x3b08b192	0.0020857793
7	0xbb8beec3	-0.004270406
8	0xbb7a1747	-0.0038160847
9	0xbb821556	-0.0039698286
10	0xbbcdc371	-0.006279402
11	0x3acb88d7	0.0015528452
12	0xba2c3b89	-0.0006570151
13	0xba9c7dd5	-0.0011939356
14	0x3a52f8ab	0.00080479187
15	0x3af49923	0.0018661361
16	0xbb0b4531	-0.0021250958
17	0xba141556	-0.0005648931
18	0xbb4572ca	-0.0030128234
19	0xb8c1d750	-9.243062e-05
20	0xbb60098b	-0.0034185376
21	0xba842e28	-0.0010084556
22	0x398ed0bd	0.00027239873
23	0xba2c8e70	-0.0006582504
24	0xbb22a33a	-0.002481653
25	0xbb0871b4	-0.0020819725
26	0x3a04406e	0.0005045001
27	0x3a3f0662	0.0007287023
28	0xbb09d312	-0.0021030349
29	0xbbad8986	-0.005295935
30	0xbb1b0414	-0.0023653554
31	0x3b25353e	0.0025208737
32	0x3ace432f	0.0015736575
33	0xbae6f458	-0.0017620428
34	0xba9e7f99	-0.001209247
35	0x3bba4eb0	0.00568565
36	0x3b14f5c3	0.0022729493
37	0xbb36ad2b	-0.0027874212
38	0xbaccee83	-0.0015635047
39	0xbb237a20	-0.0024944618
40	0x3afdea8a	0.0019372266
41	0xbba2e803	-0.0049715056
42	0xbb0baa30	-0.0021311156
43	0xb9c65cf5	-0.0003783476
44	0xbb27b8fe	-0.0025592442
45	0xb99ecf16	-0.000302904
46	0xbb790206	-0.003799559
47	0xba92f6a7	-0.0011212424
48	0x3b184d33	0.0023239374
49	0x3b90d56c	0.004419973
50	0x3a4dcea3	0.00078509207
51	0x3b0269d2	0.00198995
52	0x3b182e43	0.0023220934
53	0x3a27c34d	0.00063996465
54	0x3b1c79bf	0.0023876277
55	0x3a71b399	0.00092201825
56	0x3a7c933c	0.0009634977
57	0xbb573338	-0.0032836925
58	0x3a397584	0.0007074701
59	0x3ad82206	0.0016489632
60	0x3a24ebf1	0.00062912615
61	0xba3f602e	-0.00073004037
62	0xbac29eda	-0.0014848367
63	0xbb73c374	-0.0037195357
64	0xba98672c	-0.0011627427
65	0x3a242d2b	0.0006262834
66	0xba9afa14	-0.0011823797
67	0xbb42d852	-0.0029730988
68	0xbba298b0	-0.0049620494
69	0x3ae54311	0.0017491301
70	0xbbc28119	-0.0059358
71	0xba231951	-0.0006221729
72	0xbba75a24	-0.005107181
73	0xbb2f907c	-0.0026789
74	0xbb7572f2	-0.0037452546
75	0x3a1d0d35	0.00059910427
76	0x3adeab0d	0.0016988233
77	0xbb082f5d	-0.0020780184
78	0x3a7918c9	0.00095022895
79	0xbb982e86	-0.004644218
80	0xbb571285	-0.0032817435
81	0xbadd896b	-0.0016901916
82	0x3960a28a	0.00021422855
83	0xbabf1b28	-0.0014580237
84	0x3a448da2	0.00074979116
85	0xbb01303f	-0.0019712595
86	0x3bb12908	0.0054065026
87	0xbb5a7804	-0.0033335695
88	0xb874bfe2	-5.8352838e-05
89	0xbb7490e7	-0.0037317814
90	0xbb2f5c7e	-0.002675801
91	0xbb18142e	-0.0023205387
92	0xbb110ce8	-0.0022132937
93	0xb9990e4a	-0.0002919308
94	0xbb250cd4	-0.0025184648
95	0x3ae08402	0.0017129185
96	0x3a064e90	0.0005123401
97	0xba4d9dfe	-0.0007843672
98	0x3b1f94a5	0.0024350074
99	0x39cf4201	0.00039531293
100	0x3a3eeb85	0.000728302
101	0xbb39b625	-0.0028337326
102	0xbb143a6a	-0.0022617825
103	0xba483cc1	-0.00076384476
104	0x3a72736a	0.00092487654
105	0xbb9c7657	-0.0047748494
106	0xb8a7b483	-7.9968035e-05
107	0xba830899	-0.0009997069
108	0xbba05c70	-0.004893832
109	0xb9ec3271	-0.0004505101
110	0x393fd36d	0.00018293942
111	0x3ad680f8	0.001636534
112	0xbb441ad5	-0.002992322
113	0xba2cfaba	-0.00065986405
114	0xbb06d8df	-0.0020576043
115	0x3a46dce1	0.0007586014
116	0x3a887e26	0.0010413572
117	0x3b0d0e37	0.0021523365
118	0xbb041f12	-0.002016012
119	0x3b236a0a	0.002493503
120	0x3a922d70	0.0011152457
121	0xbb5d23dc	-0.0033743298
122	0xbb62c189	-0.003460022
123	0xbb033331	-0.0020019526
124	0xbace4a82	-0.0015738758
125	0xb81e7148	-3.7775637e-05
126	0xbb3a0c43	-0.0028388656
127	0xbb2d3672	-0.0026430157

weight f4 [128, 4]
0	0x3e364503	0.17799763
1	0x3dde55e5	0.10856227
2	0x3d827ad5	0.063710846
3	0x3e631593	0.22176199
4	0x3da9c832	0.08290137
5	0xbe0f275e	-0.13979861
6	0xbd4005ae	-0.046880417
7	0xbaeea664	-0.0018207547
8	0x3de4e328	0.11176139
9	0xbd71442e	-0.05890291
10	0x3c8d4c6c	0.017248355
11	0x3daeb2ff	0.085302345
12	0x3dbdbfa2	0.09265067
13	0xbcfae99f	-0.030628977
14	0x3c1ab908	0.009443529
15	0xbcda9cef	-0.02668616
16	0x3e0fb5ab	0.14034145
17	0xbe5e67a1	-0.21719219
18	0x3ce9f7dd	0.028560573
19	0x3d8eba2b	0.069691025
20	0x3df16481	0.11786748
21	0xbcce39de	-0.025174078
22	0x3d391008	0.045181304
23	0xbb201261	-0.0024425017
24	0xbc8ef240	-0.017449498
25	0xbe0cea56	-0.13761267
26	0xbdc4de16	-0.09612672
27	0x3d3c083a	0.045906283
28	0x3d27c817	0.040962305
29	0x3e84ba6f	0.25923488
30	0x3ccd62ad	0.025071466
31	0x3d59ae70	0.053144872
32	0x3ddc27c1	0.1074977
33	0xbe3a3f61	-0.1818824
34	0x3c95c3b8	0.018281803
35	0xbe413640	-0.18868351
36	0xbd94ffe1	-0.072753675
37	0x3ddcd765	0.10783271
38	0xbdfc9942	-0.12333919
39	0x3bb6884f	0.0055704485
40	0xbbb3f730	-0.0054921135
41	0x3d9b460c	0.0758172
42	0xbe1bbbc2	-0.15208343
43	0x3e2a521a	0.16632882
44	0x3cc393d8	0.023874208
45	0x3cba24cf	0.02272263
46	0xbe02c7bd	-0.12771507
47	0x3e405f10	0.18786263
48	0xbdb6a472	-0.08918084
49	0x3d9ff4eb	0.07810386
50	0x3dffae52	0.12484421
51	0xbcaa935a	-0.020822216
52	0x3d2c30c6	0.0420387
53	0x3c50870d	0.012727511
54	0x3cfe9119	0.031075047
55	0x3caafc7c	0.020872347
56	0xbcb08da2	-0.02155191
57	0x3da69daa	0.08135541
58	0xbcb10329	-0.021607952
59	0xbdab40fd	-0.08362005
60	0x3dace10c	0.08441362
61	0x3dbae2fb	0.09125324
62	0x3d508445	0.050907392
63	0x3d93c4af	0.07215249
64	0xbdadc55a	-0.084849074
65	0xbe0971db	-0.13422339
66	0xbdcd2c26	-0.10018186
67	0x3d2ef25b	0.042711597
68	0x3b9c3a61	0.0047677015
69	0x3c255d58	0.010093056
70	0x3e41bf5f	0.18920659
71	0xbdaabf39	-0.08337254
72	0xbe1121db	-0.14173071
73	0xbdd81df5	-0.10552589
74	0xbc4399cd	-0.011938524
75	0xbda0565f	-0.07828974
76	0x3c9ac8c0	0.018894553
77	0xbdf01153	-0.11722054
78	0xba0b04bc	-0.00053031347
79	0x3e3c8d96	0.18413386
80	0x3cd9a179	0.026566254
81	0x3ca0d2dd	0.019631797
82	0xbcf5e9a5	-0.030018637
83	0xbd2b1f38	-0.04177782
84	0x3d7e62fd	0.06210612
85	0x3c16fe7c	0.009215947
86	0x3db20959	0.08693189
87	0xbddf65ab	-0.109080635
88	0xbd8d6f90	-0.069060445
89	0x3dc8dd09	0.09807784
90	0xbd481b4f	-0.04885417
91	0xbc71151b	-0.014714505
92	0x3b4374d4	0.0029824274
93	0x3e472e19	0.19451179
94	0xbbe22f04	-0.0069025774
95	0xbd9d5ac3	-0.07683327
96	0x3e2205cf	0.15822528
97	0x3d4f6e0d	0.050642062
98	0xbe1c9988	-0.15292943
99	0xbe1a619a	-0.15076295
100	0x3cc1c849	0.023655074
101	0x3d918200	0.07104874
102	0x3b00ab87	0.0019633488
103	0x3b857e2b	0.0040738783
104	0xbd1ea36d	-0.038730074
105	0xbce4f2d0	-0.027947813
106	0x3ca69355	0.020333925
107	0x3d88c2ab	0.06677755
108	0xbbe5718c	-0.0070020612
109	0xbd38d4f1	-0.04512495
110	0x3d3c7b29	0.046015892
111	0xbe06d4cf	-0.13167118
112	0x3ddff489	0.10935313
113	0xbcc070c2	-0.023491267
114	0xbe00988f	-0.12558196
115	0xbdc15585	-0.0944014
116	0xbe028b15	-0.12748368
117	0x3c334bdd	0.01094338
118	0x3cee47df	0.029087005
119	0xbdbffff7	-0.09374993
120	0xbdc85d58	-0.09783429
121	0xbe06bc4b	-0.13157766
122	0xbd5d80da	-0.05407796
123	0x3dc75b81	0.0973425
124	0x3d8fa37d	0.07013605
125	0x3d39a1ae	0.045320205
126	0x3d13095d	0.0358976
127	0xbdfda6d7	-0.12385338
128	0xbbe08b6c	-0.006852558
129	0x3df2bd44	0.11852506
130	0xb9ac5115	-0.00032866807
131	0x3c8046d5	0.015658775
132	0xbd0b48d9	-0.03400502
133	0xbd8c2c1a	-0.06844349
134	0x3e05b25a	0.13056317
135	0x3c0fe957	0.00878366
136	0xbe189d5b	-0.14903776
137	0x3cbbfa93	0.022946632
138	0xbd011e6b	-0.03152315
139	0xbd1cf906	-0.038323425
140	0x3d202d78	0.039105862
141	0xbc983f8c	-0.018584989
142	0xbd3efee7	-0.046629813
143	0xbdc7036e	-0.09717451
144	0x3d17058d	0.036870528
145	0x3bb3a6f0	0.005482547
146	0xbd863418	-0.06552905
147	0x3d6e3d7e	0.058164112
148	0x3b51f2b5	0.0032035534
149	0xbc503d7d	-0.012709972
150	0x3e097b8b	0.13426034
151	0x3a811129	0.0009847033
152	0xba0a96be	-0.00052867446
153	0x3d6b2083	0.057404052
154	0x3e1242bb	0.14283268
155	0x3e3250ad	0.17413588
156	0xbe32fb27	-0.1747862
157	0x3d117474	0.03551145
158	0x3c5b75c0	0.013394773
159	0xbdf15e39	-0.1178555
160	0xbcb046b1	-0.021518083
161	0x3d76e725	0.06027903
162	0xbd5ee447	-0.05441692
163	0x3c05375b	0.008130874
164	0x3c6b7c69	0.014372923
165	0x3da4462f	0.08021199
166	0x3d85513b	0.06509634
167	0xbe03e785	-0.12881286
168	0x3da11a7e	0.07866381
169	0x3e158bea	0.14604154
170	0x3d7ff50c	0.062489554
171	0xbd2eea4b	-0.042703908
172	0xbd6078c2	-0.054802664
173	0xbb1c21e2	-0.0023823907
174	0x3da10da6	0.07863931
175	0xbd8b0b09	-0.06789214
176	0x3c692006	0.014228826
177	0x3e054b3c	0.13016981
178	0xbdd368a4	-0.10322693
179	0x3e0e2737	0.13882147
180	0x3d5b2ea2	0.05351127
181	0x3e000f7f	0.12505911
182	0x3e15bedb	0.14623587
183	0xbce1f8a7	-0.027584387
184	0xbdc2b82a	-0.09507783
185	0x3dd6c0ea	0.10486014
186	0x3d17fa8f	0.037104186
187	0x3d54def3	0.051970433
188	0xbc22a087	-0.009925968
189	0xbe3004e6	-0.17189369
190	0x3e0d991d	0.1382794
191	0x3dd2087c	0.102555245
192	0xbc4aecfd	-0.012385604
193	0xbcd8bb3b	-0.026456466
194	0x3d7f15eb	0.062276762
195	0xbd6ea971	-0.05826706
196	0x3dd5ea2d	0.10445056
197	0x3dbb159c	0.09134981
198	0xbe17afa2	-0.14813092
199	0x3da9779b	0.08274766
200	0x3d19b13d	0.037522543
201	0xbbd1309a	-0.0063839676
202	0x3df85761	0.12126041
203	0xbd267fea	-0.040649332
204	0xbd65074e	-0.05591517
205	0xbcf2460d	-0.029574418
206	0xbd587e69	-0.05285493
207	0x3c903ce8	0.017607167
208	0xbc84cf7b	-0.016212216
209	0x3befc4e4	0.0073171724
210	0xbd7317d1	-0.059348885
211	0x3cd34e5b	0.025794199
212	0xbd4ae3d7	-0.04953369
213	0xbc3f598b	-0.011679064
214	0xbe1ddbe4	-0.15415913
215	0x3b0296f3	0.0019926399
216	0xbe1336e9	-0.14376415
217	0xbd7454cf	-0.059651192
218	0x3e17d19c	0.14826053
219	0x3ca80746	0.02051128
220	0xbb0bb30c	-0.0021316437
221	0xbc9a5aef	-0.018842189
222	0xbd8b76b4	-0.0680975
223	0xbdc5fac3	-0.096669696
224	0xbdfce05d	-0.123474814
225	0xbdd84afd	-0.10561178
226	0xbd7bca35	-0.061472137
227	0x3db7be7c	0.08971879
228	0x3d82f963	0.06395223
229	0xbd139810	-0.03603369
230	0xbbd5ecb1	-0.00652846
231	0x3c27700f	0.010219588
232	0xbcbcd5bf	-0.02305114
233	0x3e3810de	0.17975184
234	0x3c06a538	0.008218102
235	0x3c8c462b	0.017123302
236	0xbd963bf5	-0.07335655
237	0x3d4a3079	0.049362633
238	0xbc863cc7	-0.016386403
239	0x3cdf28bf	0.027241109
240	0xbd3ef74a	-0.046622552
241	0x3de152da	0.11002131
242	0x3e95bd33	0.2924591
243	0x3e305603	0.17220311
244	0x3d40a817	0.047035303
245	0xbdf5bfe5	-0.119994916
246	0x3d047dba	0.032346465
247	0xbd57785a	-0.05260501
248	0xbd8e3995	-0.06944577
249	0x3cacc7bf	0.02109134
250	0xbdf683fc	-0.12036893
251	0x3cdf1fe3	0.027236884
252	0x3d8d7403	0.06906893
253	0xbe226485	-0.15858658
254	0x3da70a59	0.081562705
255	0xbdc9a446	-0.09845786

bias f4 [128]
0	0x39ab35f6	0.00032655866
1	0x3a29cb9a	0.00064771774
2	0x3adf01b3	0.0017014056
3	0xbab1ea2a	-0.0013573815
4	0x3a9bdf62	0.0011892135
5	0xba277791	-0.0006388361
6	0x3a35fd3b	0.00069423363
7	0xbb1d9efe	-0.0024051066
8	0x3a02f01c	0.00049948855
9	0x3ae4f053	0.0017466642
10	0xba1ae088	-0.00059080916
11	0xb811f667	-3.4800174e-05
12	0xbb439686	-0.0029844358
13	0xbaf54751	-0.001871327
14	0x3899bcbe	7.3307645e-05
15	0xbae389c1	-0.001735978
16	0xbaf4f353	-0.0018688239
17	0xbb857dd6	-0.0040738387
18	0xbaeca485	-0.0018054402
19	0x3b142c63	0.0022609464
20	0xb8c2356f	-9.260594e-05
21	0x3b51ba2c	0.0032001836
22	0x3aac87f7	0.0013163079
23	0xb9fae1a3	-0.00047851828
24	0xbb72a2d1	-0.0037023316
25	0x3b020f82	0.001984567
26	0xbb8d1939	-0.0043059853
27	0xbac6748f	-0.0015140938
28	0xb61e9210	-2.3628854e-06
29	0xbb06b32a	-0.0020553567
30	0x3a82e377	0.0009986003
31	0xba973565	-0.0011536299
32	0xba01c1b5	-0.0004949824
33	0x3b158b27	0.0022818537
34	0xbb24c6b3	-0.0025142848
35	0x3b117423	0.0022194467
36	0x3b917f7f	0.0044402475
37	0xb9e129db	-0.0004294653
38	0x359fc5eb	1.1904025e-06
39	0x3b130d02	0.0022438173
40	0x390f8102	0.00013685602
41	0xbb883cb8	-0.004157629
42	0xbb77895d	-0.0037771084
43	0xbb252da6	-0.002520421
44	0x3b07a9b3	0.0020700514
45	0xb82ffbd3	-4.195778e-05
46	0xba4a71c2	-0.000772264
47	0x3a192635	0.000584218
48	0xba8d4cb4	-0.0010780306
49	0x3a1e48e4	0.0006038083
50	0x3a9a7b89	0.0011786084
51	0x3a61e20f	0.0008616754
52	0xba415051	-0.0007374334
53	0xb94be570	-0.00019445061
54	0x3a54341a	0.0008094922
55	0xbadd0ca3	-0.0016864728
56	0xb9834e68	-0.00025044684
57	0x3b1689b8	0.002297027
58	0xbb71787e	-0.00368455
59	0x3a81f7ab	0.000991573
60	0x39c0f2d5	0.00036802018
61	0xba677311	-0.0008829097
62	0xbb2f25d2	-0.0026725424
63	0x3a198891	0.0005856837
64	0x3b3dc698	0.0028957482
65	0xbb8544e8	-0.004067052
66	0xb99bd30a	-0.0002972114
67	0x3b055ed3	0.002035071
68	0xb9c17f4d	-0.00036906675
69	0x3a59429a	0.00082878175
70	0x3a882370	0.0010386538
71	0x3b2d0795	0.0026402224
72	0xb8fabd4d	-0.00011956189
73	0x3b38611b	0.0028134051
74	0xbb3770d5	-0.0027990837
75	0xbb930d72	-0.004487687
76	0xba896642	-0.0010482746
77	0x39fae7a7	0.0004785631
78	0x3b1105e9	0.0022128767
79	0xbaf51b7f	-0.0018700211
80	0xbb5a0786	-0.0033268644
81	0xb8f810be	-0.0001182868
82	0xba45e991	-0.0007549758
83	0x3b259639	0.0025266542
84	0xba977228	-0.0011554407
85	0xb986efc7	-0.0002573712
86	0xbabcb269	-0.0014396432
87	0xba2aa22a	-0.00065091497
88	0x3b221ebd	0.002473756
89	0xbb4bb40b	-0.0031082656
90	0xbb175000	-0.0023088455
91	0x398c4188	0.00026751705
92	0x3acc2652	0.0015575385
93	0xbb686698	-0.0035461541
94	0xbb1c3f8a	-0.0023841583
95	0x3914f42e	0.00014205344
96	0x3a97edcd	0.0011591256
97	0xb9c1d707	-0.00036972036
98	0xbaed2f03	-0.0018095676
99	0x3a4e2a61	0.00078645913
100	0x3a6118d7	0.000858677
101	0x3af6d6a8	0.0018832283
102	0x3ad31edf	0.0016107223
103	0x3b34a91e	0.0027566622
104	0xbabe6349	-0.0014525439
105	0xbb4d902d	-0.0031366453
106	0xba309c61	-0.00067371695
107	0xba9684bb	-0.0011483649
108	0xba4b1ca8	-0.00077481056
109	0x3b86c25c	0.004112525
110	0xbac49e70	-0.0015000831
111	0x3b135fda	0.0022487552
112	0x3b588c65	0.0033042666
113	0xbb2e265a	-0.0026573152
114	0xba8d733d	-0.001079179
115	0x3b2b29d7	0.0026117468
116	0xb98e5456	-0.00027147186
117	0xbb4624ff	-0.0030234454
118	0x3b1b8618	0.002373105
119	0xba10eb60	-0.00055282377
120	0xb9198a4f	-0.00014642741
121	0xbb72819b	-0.003700352
122	0xbaa90454	-0.0012894967
123	0x3b18c811	0.0023312608
124	0x3b178d42	0.0023124968
125	0xbaa520c1	-0.0012598262
126	0xb9c1446a	-0.000368628
127	0xbae107b6	-0.0017168436

weight f4 [128, 128]
0	0xbdc63f0c	-0.09679994
1	0xbd42056c	-0.047368452
2	0xbd86f3be	-0.06589459
3	0x3ccf0c32	0.02527437
4	0xbe0bfac8	-0.13669884
5	0xbcaef3f4	-0.02135656
6	0xbdddf7a0	-0.10838246
7	0x3cac2529	0.021013813
8	0xbb816c4b	-0.003949677
9	0x3d94f11b	0.0727255
10	0xbd43fa86	-0.04784634
11	0x3c8317bf	0.016002534
12	0x3d0d958a	0.03456644
13	0x3df872be	0.1213126
14	0x3ca2e9c9	0.019886868
15	0xbd7e0656	-0.06201776
16	0xbda37deb	-0.07983001
17	0xbcbeb8f7	-0.023281557
18	0xbab306fb	-0.0013658697
19	0x3da4c4bd	0.08045337
20	0xbe4573af	-0.19282411
21	0x3bc62048	0.0060463287
22	0x3cb8b826	0.022548746
23	0x3e01af32	0.12664488
24	0x3d8dbc33	0.06920662
25	0x3d68a247	0.056795385
26	0xbd5e3a5e	-0.054254882
27	0xbdaafc7c	-0.08348939
28	0xbd9bdbe6	-0.07610302
29	0x3d5e7349	0.054309163
30	0x3df6117e	0.12015055
31	0xbdab678c	-0.083693594
32	0xbd6ca46c	-0.057773992
33	0x3d4d7c91	0.050167624
34	0x3c674e1e	0.014117746
35	0xbb3a1f9b	-0.0028400186
36	0xbdd46f0e	-0.103727445
37	0xbe29b126	-0.16571483
38	0xbdeb9098	-0.115021884
39	0xbcb86c6a	-0.022512633
40	0xbd225e50	-0.039640725
41	0xbd0f52aa	-0.034990944
42	0x3d28cc25	0.041210312
43	0xbd694011	-0.056945864
44	0x3dd45d53	0.10369363
45	0x3dd5933c	0.10428473
46	0x3d81260f	0.06306087
47	0xbdac346b	-0.084084354
48	0xbc9433d8	-0.018091127
49	0x3e11e361	0.14246894
50	0x3e1d52ec	0.15363663
51	0x3d1bd760	0.038047194
52	0x3e07fe1b	0.13280527
53	0xbdc72e25	-0.09725598
54	0xbe08d027	-0.13360654
55	0xbd80c80a	-0.062881544
56	0xbd0c0192	-0.034181185
57	0x3b9f7f3a	0.0048674615
58	0x3bc26461	0.0059323763
59	0x3d4b22b3	0.04959364
60	0xbc16e596	-0.009210011
61	0xbda78c82	-0.081810966
62	0x3d1e88e7	0.03870478
63	0xbdc7e0d9	-0.09759683
64	0x3bdcb38c	0.006735271
65	0x3c6e0b76	0.0145291
66	0xbdd5d11f	-0.10440277
67	0xbd4d9ba4	-0.05019726
68	0xbe1245e7	-0.14284478
69	0x3df19434	0.11795846
70	0x3cd51b3b	0.026013961
71	0x3e135807	0.14389049
72	0x3e656afe	0.22404096
73	0xbde09278	-0.10965437
74	0x3c303394	0.010754485
75	0x3d3a13de	0.045429103
76	0x3de1051a	0.10987301
77	0x3c8ca264	0.017167278
78	0x3d80105d	0.06253121
79	0xbc41a2c4	-0.0118185915
80	0x3e032f7c	0.12811083
81	0xbd09502b	-0.03352372
82	0xbd1450d8	-0.03620991
83	0x3df028aa	0.11726506
84	0x3d853ea4	0.065060884
85	0xbc461ee9	-0.0120923305
86	0xbd28abed	-0.041179586
87	0xbd750e68	-0.059828192
88	0x3dd05583	0.1017256
89	0x3db58d1f	0.08864807
90	0xbddc596b	-0.107592426
91	0x3d825bb4	0.06365147
92	0x3cc2c9b0	0.023777813
93	0x3e708e3e	0.23491761
94	0x3dd0390c	0.10167131
95	0xbccefac7	-0.025266064
96	0x3e270313	0.16309766
97	0x3d51ce9e	0.051222436
98	0xbe168869	-0.14700474
99	0x3dd345ab	0.103160225
100	0xbd203b24	-0.0391189
101	0xbddd5d33	-0.10808792
102	0x3d5a426b	0.053285997
103	0x3cb4e5e8	0.022082284
104	0xbd9e7c70	-0.07738578
105	0xbc762204	-0.015022758
106	0xbce7540d	-0.02823832
107	0xbbb03f4d	-0.00537864
108	0xbdc4b2d9	-0.09604425
109	0x3d95ce8e	0.07314788
110	0xbd1a3a94	-0.03765352
111	0x3c5d1c7a	0.013495559
112	0xbe7474b8	-0.2387265
113	0xbe01167d	-0.12606235
114	0x3d8d60b3	0.069032095
115	0xbe3f37a6	-0.18673572
116	0xbd0466e7	-0.032324698
117	0x3e4309b0	0.19046664
118	0x3c9b1457	0.018930597
119	0x3da6a647	0.08137184
120	0xbdca0977	-0.098650865
121	0xbd92f281	-0.0717516
122	0xbd8661df	-0.06561636
123	0x3d904ee5	0.07046298
124	0xbdf4c9eb	-0.11952575
125	0x3bf86752	0.007580676
126	0x3d118eda	0.035536624
127	0x3d6b93f5	0.05751415
128	0xbd849b72	-0.06474961
129	0x3e51f33f	0.20502947
130	0xbda8b847	-0.08238273
131	0xbde465a9	-0.11152203
132	0xbd524931	-0.051339332
133	0x3d9967c8	0.07490498
134	0x3d1aea4a	0.03782109
135	0x3d449cc4	0.048001066
136	0xbdc09d7a	-0.09405036
137	0xbda77ea5	-0.081784524
138	0x3d2912f1	0.04127783
139	0xbdd45583	-0.103678726
140	0xbd288759	-0.041144703
141	0xbd2902dc	-0.041262493
142	0xbd394589	-0.04523233
143	0xbd3be091	-0.04586846
144	0x3d81cfaf	0.063384406
145	0x3d809ab2	0.06279506
146	0x3c984175	0.0185859
147	0xbdd2d76a	-0.10294993
148	0x3e12b24c	0.14325827
149	0xbcdb1312	-0.026742492
150	0x3e82a50f	0.25516555
151	0xbe0ff504	-0.1405831
152	0x3da32b51	0.07967246
153	0xbd935098	-0.071931064
154	0x3a39bac9	0.0007085023
155	0x3b9a7930	0.0047141537
156	0x3d45a4a1	0.048252705
157	0xbc722e95	-0.014781614
158	0x3e07fb0b	0.13279359
159	0x3db22a75	0.08699504
160	0xbd8bf246	-0.06833319
161	0x3d98604e	0.07440244
162	0x3e1c559f	0.15267037
163	0x3d8f354c	0.069925874
164	0x3db6c7b2	0.089248076
165	0xbda86800	-0.082229614
166	0xbd0dbf53	-0.03460629
167	0x3d325379	0.043536637
168	0x3d213034	0.03935261
169	0x3b93bd33	0.0045086383
170	0x3c3a44d1	0.011368946
171	0x3e210df3	0.15727977
172	0xbe3490a5	-0.17633303
173	0x3e318f8f	0.1733992
174	0x3e0e5508	0.13899624
175	0x3d7ab27b	0.06120537
176	0xbe40f0c2	-0.18841842
177	0x3cbcecd3	0.023062145
178	0xbe756587	-0.23964511
179	0xbbb1ff0f	-0.0054320167
180	0xbd2a03d5	-0.04150756
181	0x3d1a31bd	0.03764509
182	0x3d30580d	0.04305272
183	0x3d9ece1d	0.07754157
184	0x3db4efbb	0.088347875
185	0xbd66a35f	-0.056308147
186	0x3d93116f	0.071810596
187	0xbc76cb05	-0.015063052
188	0x3da82d7d	0.08211801
189	0xbe25d8dc	-0.16196007
190	0x3d10d79b	0.035361867
191	0x3d19dd0a	0.037564315
192	0xbd48b3a7	-0.048999455
193	0x3d04cb85	0.032420654
194	0x3d920f6c	0.07131848
195	0xbdcfe3ae	-0.10150848
196	0x3c4d6a3d	0.012537536
197	0x3d00e707	0.031470325
198	0x3d5a3798	0.053275675
199	0xbcb91e47	-0.022597445
200	0x3e2f0128	0.17090285
201	0xbc059d6c	-0.008155208
202	0xbd155cce	-0.03646546
203	0x3b92d704	0.0044811983
204	0x3dbaa20e	0.09112941
205	0xbc831b2f	-0.016004173
206	0xbdc1bad7	-0.09459465
207	0xbe4ccf0c	-0.20000857
208	0x3bb2bbbe	0.0054545095
209	0xbd0f62e4	-0.03500642
210	0x3d5359b6	0.051599227
211	0xba8c4e87	-0.0010704555
212	0xbbcaa740	-0.0061844885
213	0xbc28c126	-0.010299956
214	0xbc8e0e9a	-0.017340947
215	0x3e010cdb	0.1260256
216	0xbd9ad8c3	-0.07560875
217	0x3d9efd5f	0.077631705
218	0xbd86e32c	-0.06586298
219	0x3c0dda3e	0.00865799
220	0x3e05abb5	0.13053782
221	0x3d57b328	0.05266109
222	0xbbe0c74e	-0.0068596965
223	0xbe406fdb	-0.1879267
224	0x3de046d7	0.10951012
225	0xbce4207e	-0.027847525
226	0xbd05547e	-0.03255128
227	0xbcef2a86	-0.029195081
228	0x3dd0e9b3	0.102008246
229	0xbe32124c	-0.17389792
230	0x3cbe8a0f	0.02325919
231	0x3e230dd8	0.1592325
232	0x3d15926e	0.0365166
233	0xbb378092	-0.0028000218
234	0x3bcbe0e2	0.0062218765
235	0xbd7a2400	-0.06106949
236	0xbd34241e	-0.043979757
237	0x3d3a563e	0.045492403
238	0x3cfe96d4	0.03107778
239	0x3cd83477	0.026392205
240	0xbbf0071d	-0.0073250667
241	0xbe0f4701	-0.1399193
242	0xbdc06b67	-0.09395485
243	0x3d744d7b	0.059644204
244	0x3d32dbde	0.043666713
245	0xbd86af41	-0.06576396
246	0x3c687b2b	0.014189522
247	0x3d82be1c	0.06383917
248	0x3dbf527f	0.09341907
249	0xbdf12d89	-0.11776263
250	0x3c3be16d	0.01146732
251	0xbe1746f8	-0.14773166
252	0xbd7c18ab	-0.061546963
253	0x3ce8bfc5	0.028411755
254	0x3dad1df9	0.084529825
255	0x3c88c72d	0.016696537

bias f4 [128]
0	0x3ac76ddc	0.0015215236
1	0xbb40221e	-0.002931721
2	0xbb1225f8	-0.0022300463
3	0xba81d702	-0.0009905996
4	0xbb8153e9	-0.0039467704
5	0xbadfd632	-0.0017077385
6	0x3abf98d3	0.0014617689
7	0x39bc00d5	0.00035858774
8	0xbad6664b	-0.001635739
9	0x3a5b118c	0.00083568017
10	0xba9c4285	-0.001192168
11	0x3a4cbe5e	0.00078103493
12	0x3b864121	0.0040971194
13	0xbba19919	-0.0049315807
14	0xbb0274ec	-0.0019906117
15	0x3bbb12ba	0.0057090195
16	0x3b0be964	0.0021348828
17	0x00000000	0.0
18	0x3a8dd2bf	0.0010820254
19	0xbb227588	-0.0024789292
20	0xb998385d	-0.00029033693
21	0xbaf05f61	-0.0018338972
22	0xbaee169c	-0.0018164697
23	0x3afbcfb8	0.0019211685
24	0xbb8a702f	-0.004224799
25	0x3a5ba45a	0.00083786773
26	0x38447070	4.6834757e-05
27	0xbabe8aba	-0.0014537193
28	0xbbe1e49b	-0.006893707
29	0xbb29805d	-0.0025863864
30	0xb99e97e9	-0.0003024929
31	0xba2537cc	-0.0006302565
32	0x3a7d7cc5	0.0009669776
33	0x38bbb997	8.951424e-05
34	0x3845b001	4.7132376e-05
35	0xb9698738	-0.00022270984
36	0xbb2e468a	-0.0026592338
37	0x00000000	0.0
38	0xba9205bf	-0.0011140628
39	0x387489e8	5.830257e-05
40	0xba07e59a	-0.00051840546
41	0xb94aa69c	-0.00019326288
42	0xbb8b5b96	-0.0042528613
43	0xba94303c	-0.0011305879
44	0xbb1bf855	-0.002379914
45	0xb9be6409	-0.00036314156
46	0x3abd30c3	0.0014434088
47	0xba972e41	-0.001153417
48	0x3b33bfa7	0.0027427466
49	0xba6800bf	-0.0008850209
50	0xbaa19594	-0.0012327903
51	0x3ac189c7	0.0014765792
52	0xba5878e4	-0.000825776
53	0xbab8b2c0	-0.0014091358
54	0x39ad8747	0.0003309792
55	0xbb4a0a0e	-0.0030828747
56	0x3affe628	0.0019523548
57	0xba7e3df0	-0.00096985605
58	0x3b0aba63	0.0021168224
59	0xba54d65e	-0.00081191014
60	0xb769e7cb	-1.3941851e-05
61	0x3ab3c0ca	0.0013714072
62	0x3a930383	0.0011216257
63	0x3a6c01c5	0.0009002949
64	0xbb401757	-0.0029310787
65	0x3b0e8563	0.0021746985
66	0xba15632c	-0.00056986767
67	0x3b2599ca	0.0025268667
68	0xbb83fd62	-0.0040280083
69	0xba503ac9	-0.000794333
70	0x3a51cbb4	0.00080030714
71	0x3aa024c7	0.0012217992
72	0x3b837a1d	0.00401236
73	0x3a89917b	0.0010495627
74	0xb7a4ab1e	-1.9630006e-05
75	0x3904713e	0.00012630687
76	0x3a0c00df	0.0005340706
77	0xba255034	-0.00063062017
78	0xbac115a5	-0.0014731182
79	0xbb028004	-0.001991273
80	0xbb41c9a9	-0.0029569662
81	0x39818a49	0.00024707828
82	0xbab2c19f	-0.0013638026
83	0x3a543979	0.00080957223
84	0xba9a47f3	-0.001177071
85	0x00000000	0.0
86	0xbac110c0	-0.0014729723
87	0x38631189	5.413735e-05
88	0xba2d26fc	-0.00066052354
89	0xba74e49a	-0.00093419256
90	0xbb03d39f	-0.002011515
91	0xba7c2f47	-0.0009620082
92	0x00000000	0.0
93	0xbb361664	-0.0027784342
94	0x3a3dbd44	0.00072379806
95	0x3b03b1ba	0.0020094947
96	0xb9af7317	-0.0003346435
97	0x3ae767d2	0.0017654842
98	0x3a0eaf4c	0.00054429914
99	0x00000000	0.0
100	0xb54fb8c9	-7.7382407e-07
101	0x3a80a74a	0.0009815481
102	0x3a8acb97	0.0010589239
103	0x39ae3e2e	0.00033234194
104	0xba2d5350	-0.0006611841
105	0xba7948f9	-0.000950947
106	0xbb3cd451	-0.0028813074
107	0x3b087de8	0.0020827
108	0xb8f06718	-0.000114632945
109	0x00000000	0.0
110	0xba0738a4	-0.00051582814
111	0x3ab4040a	0.0013734114
112	0xba839c5b	-0.0010041104
113	0xbb0fad37	-0.0021923312
114	0x00000000	0.0
115	0x00000000	0.0
116	0xbb220be1	-0.0024726319
117	0xba861dc9	-0.0010232265
118	0x3ad5bf5e	0.0016307642
119	0xbba71a97	-0.0050996053
120	0xbb0978fc	-0.0020976653
121	0x3b01f589	0.0019830188
122	0xba2364c2	-0.00062329706
123	0xba12b230	-0.000559601
124	0xbb126535	-0.0022338156
125	0xba06ab4e	-0.0005137221
126	0xbb5c8fdd	-0.0033655085
127	0xbb06a7f0	-0.0020546876

weight f4 [128, 128]
0	0x3d3df3a6	0.04637494
1	0x3bdc47e3	0.0067224368
2	0x3e1ad242	0.1511927
3	0x3dc776d2	0.0973946
4	0x3793ae8e	1.7605049e-05
5	0xbd430cd7	-0.047619667
6	0xbcb500d7	-0.022095127
7	0xbdd5f557	-0.104471855
8	0xbd947014	-0.0724794
9	0xba99a2af	-0.0011721457
10	0xbdc9e846	-0.09858756
11	0xbba535d4	-0.005041817
12	0xbcc1af25	-0.023643086
13	0xbd09cabd	-0.033640612
14	0x3d11ef92	0.035628863
15	0x3d83317b	0.06405922
16	0xbd5d9365	-0.054095645
17	0x3df1f855	0.11814944
18	0x3d7e5d74	0.062100843
19	0x3c9ad790	0.018901616
20	0x3db35248	0.08755928
21	0x3d85f555	0.06540934
22	0x3d2b8d5c	0.041882858
23	0xbd368c31	-0.04456729
24	0x3d344fd2	0.044021435
25	0xbd88b6f0	-0.066755176
26	0x3de0f996	0.10985105
27	0x3e650a79	0.22367276
28	0x3dc5b51a	0.09653683
29	0x3b7a4f67	0.00381943
30	0xbd732b5e	-0.05936753
31	0x3da82285	0.08209709
32	0xbd205ab2	-0.039148994
33	0x3e356f6d	0.17718287
34	0xbde98b76	-0.11403553
35	0x3d864385	0.06555847
36	0xbd8cbb5c	-0.068716735
37	0xbd688c72	-0.056774564
38	0x3d6813d7	0.056659546
39	0xbd254628	-0.04035011
40	0xbdab1faf	-0.083556525
41	0xbc53435f	-0.0128944805
42	0xbd8c724f	-0.0685774
43	0xbdaf6daf	-0.08565842
44	0x3c84886e	0.016178336
45	0x3d187dea	0.037229456
46	0x3cfe4767	0.031039907
47	0x3d03abbd	0.032146204
48	0x3d9f3eb2	0.0777563
49	0xbd47f8d1	-0.048821274
50	0x3d153c15	0.03643425
51	0xbe26d215	-0.16291077
52	0xbda7b589	-0.08188922
53	0xbd118fc7	-0.035537507
54	0x3d7d33cb	0.06181697
55	0xbd09430c	-0.033511207
56	0xbdf9e657	-0.12202137
57	0x3db5aa51	0.08870376
58	0xbcf55345	-0.029946933
59	0x3d08da5d	0.033411372
60	0xbd11d647	-0.03560474
61	0x3dbc3a76	0.09190838
62	0xbdb88590	-0.0900985
63	0xbc901ae7	-0.017590953
64	0xbc3b0bfe	-0.011416433
65	0x3d25ed0b	0.040509265
66	0xbcdd38f8	-0.027004704
67	0x3d37264b	0.044714253
68	0x3c90ecfe	0.017691132
69	0xbe91842c	-0.28421152
70	0x3d8f1856	0.069870636
71	0x3d5a47b2	0.05329103
72	0xbdfcc3d3	-0.12342038
73	0x3e1caf46	0.15301237
74	0xbdcfd5a4	-0.101481706
75	0x3d08592c	0.033288166
76	0xbd91ccda	-0.071191505
77	0x3c6d57ae	0.0144862365
78	0x3c439315	0.011936923
79	0xbdb4365f	-0.08799433
80	0xbe4b0684	-0.19826704
81	0x3d08e989	0.03342584
82	0xbdabee75	-0.083950914
83	0xbe59d56f	-0.21272825
84	0x3cca96e7	0.024730159
85	0x3e0a6c64	0.1351791
86	0xbdbb6ba7	-0.091513924
87	0xbb91bf8b	-0.0044478825
88	0xbd1a5a98	-0.037684053
89	0x3d2128b2	0.03934545
90	0xbdd44456	-0.103645965
91	0xbd5cf15a	-0.05394111
92	0xbdcb7f2b	-0.09936365
93	0x3dfa9254	0.12234941
94	0xba7fc3ee	-0.0009756674
95	0xbd3cc0fd	-0.046082485
96	0xbdc3fe82	-0.09570028
97	0x3e394bf0	0.18095374
98	0x3e3d2e52	0.18474701
99	0x3e636e31	0.22210003
100	0x3d3d0cf9	0.04615495
101	0xb9711a98	-0.00022993458
102	0x3da83082	0.08212377
103	0x3cbbd5ec	0.022929154
104	0x3d890467	0.06690293
105	0xbce80d00	-0.028326511
106	0xbd8fdaee	-0.070241794
107	0xbd66a6a6	-0.056311272
108	0x3d8c744a	0.06858118
109	0xbdce1ce1	-0.10064102
110	0xbd6350ee	-0.055497102
111	0x3d94a859	0.07258672
112	0xbdae9a32	-0.08525504
113	0x3d350391	0.044192854
114	0xbcae24c6	-0.02125777
115	0xbe3a7368	-0.18208086
116	0xbc4a7383	-0.012356642
117	0xbd69dacd	-0.05709343
118	0x3d7121af	0.058870014
119	0xbdccf288	-0.10007197
120	0xbe21024a	-0.1572353
121	0x3d64a8ee	0.055825166
122	0xbe35e131	-0.17761685
123	0xbd993fae	-0.07482849
124	0x3d0601b6	0.032716475
125	0xbc863c54	-0.016386189
126	0xbd77fe3b	-0.060545187
127	0x3da52f33	0.08065643
128	0xbc97589c	-0.01847487
129	0xbd123c51	-0.035702053
130	0xbb0e2c5d	-0.0021693923
131	0x3d9d14d2	0.07669987
132	0x3e0345b4	0.12819558
133	0x3c442884	0.01197255
134	0x3c7a9ef7	0.015296689
135	0x3e3a5047	0.18194686
136	0xbb934af2	-0.004495018
137	0xbd40cb4f	-0.04706889
138	0xbcce1fd3	-0.02516166
139	0xbe309eab	-0.17248027
140	0xbd17614a	-0.036958016
141	0xba61352c	-0.0008590992
142	0xbdc7e1d1	-0.09759868
143	0x3e09714e	0.13422129
144	0xbdb99939	-0.09062428
145	0xbbd06f11	-0.0063608964
146	0x3d702197	0.058625784
147	0x3e075b5c	0.13218445
148	0x3d61e2f8	0.055148095
149	0x3d5f1f88	0.05447343
150	0x3d0b1616	0.03395661
151	0x3db7158c	0.089396566
152	0xbdbe264a	-0.09284647
153	0xbdb5cd98	-0.088771045
154	0x3d93590a	0.07194717
155	0xbdf52e38	-0.11971706
156	0x3e719713	0.23592786
157	0xbbe46c45	-0.0069709145
158	0xbc5b17f8	-0.013372414
159	0x3dab84e7	0.083749585
160	0x3b7540fa	0.0037422762
161	0xbd6cc899	-0.057808492
162	0xbdae5e59	-0.08514089
163	0x3da7ce6d	0.081936695
164	0xbd9b5b5b	-0.07585784
165	0xbdd3c1c4	-0.10339692
166	0x3d07a5e6	0.033117197
167	0x3da9acdf	0.08284926
168	0xbd25342b	-0.040332954
169	0x3df05033	0.11734047
170	0xbe318d22	-0.17338994
171	0x3d4f9c09	0.050685916
172	0x3c8bf60f	0.017085103
173	0x3d6f2976	0.05838915
174	0x3d7c76b6	0.06163665
175	0xbe0aa80b	-0.13540666
176	0x3dba9acd	0.09111557
177	0xbd69ba58	-0.057062477
178	0xbc5f89b7	-0.013643674
179	0x3d7674f2	0.06017012
180	0xbd2de2e0	-0.042452693
181	0xbd96476a	-0.0733784
182	0xbc17890f	-0.009248986
183	0x3e03a532	0.12855986
184	0xba61c064	-0.0008611737
185	0x3caa4340	0.02078402
186	0xbc8ddc56	-0.017316978
187	0xbdf94717	-0.121717624
188	0x3cc5fd05	0.0241685
189	0x3e02e743	0.12783532
190	0x3c550e29	0.013003864
191	0x3e129e32	0.14318159
192	0x3e3f03dc	0.18653816
193	0x3d95dad6	0.0731713
194	0x3dd480f8	0.10376161
195	0xbc730b99	-0.014834308
196	0x3dcc331e	0.09970687
197	0x3e144d40	0.14482594
198	0x3d630be4	0.05543126
199	0x3e157ed1	0.14599158
200	0x3b79f198	0.0038138386
201	0xbccfedf4	-0.02538202
202	0x3e37feb6	0.17968258
203	0x3cc2dd33	0.023787117
204	0x3cd29b3c	0.025708787
205	0x3d56de58	0.052458137
206	0xbc8a6eba	-0.016898502
207	0xbd18ea1a	-0.03733263
208	0xbd0591e0	-0.03260982
209	0x3e2a0fcb	0.16607587
210	0x3da94a34	0.08266106
211	0x3c239c66	0.009986019
212	0x3def318a	0.11679371
213	0xbd53bda7	-0.05169454
214	0x3e144ddc	0.14482826
215	0x3c205bcc	0.009787511
216	0xbc01cccd	-0.0079223635
217	0x3e072689	0.13198294
218	0x3da8758e	0.08225547
219	0xbddb678a	-0.10713108
220	0x3c87d7ea	0.016582448
221	0x3d477d7e	0.048703663
222	0x3be2aba7	0.006917435
223	0x3e2e2bb7	0.17008863
224	0x3c54048d	0.012940538
225	0xbccd2c65	-0.025045583
226	0xbc907edd	-0.017638618
227	0xbdb30089	-0.087403364
228	0x3dade267	0.084904484
229	0x3e3c7439	0.1840371
230	0x3e1373db	0.14399664
231	0x3e3f9d42	0.18712333
232	0x3d283cde	0.041073672
233	0xbda034c2	-0.07822563
234	0xbcc0dcc0	-0.023542762
235	0xbdcdc378	-0.10047048
236	0x3d36ff10	0.04467684
237	0x3e2e94c2	0.17048934
238	0xbdce5a95	-0.10075871
239	0x3c148643	0.009065214
240	0xbd53f20c	-0.051744506
241	0x3c260afe	0.010134457
242	0x3bc0ea65	0.005887317
243	0x3a10b7f4	0.0005520575
244	0xbd50a615	-0.05093964
245	0x3cea8b39	0.02863084
246	0xbd86c2a5	-0.06580094
247	0xbcfce868	-0.030872539
248	0x3bae488e	0.005318708
249	0x3e42f386	0.1903821
250	0xbaad7598	-0.0013233898
251	0x3cddfa0b	0.027096769
252	0xbb6fe6bb	-0.0036606032
253	0xbbb85a47	-0.0056259963
254	0xbe05db8d	-0.13072033
255	0xbd8a20be	-0.06744526
