model/actor_mean.pth (torch, 6131 bytes, 2 tensors)

weight f4 [9, 128]
-0.058791332 0.09828374 0.057756048 0.03274023 0.07651775 0.0064166174 -0.0753734 0.14800444
-0.07329513 0.026078448 -0.1049703 -0.03639546 -0.023005256 -0.09252286 0.24998823 0.045422725
-0.06343824 0.123795636 -0.0066173826 -0.02416817 -0.0054914667 -0.08615668 0.22459407 -0.11394781
-0.1231478 0.03766965 0.024138143 0.075723544 0.05072854 -0.058757618 0.049682092 0.06721843
0.07165481 0.0049446714 -0.10554582 0.05057134 -0.08974437 -0.060826164 0.014394373 -0.1524408
0.045672614 0.1237407 0.029520823 -0.0071919505 0.067478225 -0.08979252 -0.050500557 0.098039284
-0.15626705 0.17270814 0.06354425 -0.14967166 0.094980545 -0.13612992 0.03784679 -0.10360844
-0.07276565 0.086765185 -0.14704013 0.056470096 0.19534612 -0.034285925 0.021675203 0.069986634
0.029222539 0.06321791 0.108109295 -0.08123636 -0.06790901 -0.0025573135 -0.1608717 0.10235929
0.011525455 0.05319621 0.019594816 -0.06257026 -0.11175347 -0.060429934 -0.035995673 0.09602816
-0.12836176 0.0831159 0.017505353 -0.06323046 -0.098487556 0.05506413 -0.12464995 0.09941062
0.21537514 0.03570875 0.12892045 0.08157452 -0.05992824 0.033691082 0.060560495 -0.08502776
-0.046282716 0.008342861 0.02768551 -0.011046645 0.024955774 -0.017486926 -0.032341007 0.017514039
-0.0028953308 0.12751472 0.08283355 -0.039514247 -0.08311217 0.074360356 0.070635594 0.059187602
0.11314666 -0.033945926 -0.116614446 0.12150771 0.06595819 0.083469495 0.12334747 0.041459158
0.063399725 -0.059429694 -0.017863117 0.022128306 0.008174968 -0.11693375 -0.108863726 -0.0073552127
-0.0856694 0.1469598 0.021482807 0.21442167 0.09263588 0.007372068 -0.07293764 0.04488964
0.0020098765 -0.012960043 0.06132283 0.06764734 -0.12541191 -0.083329104 -0.09495996 0.04812169
0.08687804 0.045845997 -0.096490294 -0.071638 0.03689709 0.06213422 0.08174161 0.16575715
-0.003558678 -0.025312968 -0.1266266 -0.023043655 -0.080400966 -0.088420615 -0.06252528 -0.12509677
-0.11710223 0.102808 -0.044036627 0.21949972 -0.19785781 -0.1938372 0.11351189 0.037367593
0.073019795 -0.08984161 -0.071292706 0.060375325 -0.1468588 0.13053992 -0.07031129 0.01412663
0.0062546963 0.07230815 -0.086136706 0.08464923 -0.038915034 0.13221106 0.08270594 0.056442842
0.10060424 -0.058362104 0.016907193 0.13586807 -0.054394286 0.082153 -0.02223235 0.21393271
-0.044975225 0.024174258 0.057214405 -0.037033994 -0.11732099 -0.08156484 0.15057565 -0.11404729
-0.062101554 0.053249553 0.085330896 -0.014249891 0.011673174 -0.015088822 -0.02671012 0.110177256
-0.07656006 -0.016422922 -0.06233234 -0.022157319 -0.044025593 0.019048719 -0.13793375 -0.022876259
-0.09889205 0.0095270835 0.043824166 0.049458843 0.030020544 0.08119616 -0.023533465 0.085702494
0.12945224 -0.16655326 -0.04334 -0.05720351 0.125781 0.11422955 -0.012325274 -0.11368319
0.12297481 -0.003121878 -0.034938235 -0.0054201274 -0.07195735 0.020809798 -0.02626638 -0.045850545
0.04087142 -0.019622337 -0.008109796 -0.090299316 -0.009291199 0.05822109 0.005101662 0.10283868
-0.08971181 0.07643522 0.041083995 0.16774787 0.032504976 -0.06895758 -0.017329406 -0.1491229
00000000: 2ecf 70bd fc48 c93d 9b91 6c3d 9f1a 063d
00000010: 57b5 9c3d 7d42 d23b 5e5d 9abd 7a8e 173e
00000020: c21b 96bd 78a2 d53c abfa d6bd 6813 15bd
00000030: 8575 bcbc a07c bdbd eafc 7f3e 2e0d 3a3d
00000040: e8eb 81bd 9188 fd3d a1d6 d8bb 53fc c5bc
00000050: c3f1 b3bb ea72 b0bd fdfb 653e 785d e9bd
00000060: ea34 fcbd 7e4b 1a3d 5bbd c53c f214 9b3d
00000070: bbc8 4f3d d4ab 70bd 737f 4b3d d1a9 893d
00000080: c2bf 923d e906 a23b 6828 d8bd e523 4f3d
00000090: e5cb b7bd db24 79bd 60d6 6b3c 7119 1cbe
000000a0: 3513 3b3d c46b fd3d a7d5 f13c 74aa ebbb
000000b0: 0632 8a3d 24e5 b7bd acd9 4ebd d2c8 c83d
000000c0: 7804 20be 67da 303e 7d23 823d 8743 19be
000000d0: 2985 c23d a465 0bbe 3c05 1b3d a930 d4bd
000000e0: 2806 95bd f2b1 b13d b091 16be 304d 673d
000000f0: d008 483e 666f 0cbd 3290 b13c 2755 8f3d
00000100: 1b64 ef3c 6478 813d 6868 dd3d 405f a6bd
00000110: e113 8bbd 9a98 27bb 8dbb 24be bfa1 d13d
00000120: 43d5 3c3c 45e4 593d 4f85 a03c d624 80bd
00000130: 01df e4bd 6185 77bd 3370 13bd 69aa c43d
00000140: 4471 03be ab38 aa3d 6367 8f3c f97e 81bd
00000150: d8b3 c9bd ed8a 613d 7948 ffbd cc97 cb3d
00000160: 4d8b 5c3e 5743 123d b903 043e 8b10 a73d
00000170: 5077 75bd a9ff 093d 480e 783d 0923 aebd
00000180: f292 3dbd 7fb0 083c b9cc e23c fdfc 34bc
00000190: 0d70 cc3c be40 8fbc 0178 04bd 9a79 8f3c
000001a0: 97bf 3dbb 3893 023e a3a4 a93d b1d9 21bd
000001b0: b736 aabd 3e4a 983d 65a9 903d b36e 723d
000001c0: 70b9 e73d e20a 0bbd 8ed3 eebd 09d9 f83d
000001d0: 1615 873d 0ef2 aa3d 999d fc3d 14d1 293d
000001e0: b7d7 813d 8d6c 73bd ac55 92bc 6c46 b53c
000001f0: 4df0 053c f67a efbd f2f3 debd ff03 f1bb
00000200: 7073 afbd a17c 163e b6fc af3c 5b91 5b3e
00000210: e1b7 bd3d 6391 f13b 5460 95bd 33de 373d
00000220: 22b8 033b 5c56 54bc a62d 7b3d b08a 8a3d
00000230: fb6b 00be 73a8 aabd 5e7a c2bd 401b 453d
00000240: 1ded b13d 03c9 3b3d b49c c5bd f2b6 92bd
00000250: 6721 173d 7480 7e3d 2568 a73d 3ebc 293e
00000260: b638 69bb 245d cfbc 67aa 01be 0cc6 bcbc
00000270: 43a9 a4bd de15 b5bd 410d 80bd 5e19 00be
00000280: 4bd3 efbd 008d d23d c05f 34bd 89c4 603e
00000290: 3d9b 4abe 427d 46be ec78 e83d c30e 193d
000002a0: 678b 953d e1fe b7bd e901 92bd 1e4c 773d
000002b0: 2762 16be 42ac 053e 5eff 8fbd 6173 673c
000002c0: 32f4 cc3b 4c16 943d 7168 b0bd 935c ad3d
000002d0: 5f65 1fbd 5662 073e bb61 a93d 9c30 673d
000002e0: 9909 ce3d 1a0d 6fbd f480 8a3c 0021 0b3e
000002f0: 8bcc 5ebd d53f a83d 9e20 b6bc 2d11 5b3e
00000300: f137 38bd 1809 c63c a759 6a3d f5b0 17bd
00000310: fd45 f0bd 780b a7bd 8130 1a3e a091 e9bd
00000320: 335e 7ebd 341c 5a3d f7c1 ae3d 6078 69bc
00000330: d740 3f3c 1b37 77bc 2ecf dabc 9da4 e13d
00000340: 85cb 9cbd 5d89 86bc 3250 7fbd 4483 b5bc
00000350: 2e54 34bd 0f0c 9c3c 813e 0dbe fe66 bbbc
00000360: ea87 cabd 7c17 1c3c f880 333d 5b95 4a3d
00000370: a5ed f53c 2c4a a63d 41c9 c0bc ca84 af3d
00000380: 218f 043e f08c 2abe 4985 31bd 3a4e 6abd
00000390: bccc 003e 2ff1 e93d f2ef 49bc bbd2 e8bd
000003a0: 38da fb3d 6c98 4cbb 651b 0fbd 539b b1bb
000003b0: 605e 93bd 4f79 aa3c 972c d7bc c8cd 3bbd
000003c0: ca68 273d 06bf a0bc f3de 04bc d9ee b8bd
000003d0: 1d3a 18bc 3d79 6e3d d82b a73b 169d d23d
000003e0: d3ba b7bd 128a 9c3d b147 283d 19c6 2b3e
000003f0: f023 053d a239 8dbd 66f6 8dbc acb3 18be

bias f4 [9]
-0.0032509817 -0.0026371493 -0.0011735704 -0.0003091443 0.00028608058 0.0024020267 0.0002880075 0.0031248142
0.0009164789
00000000: 6c0e 55bb 06d4 2cbb 7dd2 99ba a514 a2b9
00000010: 16fd 9539 526b 1d3b b6ff 9639 afc9 4c3b
00000020: dc3f 703a
