model/actor_mean.pth (torch, 6131 bytes, 2 tensors)

weight f4 [9, 128]
-0.022652427 0.04038942 0.056128833 0.07285829 -0.0012534446 0.09899985 -0.08073486 0.018760372
-0.013960571 0.016036361 -0.11298033 0.027681256 0.08049211 -0.0023649633 -0.06065424 -0.16216905
0.1236906 0.1621891 0.021223312 -0.03424342 0.12160608 0.17932983 0.04051517 0.04743011
0.018027427 0.12232515 -0.055661358 0.09273658 0.014230737 0.1585328 -0.025963748 0.06161134
0.08636214 0.065750316 -0.16329767 -0.07351385 -0.028711881 0.040789507 0.08715969 -0.11650934
-0.10493791 0.013344222 -0.092095345 -0.046729267 -0.09668221 -0.047573287 0.25155464 -0.08673718
-0.0461476 0.012617069 0.12402808 -0.09133331 -0.048274454 0.02538539 -0.035887435 -0.12510732
-0.13513522 -0.04695837 0.035031546 0.13965484 -0.095497854 0.025481107 0.08696161 -0.011908996
-0.11876969 0.093777895 0.09381199 0.10073556 0.11840088 -0.1156495 0.010303601 0.0073500876
0.12576795 -0.121817626 -0.1451491 0.10385285 0.08225176 -0.12983315 0.098263696 0.0421668
0.062140945 -0.011852327 -0.024429685 0.10781969 0.030491494 0.028001653 0.05747978 0.01059996
-0.07627141 -0.038242854 -0.023881739 0.014308071 -0.02154516 0.03158306 -0.03642861 -0.11268674
-0.015676942 -0.10191427 0.014480191 0.059982695 0.068789184 0.041070197 -0.026019774 -0.07710759
0.010714806 0.08778246 0.006174416 0.014311147 0.06370651 -0.100294776 -0.014301754 0.1843834
0.067445 0.03747965 -0.049390923 0.083746724 -0.074001394 -0.028217448 -0.0400716 -0.24562472
-0.08503011 0.13894531 0.09830582 0.19241548 -0.11788151 -0.10076118 0.060046162 0.12095399
-0.21272512 0.025425043 0.089457 -0.08279642 0.08469078 -0.16855073 0.022258282 -0.035889436
-0.06554896 0.08125421 -0.062680006 0.11756927 -0.015697386 0.069616586 -0.04457567 0.09391866
-0.13910143 -0.058827598 -0.06910581 0.26945394 0.029650768 0.13499683 0.116996355 -0.00062157714
-0.030281773 0.069677964 -0.16793407 0.0991213 -0.0005209322 -0.083475046 -0.058362056 0.014203871
-0.001469685 0.055827603 0.065804735 0.028109908 0.031061066 0.023864653 0.018180167 0.075346
0.08466116 -0.08685029 -0.074521564 0.064105764 -0.01987419 -0.037512872 0.15500554 -0.036545377
0.09965461 0.11479475 0.214163 0.1072424 0.02154413 0.035270143 0.052728347 -0.18736693
-0.10050912 -0.017964153 0.13592005 -0.09535412 0.010835147 0.0033255504 -0.026548965 0.08987892
0.0359266 0.009234839 0.031148737 0.13741064 -0.06310599 0.0021307464 -0.13039996 -0.09942916
0.03676123 -0.09029197 -0.0026383172 -0.06238806 -0.1399353 0.050808188 0.15228498 -0.13976184
-0.024849033 0.017424038 0.031262018 -0.17079026 0.08183367 0.06066284 -0.07800421 -0.035905488
-0.07018489 0.03305643 -0.119787976 0.0047204928 -0.10294562 0.00057618145 0.13711043 -0.04542524
-0.11627284 8.1647304e-05 0.06706233 -0.06955255 -0.09808334 -0.08742359 0.16601175 -0.013193101
0.011356439 -0.00030058846 -0.009896401 0.063555785 -0.050893676 0.042345293 0.14212057 0.03807204
-0.12875901 0.05186241 0.033185914 0.06507201 -0.084361635 0.08710258 0.03153207 0.007486565
0.01047903 -0.13904089 -0.019145839 -0.022826431 0.10670532 -0.1776182 -0.027048817 -0.03369303
00000000: 9591 b9bc 606f 253d 59e7 653d ba36 953d
00000010: 9f4a a4ba 6fc0 ca3d 5158 a5bd 5aaf 993c
00000020: e1ba 64bc b05e 833c 3b62 e7bd cdc3 e23c
00000030: 0cd9 a43d 80fd 1abb 9570 78bd a50f 26be
00000040: 7f51 fd3d e614 263e 83dc ad3c d442 0cbd
00000050: 9c0c f93d 3da2 373e 3cf3 253d 1346 423d
00000060: 41ae 933c 9c85 fa3d 2afd 63bd adec bd3d
00000070: 0a28 693c 6c56 223e edb1 d4bc 2c5c 7c3d
00000080: a2de b03d 1aa8 863d 8137 27be 6e8e 96bd
00000090: 2e35 ebbc e612 273d c880 b23d 739c eebd
000000a0: b0e9 d6bd b9a1 5a3c 7c9c bcbd 3067 3fbd
000000b0: 5301 c6bd 35dc 42bd c5cb 803e 43a3 b1bd
000000c0: 4405 3dbd d3b7 4e3c 6f02 fe3d f50c bbbd
000000d0: 6fbb 45bd 05f5 cf3c b4fe 12bd 221c 00be
000000e0: e360 0abe 6b57 40bd 3d7d 0f3d ae01 0f3e
000000f0: 6194 c3bd c1bd d03c ee18 b23d f31d 43bc
00000100: 863d f3bd a00e c03d 8020 c03d 724e ce3d
00000110: 297c f23d a5d9 ecbd 6fd0 283c 01d9 f03b
00000120: 50c9 003e 857b f9bd f7a1 14be ceb0 d43d
00000130: 9c73 a83d fbf2 04be 7a3e c93d 18b7 2c3d
00000140: 8187 7e3d 4330 42bc c320 c8bc 92d0 dc3d
00000150: 4cc9 f93c b963 e53c eb6f 6b3d 74ab 2d3c
00000160: 2f34 9cbd 8aa4 1cbd a3a3 c3bc 666c 6a3c
00000170: 7a7f b0bc 3d5d 013d 2b36 15bd 4ec8 e6bd
00000180: ee6c 80bc 6eb8 d0bd 533e 6d3c 6ab0 753d
00000190: 58e1 8c3d 3939 283d 6c27 d5bc 96ea 9dbd
000001a0: 278d 2f3c 4ac7 b33d c152 ca3b 4d79 6a3c
000001b0: 8f78 823d 5967 cdbd e751 6abc 01cf 3c3e
000001c0: 9b20 8a3d 4384 193d 234e 4abd 6783 ab3d
000001d0: 0b8e 97bd 4728 e7bc 1e22 24bd 0c85 7bbe
000001e0: 4424 aebd ae47 0e3e 9054 c93d 9008 453e
000001f0: dc6b f1bd e15b cebd f7f2 753d bab6 f73d
00000200: 9dd4 59be 2e48 d03c 3b35 b73d 2b91 a9bd
00000210: 5c72 ad3d 9098 2cbe 0057 b63c cd00 13bd
00000220: 883e 86bd 9b68 a63d 605e 80bd 28c8 f03d
00000230: ce97 80bc 2493 8e3d fa94 36bd 6d58 c03d
00000240: 9b70 0ebe 35f5 70bd 5987 8dbd def5 893e
00000250: 2be6 f23c 9c3c 0a3e c99b ef3d 56f1 22ba
00000260: 7b11 f8bc 52b3 8e3d e9f6 2bbe 1c00 cb3d
00000270: 2b8f 08ba f7f4 aabd 0d0d 6fbd 5ab7 683c
00000280: 72a2 c0ba 7cab 643d a2c4 863d c046 e63c
00000290: c773 fe3c ce7f c33c 93ee 943c 014f 9a3d
000002a0: d562 ad3d 91de b1bd c39e 98bd e249 833d
000002b0: 33cf a2bc 19a7 19bd c6b9 1e3e 9bb0 15bd
000002c0: b717 cc3d 8319 eb3d 8c4d 5b3e e7a1 db3d
000002d0: 517d b03c 6d77 103d aef9 573d 1edd 3fbe
000002e0: bad7 cdbd 8f29 93bc a02e 0b3e 0549 c3bd
000002f0: e785 313c 7af1 593b 377d d9bc 7012 b83d
00000300: c527 133d b94d 173c a32b ff3c 60b5 0c3e
00000310: b73d 81bd fea3 0b3b 9187 05be 84a1 cbbd
00000320: f292 163d ffea b8bd 9ee7 2cbb 9f8a 7fbd
00000330: 334b 0fbe 3f1c 503d 98f0 1b3e ba1d 0fbe
00000340: 3390 cbbc dbbc 8e3c 9a0c 003d a4e3 2ebe
00000350: 6998 a73d 9979 783d acc0 9fbd a211 13bd
00000360: 18bd 8fbd 2e66 073d 6653 f5bd 5dae 9a3b
00000370: 27d5 d2bd e20a 173a ad66 0c3e d10f 3abd
00000380: 7420 eebd 103a ab38 fa57 893d 9171 8ebd
00000390: ebdf c8bd 240b b3bd fcfe 293e e027 58bc
000003a0: 5c10 3a3c 4d98 9db9 8424 22bc 8929 823d
000003b0: e375 50bd 4272 2d3d 0e88 113e 6df1 1b3d
000003c0: 67d9 03be ae6d 543d f4ed 073d 7944 853d
000003d0: cbc5 acbd d662 b23d c627 013d dc51 f53b
000003e0: 3db0 2b3c bc60 0ebe bcd7 9cbc 7ffe babc
000003f0: 5288 da3d 8ce1 35be 7b95 ddbc b401 0abd

bias f4 [9]
0.0004995167 -0.0004906934 0.00047119643 0.00049678725 -0.0004995078 0.000498499 -0.0004995924 -0.00049443904
0.0004994094
00000000: 00f2 023a e0a1 00ba ea0a f739 d43a 023a
00000010: 67f1 02ba b4ad 023a 14f7 02ba 3e9d 01ba
00000020: ccea 023a
