model/actor_gru.pth (torch, 796067 bytes, 8 tensors)

weight_ih_l0 f4 [384, 128]
0.07575545 0.02502193 -0.057739045 0.06185444 0.010597667 -0.036172707 0.02055896 -0.06917994
-0.021542232 -0.030198751 0.016569594 -0.04038972 0.080982305 -0.016365297 0.07021944 -0.011536508
-0.0251853 -0.058681175 -0.038168922 -0.018104762 0.011772491 -0.0791693 -0.0393976 0.06401005
-0.032979444 0.010646477 -0.03060937 -0.0077893464 0.00675752 -0.0063137617 0.072178 -0.015222715
0.05872933 -0.0071927165 0.06477141 -0.0575248 -0.050918024 -0.044682965 0.086765915 -0.07420762
-0.03185102 0.08200059 0.0010278705 0.0009468769 -0.07596865 -0.073129 -0.0425708 0.014914031
0.0033426231 -0.048060283 -0.02164405 0.019958405 0.06359551 -0.05988642 -0.05203316 -0.01811846
0.008171745 0.04805513 0.08683976 0.01815017 -0.041579742 0.046392616 -0.029971547 0.015618335
-0.036771365 0.02071994 -0.0045134313 -0.03248666 -0.067584716 -0.011137793 -0.065234184 0.06448352
-0.08487727 -0.07323111 -0.00709213 0.07124499 -0.08005914 0.053729072 0.021335274 0.0058620516
-0.019264039 -0.0348302 0.008445143 0.06775864 -0.08371549 -0.060183775 -0.050288897 0.06438475
0.006633552 0.02142364 0.006842715 -0.018371979 0.058218613 0.072646745 0.014723957 0.013856479
0.0031132349 -0.02641743 -0.016302599 0.06990536 0.046571895 0.03174091 -0.047722235 -0.052543264
0.030362243 0.015871901 -0.0678938 0.03439412 -0.056363974 -0.031005086 -0.059359018 -0.02116012
0.05426825 0.062122677 0.03930778 -0.05922729 0.06765622 0.036521144 0.064745665 0.05458114
-0.043539368 -0.08385983 0.013190247 0.08622745 0.07290309 -0.008466566 -0.0047560236 0.020896241
0.020686712 0.040310204 -0.053100422 0.013140369 0.0017564987 -0.04466921 0.050209124 0.041277207
-0.053433813 0.058682464 0.014650729 0.08669519 0.037024107 0.04656816 0.07176753 0.07813188
0.03854811 -0.08779093 -0.055468928 0.07856332 0.010721896 -0.057281643 -0.037458718 0.048812147
-0.027994363 0.02495404 -0.0867317 -0.061325405 -0.046222754 -0.057406627 0.079517365 0.079920985
-0.0009800092 0.07204008 -0.037790127 -0.041486755 -0.062822916 0.045535423 -0.03335479 0.03891406
0.07155804 -0.048165068 -0.04451372 -0.036066614 0.0690042 -0.032524843 -0.039578795 -0.031698998
-0.014902146 0.076544724 0.054057244 0.05980853 -0.028575268 0.034975935 0.0789344 -0.060221132
-0.059053212 -0.01635298 0.044101533 -0.0051022056 0.07953928 0.07649882 0.01930013 0.030780924
-0.04768929 0.014928458 -0.041046586 0.007656842 -0.045257684 -0.04682122 0.04383006 0.010148582
0.0026833331 -0.0700599 -0.08065062 -0.052126378 -0.0011735497 0.024494836 0.07578912 -0.0650165
0.0577755 0.06496207 0.086561725 0.08549906 0.086185575 0.019032871 -0.008222788 -0.069515504
-0.04202291 0.02787625 -0.03606616 0.08233657 0.050279297 0.06676223 -0.07513576 0.012671165
-0.07641542 0.06884165 -0.05445974 0.044527575 -0.037350215 -0.027525777 -0.07662977 0.020832669
-0.012392734 -0.027199613 -0.068828814 0.052355044 0.015542854 0.052421007 -0.052820086 -0.048944894
-0.061975908 0.02068342 0.072242774 0.0041718907 0.05755822 -0.016590644 -0.017590262 0.06244103
0.08825412 0.08513752 -0.031558514 -0.08567617 -0.0024308616 0.011814715 -0.05879861 -0.07491858
00000000: ac25 9b3d cafa cc3c c77f 6cbd 155b 7d3d
00000010: d6a1 2d3c d529 14bd 446b a83c 36ae 8dbd
00000020: 5679 b0bc 5f63 f7bc f5bc 873c b16f 25bd
00000030: 0dda a53d 8410 86bc 36cf 8f3d 9f03 3dbc
00000040: 6751 cebc ac5b 70bd 0457 1cbd 7050 94bc
00000050: 68e1 403c 8423 a2bd 615f 21bd b317 833d
00000060: 7415 07bd 906e 2e3c 80c0 fabc c63d ffbb
00000070: 306e dd3b ace3 cebb 0fd2 933d b268 79bc
00000080: 2a8e 703d e1b0 ebbb dfa6 843d 209f 6bbd
00000090: 6b8f 50bd 7c05 37bd 54b2 b13d 2afa 97bd
000000a0: 3776 02bd edef a73d 9cb9 863a d537 783a
000000b0: 7495 9bbd a8c4 95bd b85e 2ebd fb59 743c
000000c0: e90f 5b3b dcda 44bd dd4e b1bc cf7f a33c
000000d0: 5d3e 823d 764b 75bd b920 55bd 2a6d 94bc
000000e0: c8e2 053c 75d5 443d 0bd9 b13d aaaf 943c
000000f0: 854f 2abd 2f06 3e3d e486 f5bc 0ce4 7f3c
00000100: 929d 16bd ddbc a93c 68e5 93bb bb10 05bd
00000110: db69 8abd 4a7b 36bc 8099 85bd f00f 843d
00000120: 22d4 adbd 31fa 95bd 1965 e8bb e5e8 913d
00000130: 0cf6 a3bd 0413 5c3d 50c7 ae3c 7416 c03b
00000140: 9ecf 9dbc 1daa 0ebd 7f5d 0a3c 0bc5 8a3d
00000150: 0773 abbd 4383 76bd bbfb 4dbd 27dc 833d
00000160: 445e d93b a180 af3c db38 e03b d580 96bc
00000170: a476 6e3d d1c7 943d c03c 713c 4906 633c
00000180: 6a07 4c3b 5e69 d8bc 078d 85bc 8b2a 8f3d
00000190: 2cc2 3e3d c202 023d 6478 43bd 9b37 57bd
000001a0: 3dba f83c ca05 823c e80b 8bbd d9e0 0c3d
000001b0: e9dd 66bd 61fe fdbc 7122 73bd fd57 adbc
000001c0: 6248 5e3d 5974 7e3d 3201 213d 5198 72bd
000001d0: 588f 8a3d 3297 153d 6099 843d 7990 5f3d
000001e0: 5656 32bd b4be abbd e81b 583c 0498 b03d
000001f0: 374e 953d 5ab7 0abc 6bd8 9bbb 982e ab3c
00000200: 2e77 a93c 501c 253d d47f 59bd b44a 573c
00000210: 513a e63a 10f7 36bd 15a8 4d3d 4a12 293d
00000220: 6add 5abd 065d 703d 9c09 703c 3f8d b13d
00000230: 97a6 173d 41be 3e3d dbfa 923d 9b03 a03d
00000240: 9fe4 1d3d bbcb b3bd 6333 63bd cee5 a03d
00000250: e4aa 2f3c 28a0 6abd 506e 19bd 3fef 473d
00000260: 6f54 e5bc 6a6c cc3c 64a0 b1bd 5930 7bbd
00000270: 1254 3dbd 3623 6bbd 00da a23d 9dad a33d
00000280: a773 80ba c089 933d d2c9 1abd 04ee 29bd
00000290: 4da9 80bd 5a83 3a3d 089f 08bd 5964 1f3d
000002a0: 068d 923d bc48 45bd 0554 36bd 96ba 13bd
000002b0: 1352 8d3d c538 05bd 601d 22bd cfd6 01bd
000002c0: 2128 74bc 7bc3 9c3d 216b 5d3d caf9 743d
000002d0: ae16 eabc ed42 0f3d 5ca8 a13d 6faa 76bd
000002e0: c8e1 71bd aff6 85bc cfa3 343d 6730 a7bb
000002f0: 7de5 a23d 6aab 9c3d 4e1b 9e3c 4728 fc3c
00000300: d855 43bd 7e96 743c 7720 28bd 3fe6 fa3b
00000310: 1f60 39bd 9cc7 3fbd 2687 333d 3d46 263c
00000320: dcda 2f3b 917b 8fbd 272c a5bd 7882 55bd
00000330: cbd1 99ba 65a9 c83c 5337 9b3d 5f27 85bd
00000340: 01a6 6c3d d50a 853d 4647 b13d 221a af3d
00000350: 1082 b03d d3ea 9b3c dfb8 06bc 255e 8ebd
00000360: 3720 2cbd bc5c e43c 1cba 13bd 13a0 a83d
00000370: aaf1 4d3d a3ba 883d c7e0 99bd b89a 4f3c
00000380: b07f 9cbd dafc 8c3d 2d11 5fbd 8c62 363d
00000390: 8afc 18bd bd7d e1bc 12f0 9cbd 46a9 aa3c
000003a0: e50a 4bbc b9d1 debc 1ff6 8cbd 3e72 563d
000003b0: 74a7 7e3c 69b7 563d e059 58bd 717a 48bd
000003c0: 73da 7dbd 4770 a93c 05f4 933d 5bb4 883b
000003d0: 2bc2 6b3d 1ae9 87bc 7419 90bc 2ac2 7f3d
000003e0: 93be b43d 955c ae3d 8043 01bd fd76 afbd
000003f0: 174f 1fbb 8292 413c d0d6 70bd ea6e 99bd

weight_hh_l0 f4 [384, 128]
-0.025013674 -0.000289038 -0.05839939 0.027939744 0.056557555 -0.0066542435 -0.017393624 0.01862825
0.022306316 -0.08546008 -0.06317674 -0.04981003 0.020466391 0.05608524 -0.029423662 0.02069659
-0.0494045 -0.0654335 0.08062845 -0.0023274363 -0.024838246 0.05956399 0.058495354 -0.02810863
-0.07663492 -0.034004457 0.04456951 0.043608528 -0.0053122244 -0.055095784 0.017873775 0.0084724715
-0.07893649 0.07487647 -0.044598278 0.04689439 -0.08492354 0.07193018 -0.039322644 0.0755894
0.06851357 0.059592206 0.0164658 0.07123706 0.06325022 -0.00066950836 -0.07177859 -0.07770572
0.05263274 -0.084718175 -0.012449687 0.08286715 0.018354768 0.05313394 -0.084463194 0.07160246
-0.029114783 -0.022451414 -0.06334173 0.022165954 0.009294603 0.022862995 0.07270687 -0.051079933
0.022375954 -0.07363028 0.06340986 0.0138036525 0.021798015 -0.024991224 -0.068404846 0.07369283
-0.055322077 0.0021387832 0.014579488 0.030308455 0.009125671 0.07494126 -0.08222398 0.050394114
0.01710374 0.015329065 0.0020673124 -0.034973487 0.059408743 0.0022589879 -0.088149555 -0.021627912
-0.015472803 -0.017295614 0.07854528 -0.0244915 0.035827905 0.070439644 -0.006908552 0.03469503
0.010536734 -0.073576495 -0.05125996 0.018332615 -0.001138579 0.058413014 0.0035118305 -0.06618157
0.057008795 0.0362343 0.059671156 -0.014527674 0.019530289 0.06246923 -0.087188736 0.04843986
-0.045309898 0.072643146 0.047741782 0.0841974 0.071237616 -0.045299247 0.007592076 0.026937742
-0.033812173 -0.024185374 -0.06984247 -0.014042248 -0.021243833 0.04767634 -0.025019089 0.009879913
-0.0650934 -0.010275852 0.071362644 -0.070857376 -0.035013683 -0.06410659 0.014759946 -0.08459438
-0.009758897 -0.04070757 0.03368087 0.03237833 0.0102924835 -0.03613923 -0.06608133 -0.01883815
-0.011462587 -0.04940009 0.03820066 -0.06558064 -0.024291374 -0.032277524 0.08379081 0.050909314
-0.034293134 0.06786473 -0.040805366 0.06520578 -0.048490264 0.08789722 0.0065425625 -0.0860005
-0.033624157 -0.08077761 0.02713609 -0.012865522 -0.02280582 -0.062065348 0.0025667895 0.037642483
-0.052951857 0.0055127563 0.079777114 -0.02957201 0.00092156715 0.008747776 -0.07430921 -0.088070385
-0.01505376 0.084267445 -0.058416463 0.04918728 0.05327651 -0.023686562 0.023692941 0.08575349
0.066196114 -0.0013632283 0.06568362 -0.0448499 0.06863044 -0.013564661 -0.080447495 0.026284313
-0.011641311 0.087358996 -0.003634616 -0.017713163 0.066267155 -0.08546166 -0.03385049 0.04812094
-0.024858216 0.08660578 -0.024681894 0.06318549 0.072098285 -0.02289123 -0.04615372 -0.050017525
0.009319758 0.048477963 0.0840999 0.028718455 -0.016679926 -0.037001375 -0.05566204 0.017631834
-0.0040338836 0.0008631042 0.033604305 -0.014731109 -0.035825513 0.0574017 0.06386881 0.08823335
0.03450655 0.04558184 -0.009025412 -0.086289994 0.07115077 -0.029266344 0.05431921 -0.045932762
-0.023866395 0.06939 0.028012022 -0.011514164 0.03387439 0.052454155 0.06279875 -0.010224097
-0.021720925 0.027865587 0.07751686 -0.06851494 0.044279132 0.022555819 0.072859585 -0.00041143107
-0.036718294 0.06058857 0.055730585 0.07883108 0.017564481 -0.06520739 0.067134045 -0.07665744
00000000: 7ae9 ccbc 068a 97b9 3334 6fbd e4e1 e43c
00000010: e5a8 673d d70b dabb 137d 8ebc 469a 983c
00000020: bcbb b63c b205 afbd cf62 81bd 9a05 4cbd
00000030: 22a9 a73c a3b9 653d e409 f1bc e58b a93c
00000040: 5f5c 4abd 0002 86bd 8720 a53d e787 18bb
00000050: 9479 cbbc 5ff9 733d d398 6f3d 1244 e6bc
00000060: c5f2 9cbd 4248 0bbd 858e 363d db9e 323d
00000070: 2b12 aebb 1eac 61bd 066c 923c 1fd0 0a3c
00000080: 74a9 a1bd d658 993d afac 36bd 5514 403d
00000090: 65ec adbd 2150 933d c810 21bd 9ece 9a3d
000000a0: d850 8c3d f516 743d 49e3 863c bce4 913d
000000b0: 5589 813d f281 2fba a700 93bd 2d24 9fbd
000000c0: 6e95 573d b980 adbd c6f9 4bbc 41b6 a93d
000000d0: bd5c 963c f9a2 593d 0afb acbd 50a4 923d
000000e0: 2082 eebc 07ec b7bc 4fb9 81bd 6095 b53c
000000f0: 6448 183c 2d4b bb3c 57e7 943d 3139 51bd
00000100: c74d b73c 79cb 96bd 07dd 813d b728 623c
00000110: c091 b23c 65ba ccbc d717 8cbd 44ec 963d
00000120: 6799 62bd d42a 0c3b cede 6e3c 7049 f83c
00000130: d783 153c ce7a 993d 0c65 a8bd 0f6a 4e3d
00000140: 241d 8c3c c226 7b3c bf7b 073b 5c40 0fbd
00000150: 9556 733d 870b 143b c187 b4bd 052d b1bc
00000160: a481 7dbc 88af 8dbc 59dc a03d 66a2 c8bc
00000170: 48c0 123d a942 903d 2261 e2bb 601c 0e3d
00000180: 44a2 2c3c 46af 96bd f7f5 51bd 482e 963c
00000190: 5f3c 95ba 7c42 6f3d bd26 663b 348a 87bd
000001a0: 0e82 693d 6b6a 143d be69 743d 7b05 6ebc
000001b0: fcfd 9f3c bcdf 7f3d 0290 b2bd e068 463d
000001c0: df96 39bd eec5 943d e38c 433d b06f ac3d
000001d0: 07e5 913d b48b 39bd f3c6 f83b 8aac dc3c
000001e0: a27e 0abd 6820 c6bc 9209 8fbd 7511 66bc
000001f0: 8c07 aebc 4448 433d d5f4 ccbc 5cdf 213c
00000200: b04f 85bd 0c5c 28bc 9426 923d ac1d 91bd
00000210: 826a 0fbd 514a 83bd b3d3 713c d13f adbd
00000220: c8e3 1fbc fbbc 26bd f4f4 093d 249f 043d
00000230: cea1 283c bb06 14bd a655 87bd 7752 9abc
00000240: 93cd 3bbc c057 4abd 4c78 1c3d 254f 86bd
00000250: b4fe c6bc 7035 04bd 849a ab3d 4986 503d
00000260: f576 0cbd aafc 8a3d 8723 27bd 9c8a 853d
00000270: ba9d 46bd 7503 b43d fe62 d63b 0821 b0bd
00000280: 7cb9 09bd bb6e a5bd 814c de3c e9c9 52bc
00000290: 45d3 babc 3c38 7ebd 9537 283b 012f 1a3d
000002a0: 0ce4 58bd 5aa4 b43b 2f62 a33d 0041 f2bc
000002b0: 5395 713a d552 0f3c 6d2f 98bd 3f5e b4bd
000002c0: 0ca4 76bc 6994 ac3d 1a46 6fbd 9a78 493d
000002d0: 7838 5a3d 520a c2bc b317 c23c 879f af3d
000002e0: d491 873d 5aae b2ba 2285 863d 87b4 37bd
000002f0: 1e8e 8c3d 503e 5ebc a8c1 a4bd 3352 d73c
00000300: 33bb 3ebc 46e9 b23d bd32 6ebb 321b 91bc
00000310: 13b7 873d 8606 afbd d0a6 0abd 761a 453d
00000320: 75a3 cbbc 5f5e b13d af31 cabc 6567 813d
00000330: 44a8 933d 6486 bbbc af0b 3dbd 2ddf 4cbd
00000340: e6b1 183c d490 463d 923c ac3d f742 eb3c
00000350: 57a4 88bc c18e 17bd e1fd 63bd a370 903c
00000360: ab2e 84bb f141 623a aba4 093d c05a 71bc
00000370: c6bd 12bd 0c1e 6b3d a7cd 823d b0b3 b43d
00000380: bd56 0d3d 06b4 3a3d 52df 13bc cfb8 b0bd
00000390: 7fb7 913d f9bf efbc d27d 5e3d fe23 3cbd
000003a0: 7583 c3bc 581c 8e3d 7879 e53c e7a5 3cbc
000003b0: dfbf 0a3d 2bda 563d a29c 803d f982 27bc
000003c0: 15f0 b1bc 5f46 e43c 29c1 9e3d 9051 8cbd
000003d0: 095e 353d fbc6 b83c 6837 953d 58b5 d7b9
000003e0: ec65 16bd b82b 783d c145 643d 3072 a13d
000003f0: 63e3 8f3c 748b 85bd 937d 893d 93fe 9cbd

bias_ih_l0 f4 [384]
0.05114195 -0.04267695 0.020646058 -0.041917507 0.067851655 0.085552685 -0.016964613 0.06338747
0.028111855 0.02655793 0.062266305 0.023265596 -0.023876127 -0.009445179 0.08835045 0.015425329
-0.06064638 0.03401754 0.070325404 -0.012322779 -0.032361757 -0.035787717 -0.068644784 -0.081720345
-0.0013771665 0.0862251 -0.02677346 -0.03886492 -0.026475636 0.020471135 0.036329716 0.051970307
0.06281081 -0.010833328 -0.052265994 0.0033085241 0.017801598 -0.020083016 0.03767445 0.03421736
-0.032596525 -0.05642704 -0.08951627 -0.07020132 0.05732519 0.08242061 -0.059476044 -0.021996118
-0.06879393 -0.032439195 0.047537785 0.014671355 0.026863202 -0.082898915 0.087685466 -0.08692785
-0.0660104 0.07473084 0.076034166 0.033602584 -0.047496475 0.01292387 0.06541879 0.024356555
-0.06026601 0.08579615 0.021259403 -0.030869992 0.063530006 -0.06087224 -0.07093838 -0.08473097
-0.051824134 -0.0087501705 0.020981876 0.07806387 0.08249083 -0.024267364 -0.045964044 0.048639372
0.021172326 0.034593195 0.08738247 0.03593435 -0.08555746 -0.07554183 -0.036866058 -0.022864716
0.056452706 0.060764156 -0.049309924 -0.008626195 -0.017696299 -0.051680926 0.080670066 -0.07450088
-0.025248542 0.056833263 -0.007181147 0.051159922 0.004451896 0.030440502 -0.00425462 -0.036434576
0.068858646 -0.0070464136 -0.012133614 0.023655614 0.07605718 0.029238699 0.01999869 -0.013579863
0.03168163 -0.05763374 -0.06597561 -0.009460533 -0.0013378479 -0.062323008 0.059113864 -0.029919531
0.011056042 -0.0066687306 -0.031492196 0.0077841943 0.05739068 0.08269139 -0.051317003 0.07296626
-0.07029439 0.05482324 0.0607659 0.05827371 -0.060980644 0.08047825 -0.07350523 0.053506903
0.024050355 0.04226017 0.0046448233 -0.029108921 0.0710546 0.043956105 -0.07186801 -0.07242424
-0.03088008 0.00031810458 -0.028632917 -0.02198127 -0.059183054 0.004239949 -0.06448837 0.025388569
-0.08462959 -0.005787043 -0.07942727 -0.082142346 -0.053458616 -0.04776168 -0.025204297 -0.032398384
0.07575268 -0.08303368 0.06315254 0.04256824 0.06305552 -0.064865224 -0.051621202 -0.07622538
0.048875716 -0.07101494 -0.040547352 0.029000705 -0.064214155 0.053289954 -0.062686995 0.08261954
0.00879229 -0.06316636 -0.062031366 0.012051746 -0.08683921 0.056867316 -0.048188142 -0.07451467
0.037401684 -0.037897725 0.0009825189 0.010045479 -0.0040663434 -0.0690051 0.018414523 0.030595662
-0.037975993 0.036569398 -0.028650252 0.032137766 0.07892344 0.010035139 0.010777907 -0.008724419
-0.074643776 0.029861411 -0.054090485 0.046438634 0.073492914 0.03791131 0.08840462 0.008393685
-0.017469022 0.07528042 -0.053439073 0.03153023 0.001021025 0.017661309 -0.087395586 -0.07977464
-0.037177645 0.07232066 -0.03334182 -0.007235319 -0.055969514 -0.08309898 0.07856966 -0.064136304
0.053931642 0.07104405 0.04628291 0.08628645 0.065362 0.059256107 0.07531 0.026053159
0.0439195 0.014296626 0.058826204 -0.008881284 -0.052514944 -0.012317808 0.059902642 -0.073842205
-0.07446131 0.028731065 -0.011685423 0.035917077 -0.015466422 -0.005459333 0.058200296 -0.07838127
0.025238944 -0.02012469 -0.058510784 -0.030976003 0.07619721 0.08101842 -0.043362036 0.043321155
00000000: 397a 513d 07ce 2ebd ec21 a93c b1b1 2bbd
00000010: cff5 8a3d 3f36 af3d 5ff9 8abc 4ad1 813d
00000020: d54a e63c 0490 d93c f40a 7f3d 7e97 be3c
00000030: de97 c3bc f4bf 1abc 15f1 b43d 85ba 7c3c
00000040: 5768 78bd fa55 0b3d c406 903d 7be5 49bc
00000050: c38d 04bd 2496 12bd a395 8cbd ff5c a7bd
00000060: 0a82 b4ba c996 b03d 0454 dbbc d330 1fbd
00000070: 6fe3 d8bc 15b3 a73c 78ce 143d d1de 543d
00000080: f4a2 803d 457e 31bc de14 56bd d3d3 583b
00000090: a8d4 913c 2385 a4bc 8650 1a3d 8127 0c3d
000000a0: ef83 05bd 0a20 67bd 4e54 b7bd b6c5 8fbd
000000b0: d2cd 6a3d 23cc a83d 279d 73bd 3431 b4bc
000000c0: d5e3 8cbd f6de 04bd fbb6 423d 1f60 703c
000000d0: 3810 dc3c e8c6 a9bd 7094 b33d 3b07 b2bd
000000e0: 7630 87bd 7c0c 993d cdb7 9b3d dda2 093d
000000f0: aa8b 42bd a4be 533c 49fa 853d 6687 c73c
00000100: 7ed9 76bd e4b5 af3d 3328 ae3c 11e3 fcbc
00000110: 051c 823d 2c55 79bd 2448 91bd 6e87 adbd
00000120: 8b45 54bd e05c 0fbc 2fe2 ab3c f3df 9f3d
00000130: f4f0 a83d 5acc c6bc cb44 3cbd 143a 473d
00000140: 9671 ad3c 98b1 0d3d 95f5 b23d e62f 133d
00000150: c038 afbd adb5 9abd dd00 17bd c94e bbbc
00000160: f43a 673d d6e3 783d 34f9 49bd e254 0dbc
00000170: d4f7 90bc 61af 53bd 5936 a53d eb93 98bd
00000180: 08d6 cebc ffc9 683d d44f ebbb 118d 513d
00000190: 36e1 913b 5c5e f93c 576a 8bbb 6c3c 15bd
000001a0: c305 8d3d 9ae5 e6bb 11cc 46bc 6bc9 c13c
000001b0: dec3 9b3d ff85 ef3c 4bd4 a33c 137e 5ebc
000001c0: 99c4 013d 5b11 6cbd 381e 87bd 5a00 1bbc
000001d0: ba5a afba 6946 7fbd 6121 723d ce19 f5bc
000001e0: 6724 353c 5e85 dabb f6fd 00bd 8e12 ff3b
000001f0: 7d12 6b3d 1a5a a93d c731 52bd 566f 953d
00000200: 81f6 8fbd 558e 603d aae5 783d 6ab0 6e3d
00000210: d7c6 79bd c8d1 a43d e989 96bd 0e2a 5b3d
00000220: 4005 c53c 0019 2d3d 9a33 983b d575 eebc
00000230: 1385 913d 510b 343d 892f 93bd 2953 94bd
00000240: 39f8 fcbc 46c7 a639 948f eabc 1012 b4bc
00000250: ee69 72bd 45ef 8a3b 7b12 84bd b0fb cf3c
00000260: 4752 adbd 3ca1 bdbb c4aa a2bd 3f3a a8bd
00000270: 6cf7 5abd c0a1 43bd 3e79 cebc 2bb4 04bd
00000280: 3924 9b3d 900d aabd 1e56 813d 095c 2e3d
00000290: 4123 813d 0fd8 84bd c170 53bd 0d1c 9cbd
000002a0: e731 483d 4870 91bd fb14 26bd e392 ed3c
000002b0: b682 83bd 9146 5a3d 0a62 80bd 6f34 a93d
000002c0: 8a0d 103c 5d5d 81bd 9a14 7ebd b074 453c
000002d0: c1d8 b1bd b4ed 683d ee60 45bd 269b 98bd
000002e0: 8232 193d a53a 1bbd ddc7 803a cb95 243c
000002f0: f63e 85bb 8c52 8dbd 0eda 963c c1a3 fa3c
00000300: b78c 1bbd cbc9 153d efb3 eabc e4a2 033d
00000310: 9da2 a13d 6c6a 243c d295 303c def0 0ebc
00000320: d6de 98bd eb9f f43c fc8d 5dbd 7036 3e3d
00000330: 7483 963d e448 1b3d 7b0d b53d ab85 093c
00000340: 321b 8fbc 9f2c 9a3d eee2 5abd d825 013d
00000350: ead3 853a 73ae 903c 75fc b2bd e360 a3bd
00000360: 9647 18bd db1c 943d 6f91 08bd 4116 edbb
00000370: 4a40 65bd cc2f aabd 21e9 a03d e559 83bd
00000380: 6de7 5c3d 8b7f 913d 2693 3d3d f3b6 b03d
00000390: 83dc 853d 88b6 723d 213c 9a3d 6f6d d53c
000003a0: efe4 333d 653c 6a3c bff3 703d ce82 11bc
000003b0: e919 57bd a2d0 49bc 795c 753d 953a 97bd
000003c0: 2c7f 98bd 695d eb3c 3774 3fbc c91d 133d
000003d0: e066 7dbc 34e4 b2bb 6f63 6e3d 5c86 a0bd
000003e0: e7c1 ce3c 89dc a4bc 01a9 6fbd 63c1 fdbc
000003f0: 480d 9c3d fcec a53d 649c 31bd 8671 313d

bias_hh_l0 f4 [384]
-0.0891762 0.008290008 0.06129775 0.001731418 -0.081113994 -0.013765452 0.0045699193 -0.04738858
0.08067796 0.046290334 0.08749158 0.07242462 0.032721095 -0.019649293 -0.017902862 0.024113396
0.08225191 0.03662778 0.013351528 -0.014214235 -0.012697201 -0.07572534 0.06203106 -0.0017707534
0.036923617 0.007893362 -0.06211122 -0.0637877 0.04296205 0.016359331 0.08017395 -0.08220183
0.06416414 -0.03244136 -0.083317086 -0.05840549 -0.059271593 -0.060672577 0.056192964 -0.085406914
-0.033594858 0.0680372 0.046484828 -0.08133835 -0.069853425 -0.018091992 0.07003289 -0.052960683
0.05362514 0.0016965888 -0.0425819 0.03436692 0.04823023 -0.0036038007 -0.055828508 -0.025121946
-0.062913455 0.030467076 0.014928329 0.022220721 0.047136527 -0.006087382 -0.043622807 0.05438634
-0.050850794 -0.07706425 0.04282997 0.048341684 -0.08170284 -0.001772947 -0.03439623 0.033258904
0.06930546 0.071013436 0.026619956 -0.07066965 0.041499253 -0.03399187 0.0053683193 0.0026518921
-0.058352657 0.077267505 0.060317654 -0.054941114 -0.00828269 -0.06578373 -0.0707155 0.006969944
0.049508147 -0.029258227 0.0801883 0.01560253 0.07115777 -0.019192291 -0.08646324 -0.03796667
-0.020264024 0.02712182 -0.07072819 -0.0050733974 0.040514745 0.06669841 0.035311755 0.060063466
0.06637329 0.011176028 0.0782444 -0.01661846 0.07322925 -0.008535327 0.021124212 -0.04674627
-0.003645731 0.029919783 0.0037818155 0.017035993 0.009520382 0.01620553 -0.06378228 0.032933213
-0.055603176 -0.08782503 -0.062410608 -0.025445482 -0.08508176 -0.08431683 -0.007253026 0.03415454
0.009605305 -0.017607996 -0.012590047 0.03303853 -0.025668064 0.08560996 0.061800845 -0.0034360297
0.03724917 -0.018928545 -0.032653786 -0.08080418 0.06444084 -0.0013295457 -0.07727557 -0.017532295
0.025187522 -0.0155809615 0.06464082 0.04332985 -0.08086666 0.054621335 -0.0036479714 0.016873041
0.029757043 -0.041441422 0.052200247 -0.053925022 -0.07842483 0.00984597 -0.019057496 0.071573116
0.049957972 0.08552663 0.045428406 0.04481214 -0.0395856 0.054090448 -0.02182791 -0.010291178
-0.034170296 -0.044388227 0.049690545 0.072732456 0.08447987 -0.038652994 -0.08018189 -0.06426288
0.013039155 -0.0010983995 0.06560415 0.034270406 -0.056628548 0.07503468 -0.051963236 -0.032522857
-0.012237902 -0.015617513 0.07032609 -0.06523638 -0.08535648 0.07145749 -0.074061245 0.04337852
-0.043316588 0.08297402 -0.02449591 -0.017695677 -0.03177805 -0.03145071 -0.054353908 0.06618646
-0.053732127 -0.029463744 -0.02420698 0.016171917 -0.075165994 0.078227475 -0.040710196 -0.014047993
-0.05903172 -0.011605898 -0.077555254 0.078358814 -0.047110338 0.044010222 -0.07689563 -0.033374403
-0.01319344 -0.02331927 0.031505413 -0.056890488 0.03918279 -0.06526174 -0.059848536 -0.039622806
0.08618432 0.061490174 0.014553876 0.008274605 0.015161991 -0.01805236 -0.06643474 0.044467356
0.0769595 -0.07414067 -0.0019326621 0.036965463 -0.046082146 -0.03881823 -0.036293037 0.07904354
0.034339886 0.06436555 -0.0077059506 -0.030270277 -0.043217015 -0.042927675 0.015213696 -0.051520616
-0.024772948 -0.06998549 -0.04540503 -0.007629115 0.026445976 -0.039752197 -0.081764415 -0.060575955
00000000: 03a2 b6bd d0d2 073c 5913 7b3d bff0 e23a
00000010: 181f a6bd 7e88 61bc 43bf 953b 871a 42bd
00000020: 7c3a a53d ef9a 3d3d c92e b33d 5c53 943d
00000030: 8e06 063d 8ef7 a0bc 06a9 92bc 7589 c53c
00000040: b073 a83d 0307 163d 5ec0 5a3c d3e2 68bc
00000050: ec07 50bc e315 9bbd 4814 7e3d a018 e8ba
00000060: 383d 173d 2953 013c 5668 7ebd 20a3 82bd
00000070: f9f8 2f3d 0104 863c 3d32 a43d 6f59 a8bd
00000080: 7d68 833d 3be1 04bd 26a2 aabd 983a 6fbd
00000090: c5c6 72bd cf83 78bd 982a 663d d2e9 aebd
000000a0: c39a 09bd 1657 8b3d e066 3e3d b994 a6bd
000000b0: 500f 8fbd a835 94bc 676d 8f3d 4ded 58bd
000000c0: 09a6 5b3d 1360 de3a 5c6a 2ebd 54c4 0c3d
000000d0: 108d 453d be2d 6cbb 6fac 64bd 8acc cdbc
000000e0: c5d8 80bd 1796 f93c f395 743c 3b08 b63c
000000f0: 3b12 413d a978 c7bb d4ad 32bd 36c4 5e3d
00000100: ec48 50bd ddd3 9dbd 7b6e 2f3d ee01 463d
00000110: d253 a7bd 3b62 e8ba 10e3 0cbd 7d3a 083d
00000120: 05f0 8d3d 7e6f 913d 1812 da3c 40bb 90bd
00000130: 1ffb 293d 0f3b 0bbd bae8 af3b 5ecb 2d3b
00000140: 3203 6fbd 6d3e 9e3d a50f 773d ef09 61bd
00000150: 1fb4 07bc 9fb9 86bd 4ad3 90bd 2164 e43b
00000160: 0ec9 4a3d f3ae efbc c339 a43d c1a1 7f3c
00000170: 2abb 913d 2739 9dbc a413 b1bd f082 1bbd
00000180: bd00 a6bc 942e de3c f1d9 90bd be3e a6bb
00000190: caf2 253d 2d99 883d 0fa3 103d 1c05 763d
000001a0: b8ee 873d a91b 373c 9a3e a03d 7023 88bc
000001b0: 38f9 953d c2d7 0bbc af0c ad3c 0479 3fbd
000001c0: 37ed 6ebb 551a f53c 56d8 773b 118f 8b3c
000001d0: 60fb 1b3c 76c1 843c 49a0 82bd fae4 063d
000001e0: 28c0 63bd 9cdd b3bd 44a2 7fbd 0b73 d0bc
000001f0: 593f aebd 4dae acbd cbaa edbb a2e5 0b3d
00000200: 925f 1d3c a53e 90bc 7c46 4ebc 6953 073d
00000210: d545 d2bc 4654 af3d e222 7d3d 032f 61bb
00000220: 9692 183d 0910 9bbc fabf 05bd a97c a5bd
00000230: 8ff9 833d 2744 aeba a742 9ebd e39f 8fbc
00000240: 1056 ce3c 4a47 7fbc 6862 843d a47a 313d
00000250: 6b9d a5bd 9fba 5f3d ce12 6fbb 5539 8a3c
00000260: 0bc5 f33c 7bbe 29bd edcf 553d 7ce0 5cbd
00000270: 339d a0bd fe50 213c 771e 9cbc ed94 923d
00000280: bba0 4c3d 9628 af3d 2313 3a3d ef8c 373d
00000290: 8324 22bd f28d 5d3d 72d0 b2bc 549c 28bc
000002a0: 27f6 0bbd 6ed0 35bd 5088 4b3d c1f4 943d
000002b0: c803 ad3d 9a52 1ebd 6736 a4bd 429c 83bd
000002c0: 2ea2 553c 2cf8 8fba 785b 863d 205f 0c3d
000002d0: 56f3 67bd c8ab 993d 67d7 54bd b036 05bd
000002e0: 7b81 48bc 99e0 7fbc 2007 903d a79a 85bd
000002f0: 61cf aebd 4e58 923d 6cad 97bd adad 313d
00000300: bc6c 31bd 48ee a93d a6ab c8bc 86f6 90bc
00000310: b329 02bd 76d2 00bd 34a2 5ebd c48c 873d
00000320: 3816 5cbd f35d f1bc b74d c6bc f87a 843c
00000330: a1f0 99bd ba35 a03d bcbf 26bd 8e29 66bc
00000340: 3fcb 71bd aa26 3ebc 4ad5 9ebd 967a a03d
00000350: c5f6 40bd 1044 343d 757b 9dbd 99b3 08bd
00000360: 4c29 58bc 0e08 bfbc d20b 013d 0006 69bd
00000370: 227e 203d f2a7 85bd bd23 75bd 864b 22bd
00000380: 6881 b03d 1fdd 7b3d 6173 6e3c 3592 073c
00000390: 006a 783c 8be2 93bc f00e 88bd 6723 363d
000003a0: f19c 9d3d 10d7 97bd 6151 fdba 1969 173d
000003b0: a2c0 3cbd ddff 1ebd 02a8 14bd 94e1 a13d
000003c0: fba7 0c3d 16d2 833d 3382 fcbb 5ff9 f7bc
000003d0: 5304 31bd eed4 2fbd de42 793c 4807 53bd
000003e0: a3f0 cabc 8d54 8fbd a0fa 39bd a8fd f9bb
000003f0: 3ba5 d83c 33d3 22bd 1a74 a7bd 7e1e 78bd

weight_ih_l1 f4 [384, 128]
0.0035382074 0.002391357 -0.029457511 0.0055429186 -0.023309156 0.036356192 0.05612246 -0.008922324
-0.009812061 -0.06176525 -0.030942876 -0.0014380536 0.07992626 -0.010627432 0.009922663 0.07860763
0.030853987 -0.07670936 -0.08241275 -0.02833123 -0.0037165722 0.07395207 0.008240238 -0.04520004
0.019633971 0.05261944 0.065396614 -0.002512439 -0.05082688 0.020017937 -0.0726497 0.077454686
-0.031600833 -0.031220732 0.07854699 0.06320915 0.085011624 -0.057350766 -0.03185082 0.08651832
0.08320934 -0.0030662615 -0.038772803 0.024593724 0.010483518 0.05958521 -0.07520964 -0.041157417
-0.025971368 0.08612084 0.03509287 0.044541128 0.024185145 -0.061682325 -0.0706006 -0.054144565
0.021819018 -0.078781046 -0.015937207 -0.023295654 -0.07467547 0.0643475 0.075206265 -0.029201152
0.027145188 0.015779532 -0.01149948 0.011925141 -0.072129324 -0.032564264 0.018134914 0.08093119
-0.011962266 0.025131173 0.012042495 0.054789197 0.036933046 -0.030663166 0.049438693 0.050258007
-0.058655106 -0.07982768 -0.06965517 0.08558103 0.075597934 0.04004662 0.03337776 -0.01886861
-0.010102853 0.016340945 0.00957186 -0.032774925 -0.030794341 -0.024573328 0.039351255 -0.073330835
0.012077227 0.052979883 0.01798031 0.06582959 -0.03370111 0.04098783 0.074773476 -0.029202102
-0.016879102 -0.04459171 -0.031146806 0.056006934 -0.027968861 -0.013735316 -0.06292878 -0.046550605
-0.045508664 -0.043508615 -0.02918471 -0.05792943 -0.042820405 0.043066945 -0.07684077 -0.008299069
0.00331486 -0.013798243 0.033874724 0.0017182172 -0.017226757 -0.012065529 -0.0040807324 -0.034789097
-0.02036118 -0.036006443 -0.06743505 -0.039877933 0.08292715 0.06288257 0.014385429 0.051511332
0.062351417 -0.07508458 -0.08898384 0.06759573 -0.05243381 -0.054052252 -0.043584116 0.028390028
-0.0814214 0.077655226 -0.041692562 0.017877428 0.059217785 0.03514261 -0.021827716 -0.05642041
-0.04813729 -0.024906509 -5.466342e-05 0.012738029 -0.012281217 0.011922515 0.048922952 0.034387458
0.050836656 0.076323606 -0.068193965 -0.024794033 0.050954774 -0.056920495 0.052648745 -0.0650794
-0.010601758 0.041488245 0.064241536 -0.03112424 -0.08409076 -0.045656074 -0.0453717 0.072421
-0.021569729 0.00634357 0.058701202 -0.08311754 -0.055628724 0.014864512 -0.033645056 -0.0032929282
-0.058465764 0.04071284 -0.054176237 0.06450879 0.027102051 0.047323056 -0.03207024 0.0018906305
-0.042434566 -0.036859166 0.00428514 -0.07780451 -0.08242767 -0.014228124 0.020838834 0.071489505
-0.0404416 0.007839997 0.06956836 -0.032291673 -0.041608937 -0.07382777 0.025024457 -0.045700036
0.07485425 0.03929247 0.024351912 0.009359697 -0.014185677 -0.012422249 -0.0002867688 -0.0006372749
0.081289515 0.03935853 -0.059701756 0.042656515 -0.036607377 -0.07361627 -0.047015876 -0.048506886
0.042450897 0.054480016 -0.017810157 0.061022587 0.082838476 0.081917346 0.0119181285 0.05845678
0.036791492 0.021021612 -0.06175576 0.032701105 0.07546736 0.00504155 0.05891242 0.01643048
-0.07453087 -0.08254637 0.054058682 0.08635266 0.077156454 0.069510475 -0.04350522 -0.03257828
-0.03182612 -0.018855413 -0.0702201 -0.03205217 -0.065390505 0.025385601 -0.060938895 -0.07584621
00000000: 45e1 673b 50b8 1c3b e150 f1bc 5fa1 b53b
00000010: d8f2 bebc 3bea 143d aae0 653d f02e 12bc
00000020: c4c2 20bc 8ffd 7cbd ea7b fdbc 127d bcba
00000030: 61b0 a33d ae1e 2ebc aa92 223c 0afd a03d
00000040: 80c1 fc3c cc19 9dbd 04c8 a8bd e516 e8bc
00000050: bc91 73bb 2f74 973d 1002 073c ad23 39bd
00000060: 6cd7 a03c 7b87 573d a9ee 853d bba7 24bb
00000070: d92f 50bd a8fc a33c 5ec9 94bd 90a0 9e3d
00000080: e06f 01bd 9fc2 ffbc 3fdd a03d cd73 813d
00000090: 931a ae3d a3e8 6abd 0176 02bd 8430 b13d
000000a0: a969 aa3d 55f3 48bb 3bd0 1ebd c778 c93c
000000b0: 10c3 2b3c 9f0f 743d 8307 9abd ae94 28bd
000000c0: e8c1 d4bc 1f60 b03d 8bbd 0f3d c270 363d
000000d0: ed1f c63c 9ba6 7cbd 0c97 90bd b1c6 5dbd
000000e0: ccbd b23c f557 a1bd bf8e 82bc 87d6 bebc
000000f0: 74ef 98bd 9fc8 833d be05 9a3d 4137 efbc
00000100: 965f de3c 1444 813c 5168 3cbc ab61 433c
00000110: 8ab8 93bd 1b62 05bd ac8f 943c 40bf a53d
00000120: 61fd 43bc e4df cd3c e34d 453c a36a 603d
00000130: 1b47 173d 5231 fbbc 3a80 4a3d 57db 4d3d
00000140: 5640 70bd b27c a3bd 5fa7 8ebd 1b45 af3d
00000150: 17d3 9a3d ed07 243d 1eb7 083d 5892 9abc
00000160: 7086 25bc 72dd 853c 4ad3 1c3c 003f 06bd
00000170: 6a44 fcbc 014e c9bc c82e 213d 7a2e 96bd
00000180: 90df 453c 6f01 593d 714b 933c aad1 863d
00000190: 2d0a 0abd dbe2 273d d622 993d 3f39 efbc
000001a0: 0b46 8abc cca5 36bd 9627 ffbc 8767 653d
000001b0: f41e e5bc 170a 61bc cee0 80bd d9ab 3ebd
000001c0: 4b67 3abd 1736 32bd c614 efbc 6947 6dbd
000001d0: 7364 2fbd f766 303d b25e 9dbd d1f8 07bc
000001e0: 1f3e 593b 0712 62bc 39c0 0a3d cd35 e13a
000001f0: 211f 8dbc 7fae 45bc aab7 85bb 037f 0ebd
00000200: 7dcc a6bc 7e7b 13bd 631b 8abd 0b57 23bd
00000210: b6d5 a93d 94c8 803d ddb0 6b3c 8cfd 523d
00000220: 3364 7f3d f2c5 99bd 293d b6bd a16f 8a3d
00000230: d6c4 56bd e565 5dbd 4285 32bd 3492 e83c
00000240: 43c0 a6bd b409 9f3d d2c5 2abd af73 923c
00000250: 598e 723d b3f1 0f3d 0ad0 b2bc 1619 67bd
00000260: 9b2b 45bd bc08 ccbc 6646 65b8 2ab3 503c
00000270: 2837 49bc a756 433c 6f63 483d ddd9 0c3d
00000280: 193a 503d 8d4f 9c3d 47a9 8bbd db1c cbbc
00000290: f4b5 503d 7725 69bd 36a6 573d 5948 85bd
000002a0: ffb2 2dbc 94ef 293d 1191 833d 43f8 febc
000002b0: c737 acbd dd01 3bbd add7 39bd 7651 943d
000002c0: 00b3 b0bc b9dd cf3b ac70 703d 8739 aabd
000002d0: f2da 63bd 488a 733c 66cf 09bd 2bce 57bb
000002e0: cc79 6fbd 82c2 263d e7e7 5dbd 2f1d 843d
000002f0: 1f05 de3c d2d5 413d 155c 03bd 08cf f73a
00000300: decf 2dbd a3f9 16bd 5c6a 8c3b f957 9fbd
00000310: d7cf a8bd 141d 69bc 34b6 aa3c 1769 923d
00000320: 17a6 25bd 5573 003c db79 8e3d 4644 04bd
00000330: 226e 2abd 0433 97bd 1700 cd3c f62f 3bbd
00000340: 2f4d 993d 24f1 203d a97d c73c 6a59 193c
00000350: 0b6b 68bc b086 4bbc 7559 96b9 cb0e 27ba
00000360: 1e7b a63d 6936 213d d489 74bd 99b8 2e3d
00000370: 9ef1 15bd 21c4 96bd b893 40bd 28af 46bd
00000380: fee0 2d3d 7026 5f3d 9be6 91bc d2f2 793d
00000390: 38a7 a93d 48c4 a73d 4144 433c 6070 6f3d
000003a0: adb2 163d 8435 ac3c 9cf3 7cbd 98f1 053d
000003b0: a28e 9a3d 9633 a53b 264e 713d 3799 863c
000003c0: a4a3 98bd 120e a9bd a36c 5d3d aad9 b03d
000003d0: 3404 9e3d 825b 8e3d 8832 32bd cd70 05bd
000003e0: 1b5c 02bd ab76 9abc 8ecf 8fbd 2349 03bd
000003f0: 75eb 85bd 77f5 cf3c 109b 79bd 4255 9bbd

weight_hh_l1 f4 [384, 128]
-0.029395094 0.049186595 -0.00061625324 0.08487941 -0.05092756 -0.041944075 -0.0626468 -0.0050258203
-0.07868248 0.043220665 -0.05860236 -0.06841482 0.064128354 -0.060527634 0.031159958 -0.08304717
-0.065439805 0.07894769 -0.0049733724 0.061264303 -0.046877302 -0.00970651 0.08257531 -0.030236457
-0.04573774 -0.026343768 0.06338265 0.038629565 -0.07398741 -0.0559925 0.03493047 0.0040867743
0.053507734 0.078834824 -0.03969377 -0.03868309 0.04589185 0.077246875 0.02145681 0.02196876
-0.056829497 0.06158981 0.037463576 -0.040398873 0.034031574 -0.085969105 -0.025905853 0.08151804
-0.019935919 -0.047988668 -0.053138927 -0.047414295 0.020437425 0.03869674 0.05464746 0.01752863
0.05845336 -0.009244714 0.06537216 0.05346012 0.01874998 0.019527966 0.0011924957 0.01582551
-0.028965404 0.0027843146 -0.035351366 -0.060772937 0.06913679 -0.021109244 0.04622009 0.060884792
0.08745896 0.053774506 -0.022667691 0.07807537 -0.069128856 0.045264833 -0.03275433 -0.046294324
-0.006141256 -0.077788405 0.017979085 -0.016683195 -0.011183537 -0.051622245 0.061616804 0.030641489
-0.008185376 -0.08443148 -0.07443478 -0.061064236 -0.08548124 -0.02603066 0.011058308 -0.029894717
0.028821189 0.0354628 0.024051828 -0.030240513 -0.013285791 0.05874584 -0.055255223 -0.012860055
-0.08570469 -0.044596262 -0.07733727 -0.07846951 -0.018942503 0.06729585 0.041170426 -0.07946395
-0.025639528 -0.034144197 0.086190455 -0.08219291 0.040069647 0.07266081 -0.04129367 -0.0063646347
0.08278137 0.06808474 0.049158387 0.08851379 0.068342745 -0.059351772 0.025429845 -0.05282115
-0.04800887 0.022323847 0.07540607 -0.06197259 -0.04927774 -0.036148902 -0.07982408 -0.06673976
0.04584856 0.005028755 0.02213752 0.0589424 0.05272186 0.07683899 0.06486045 -0.03099404
-0.01372713 0.06771019 0.055237263 -0.03220817 -0.009131858 -0.0148260575 -0.0043369927 0.080564044
-0.03590025 -0.07654187 -0.041177865 -0.04997928 0.015216589 0.035703734 -0.07060257 -0.015152438
0.044733975 -0.03444923 -0.027054239 0.017408542 -0.029879909 0.015968183 0.00831039 0.033091113
0.008762005 -0.050667834 0.025205113 0.071004875 0.0021796455 -0.008530521 0.07426299 -0.022408167
0.060777355 0.07641556 0.06448005 0.008524102 -0.0009816315 0.004010502 -0.017632155 0.06536704
0.048619535 -0.0790373 -0.08107294 -0.04003669 -0.071292564 -0.08098296 0.026565095 0.01588994
0.0053176577 0.04551758 -0.05689395 -0.03943446 0.026861114 0.06891395 0.0030549262 -0.07605369
-0.06780641 0.07679303 0.046660636 -0.058719926 -0.084044516 -0.028912889 0.071063295 0.053772856
-0.02399849 0.08224104 0.04222508 -0.03979447 -0.023655092 -0.057586785 -0.031281475 -0.010920407
0.08027077 -0.061068285 0.023236988 0.066045165 0.07638832 -0.034992635 -0.04223706 -0.00021402568
0.04729388 -0.006136008 -0.02492125 -0.06840955 -0.010079758 -0.029133622 -0.033547416 -0.013017005
0.04161861 0.04871688 -0.061582576 -0.08085914 0.080492385 -0.0074109174 0.053831797 -0.017908711
0.07181383 0.06574093 -0.028814223 0.030127475 0.066753276 -0.0014998929 -0.04625691 -0.033057213
-0.083190106 0.006741151 -0.08353521 0.055166386 0.07670631 0.08568893 -0.0037492523 0.0039692577
00000000: fbcd f0bc e277 493d 0e8c 21ba 42d5 ad3d
00000010: 6b99 50bd 8dcd 2bbd f74c 80bd a3af a4bb
00000020: 4824 a1bd 2708 313d 0709 70bd 121d 8cbd
00000030: ba55 833d d3eb 77bd 2b43 ff3c a214 aabd
00000040: 4e05 86bd 54af a13d acf7 a2bb 47f0 7a3d
00000050: 6a02 40bd 0e08 1fbc 3e1d a93d 72b2 f7bc
00000060: 7f57 3bbd e3ce d7bc c3ce 813d 093a 1e3d
00000070: b686 97bd 6458 65bd 4113 0f3d 59ea 853b
00000080: ed2a 5b3d 2774 a13d ef95 22bd 2972 1ebd
00000090: 18f9 3b3d 9c33 9e3d 31c6 af3c d4f7 b33c
000000a0: 0cc6 68bd 9945 7c3d 6873 193d 4a79 25bd
000000b0: b164 0b3d 9210 b0bd 8338 d4bc eef2 a63d
000000c0: a750 a3bc c48f 44bd 34a8 59bd 7e35 42bd
000000d0: 636c a73c 7980 1e3d 04d6 5f3d 3498 8f3c
000000e0: ca6c 6f3d 2477 17bc d7e1 853d 00f9 5a3d
000000f0: 8f99 993c 1df9 9f3c 844d 9c3a 80a4 813c
00000100: db48 edbc 0c79 363b 98cc 10bd 0bed 78bd
00000110: 9797 8d3d 4bed acbc 4751 3d3d 5562 793d
00000120: af1d b33d a842 5c3d 98b1 b9bc fbe5 9f3d
00000130: 6e93 8dbd 9e67 393d 6829 06bd 1e9f 3dbd
00000140: 973c c9bb 874f 9fbd e048 933c 32ab 88bc
00000150: 273b 37bc d971 53bd e761 7c3d dc03 fb3c
00000160: f51b 06bc 69ea acbd 4371 98bd 7e1e 7abd
00000170: ca10 afbd 403e d5bc e82d 353c c4e5 f4bc
00000180: 6a1a ec3c 7141 113d 5708 c53c f4ba f7bc
00000190: a5ac 59bc 7a9f 703d 4d53 62bd fbb2 52bc
000001a0: f185 afbd 92aa 36bd 0163 9ebd 9fb4 a0bd
000001b0: 4f2d 9bbc 68d2 893d 52a2 283d ffbd a2bd
000001c0: fd09 d2bc c9da 0bbd 9f84 b03d c254 a8bd
000001d0: 1220 243d 31cf 943d 8d23 29bd 6d8e d0bb
000001e0: 4789 a93d 0370 8b3d 4e5a 493d b846 b53d
000001f0: 48f7 8b3d d81a 73bd 4052 d03c fd5a 58bd
00000200: f3a4 44bd 80e0 b63c 7f6e 9a3d f8d6 7dbd
00000210: 75d7 49bd df10 14bd cf7a a3bd dbae 88bd
00000220: b3cb 3b3d 41c8 a43b bf59 b53c 966d 713d
00000230: e1f2 573d c35d 9d3d 8ed5 843d 37e7 fdbc
00000240: c2e7 60bc a4ab 8a3d 7840 623d b7ec 03bd
00000250: ca9d 15bc fee8 72bc 551d 8ebb c3fe a43d
00000260: 240c 13bd fcc1 9cbd 1faa 28bd 13b7 4cbd
00000270: 004f 793c 143e 123d 1598 90bd ee41 78bc
00000280: f93a 373d a31a 0dbd daa0 ddbc 5c9c 8e3c
00000290: b6c6 f4bc b5cf 823c 4d28 083c 8c8a 073d
000002a0: 838e 0f3c 1389 4fbd f47a ce3c 016b 913d
000002b0: 62d8 0e3b 99c3 0bbc 3217 983d 5591 b7bc
000002c0: adf1 783d c37f 9c3d 1e0e 843d ada8 0b3c
000002d0: 16aa 80ba 876a 833b 4f71 90bc 28df 853d
000002e0: 4725 473d 4fde a1bd 9209 a6bd 83fd 23bd
000002f0: d601 92bd 65da a5bd 0b9f d93c 9f2b 823c
00000300: bf3f ae3b a470 3a3d a109 69bd 0786 21bd
00000310: d70b dc3c c222 8d3d 2835 483b 09c2 9bbd
00000320: 16de 8abd aa45 9d3d 391f 3f3d 4e84 70bd
00000330: 881f acbd b9da ecbc a289 913d ed40 5c3d
00000340: 7b98 c4bc fe6d a83d 35f4 2c3d 87ff 22bd
00000350: 53c8 c1bc 1fe0 6bbd 0121 00bd 82eb 32bc
00000360: 0065 a43d bd22 7abd 7f5b be3c b042 873d
00000370: 7b71 9c3d 7054 0fbd c400 2dbd 156c 60b9
00000380: 3ab7 413d 9110 c9bb a627 ccbc 4e1a 8cbd
00000390: 9225 25bc a2a9 eebc 0469 09bd 4745 55bc
000003a0: 4778 2a3d 5a8b 473d 033e 7cbd 7a99 a5bd
000003b0: 31d9 a43d 48d7 f2bb bb7e 5c3d 4ab5 92bc
000003c0: 2113 933d 2ea3 863d ce0b ecbc e5cd f63c
000003d0: f1b5 883d 0e98 c4ba e377 3dbd 0067 07bd
000003e0: 935f aabd e0e4 dc3b 8214 abbd 26f6 613d
000003f0: 3318 9d3d ad7d af3d 04b6 75bb 8c10 823b

bias_ih_l1 f4 [384]
0.0549959 0.02775332 -0.06769535 0.0567553 -0.08890589 -0.02731778 -0.05374813 0.01305802
0.07453187 0.0855486 0.058503907 -0.073819295 -0.02763499 -0.06094531 -0.051931884 0.008196503
-0.07268716 -0.054016914 -0.0297489 0.07451311 0.014788522 -0.067247346 -0.08087784 -0.047141064
0.044682592 0.059314225 0.069966674 -0.0016785824 0.052347098 -0.0339653 -0.05946426 0.026170302
0.057424698 -0.027403696 0.033532552 0.01760585 -0.029363811 0.0058147684 0.06022206 -0.052902997
0.061170388 -0.08671511 0.065566845 -0.07262339 0.07246366 0.0072796047 -0.019306825 0.074101254
-0.064112484 0.054206956 -0.0892552 -0.03810588 -0.037527066 0.026656885 -0.04985007 0.0043899994
-8.03655e-05 0.05200242 -0.05314041 0.081715934 -0.05902344 0.049715914 0.039606925 0.05688112
0.08643893 -0.0025735502 -0.019479044 -0.060021225 0.058629222 0.07195807 0.03426061 0.048273876
0.032337762 -0.04366088 0.035603188 -0.043795623 0.028296879 0.07151592 0.030006206 0.010425543
-0.037717585 -0.06535578 0.08317231 -0.06320597 -0.03806136 0.046865832 0.00448897 -0.08639219
-0.06951393 -0.03375599 0.037010893 -0.071620405 -0.0033113253 -0.05297657 -0.08114764 0.08238032
-0.055594016 0.06793437 -0.06212191 -0.019772984 0.053525727 -0.024254626 0.05769779 -0.045748554
-0.052822556 -0.04184494 0.070604496 0.07403589 -0.04505554 -0.0018185333 -0.029633148 0.046765663
0.049207438 -0.014573376 0.046498965 0.02333393 -0.002397544 0.05245274 -0.018493809 -0.08654769
0.02133887 0.042497586 -0.06847688 -0.04123614 0.029014569 0.03110974 -0.0394086 -0.06805835
-0.039511126 0.072660096 0.039404023 -0.045286287 0.07290766 -0.073500425 -0.03499382 -0.0050019543
0.022206733 0.07699575 -0.002360314 0.0060118474 -0.08080161 0.051632855 -0.07005813 -0.063074514
0.048901204 0.0714471 0.0031108686 -0.072089024 -0.05638261 -0.015588591 -0.02158094 0.022361517
-0.03103034 -0.080909945 0.008693937 -0.06771745 -0.010749682 -0.017124902 -0.03451251 0.011694618
-0.055511586 -0.055722926 0.07306178 0.051599633 0.035693903 -0.027539857 0.0072610835 0.08019608
-0.057893544 -0.0820294 -0.0060767494 -0.009560881 0.010639478 0.040884368 0.0009751375 -0.030209336
-0.056566663 0.023351116 -0.0138019305 0.009730098 -0.03184916 -0.06046074 -0.0632101 0.07895865
0.07557296 -0.0074086743 -0.039428283 -0.06987844 0.08659184 -0.0068612783 0.069403075 0.020948267
-0.08151964 -0.018699449 -0.017581705 0.0146391345 -0.01994816 0.021047372 -0.044946887 -0.07684886
0.04108308 -0.013487476 -0.038542543 -0.019184928 -0.076691434 0.052945588 0.05562294 -0.030988341
0.08033158 -0.0130472565 0.0086785825 0.035394788 -0.06863077 -0.026013788 0.008476926 -0.034664165
-0.06560914 0.026566083 0.07055061 -0.079476014 -0.07127217 0.0040186853 -0.04751085 0.001568329
0.017657997 0.053610478 0.022758689 -0.07560124 -0.06553351 0.08053464 -0.07965311 -0.007381779
-0.0128100095 0.038923215 0.031565286 0.0058186958 -0.07789603 0.010702714 -0.024806475 -0.06087351
-0.026944257 0.01645009 0.051229205 -0.08204522 -0.08722954 0.05567663 0.07721338 0.047187045
-0.080894455 -0.05630237 -0.05176869 0.07846588 -0.07008389 -0.08118345 0.070708364 -0.011345442
00000000: 6143 613d ee5a e33c dca3 8abd 3f78 683d
00000010: 4b14 b6bd 89c9 dfbc 0027 5cbd 4ef1 553c
00000020: 2aa4 983d 1b34 af3d cba1 6f3d 922e 97bd
00000030: c662 e2bc caa1 79bd 87b6 54bd a04a 063c
00000040: 01dd 94bd d740 5dbd f7b3 f3bc 549a 983d
00000050: 8f4b 723c fab8 89bd 48a3 a5bd fd16 41bd
00000060: 1805 373d 79f3 723d b04a 8f3d e103 dcba
00000070: e969 563d 331f 0bbd cc90 73bd 1a63 d63c
00000080: 2936 6b3d b77d e0bc 6e59 093d 253a 903c
00000090: 608c f0bc d089 be3b 68ab 763d d0b0 58bd
000000a0: cd8d 7a3d b197 b1bd e947 863d 92bb 94bd
000000b0: d467 943d c089 ee3b 5929 9ebc 66c2 973d
000000c0: 684d 83bd 1d08 5e3d 6ecb b6bd e914 1cbd
000000d0: fbb5 19bd 8a5f da3c 962f 4cbd fcd9 8f3b
000000e0: e689 a8b8 7d00 553d c2a9 59bd af5a a73d
000000f0: 90c2 71bd eaa2 4b3d df3a 223d 2dfc 683d
00000100: e506 b13d 02a9 28bb 8492 9fbc d1d8 75bd
00000110: 3225 703d c15e 933d da54 0c3d d4ba 453d
00000120: 9a74 043d c0d5 32bd a6d4 113d 0a63 33bd
00000130: dbce e73c f076 923d 93cf f53c e6cf 2a3c
00000140: c17d 1abd 40d9 85bd 3e56 aa3d 2272 81bd
00000150: 3be6 1bbd 63f6 3f3d 3618 933b 63ee b0bd
00000160: 525d 8ebd b943 0abd bc98 173d b8ad 92bd
00000170: d202 59bb f6fd 58bd bc30 a6bd 03b7 a83d
00000180: 8db6 63bd 2d21 8b3d 8b73 7ebd f4fa a1bc
00000190: cb3d 5b3d a3b1 c6bc 8554 6c3d d662 3bbd
000001a0: 775c 58bd 9a65 2bbd 1799 903d 21a0 973d
000001b0: 288c 38bd da5b eeba 37c1 f2bc 5a8d 3f3d
000001c0: bd8d 493d 2bc5 6ebc b375 3e3d cc26 bf3c
000001d0: 1d20 1dbb afd8 563d 5480 97bc ea3f b1bd
000001e0: dbce ae3c f311 2e3d 9b3d 8cbd 3ae7 28bd
000001f0: f6af ed3c dad9 fe3c ea6a 21bd 2d62 8bbd
00000200: 6bd6 21bd d1ce 943d 1d66 213d 1d7e 39bd
00000210: 9c50 953d 6487 96bd ae55 0fbd 6fe7 a3bb
00000220: e5ea b53c f3af 9d3d 7faf 1abb 08ff c43b
00000230: 517b a5bd f97c 533d a37a 8fbd 362d 81bd
00000240: a14c 483d db52 923d b7df 4b3b 69a3 93bd
00000250: 74f1 66bd 4a67 7fbc 83ca b0bc 802f b73c
00000260: 5733 febc 1db4 a5bd 0471 0e3c 72af 8abd
00000270: 6f1f 30bc 8649 8cbc fd5c 0dbd c89a 3f3c
00000280: 1e60 63bd b93d 64bd 6aa1 953d 235a 533d
00000290: c533 123d 449b e1bc 62ee ed3b d83d a43d
000002a0: c821 6dbd 08ff a7bd 781f c7bb 3ea5 1cbc
000002b0: 3551 2e3c 5e76 273d 5fa0 7f3a 9279 f7bc
000002c0: 72b2 67bd d74a bf3c 7e21 62bc fd6a 1f3c
000002d0: 4474 02bd aea5 77bd 4c74 81bd 13b5 a13d
000002e0: ffc5 9a3d 77c4 f2bb 8d7f 21bd 6d1c 8fbd
000002f0: 1057 b13d 93d4 e0bb 3323 8e3d b39b ab3c
00000300: c5f3 a6bd 962f 99bc 8207 90bc fbd8 6f3c
00000310: 536a a3bc 8a6b ac3c 3a1a 38bd ef62 9dbd
00000320: bb46 283d 93fa 5cbc c9de 1dbd b629 9dbc
00000330: 6610 9dbd 79dd 583d e1d4 633d 43db fdbc
00000340: e284 a43d 29c4 55bc 9d30 0e3c 20fa 103d
00000350: 4a8e 8cbd de1a d5bc cee2 0a3c 03fc 0dbd
00000360: 165e 86bd 1da1 d93c d77c 903d 52c4 a2bd
00000370: 25f7 91bd 2daf 833b bd9a 42bd 6490 cd3a
00000380: 81a7 903c a996 5b3d 6e70 ba3c d3d4 9abd
00000390: 6f36 86bd 58ef a43d 2b21 a3bd dae2 f1bb
000003a0: 13e1 51bc f36d 1f3d 9a4a 013d c2aa be3b
000003b0: f487 9fbd 705a 2f3c f336 cbbc 8056 79bd
000003c0: 34ba dcbc 57c2 863c b7d5 513d 5307 a8bd
000003d0: 67a5 b2bd 2e0d 643d 0c22 9e3d 3447 413d
000003e0: feab a5bd 509d 66bd 680b 54bd b8b2 a03d
000003f0: 2488 8fbd 8243 a6bd 8ccf 903d 3ce2 39bc
