model/critic_mean.pth (torch, 4215 bytes, 3 tensors)

weight_orig f4 [1, 128]
00000000: 2c2d 5e3c 1d9f 2cbe b606 9bbd bd45 6abd
00000010: 1906 57bd e3a6 ca3c 5ccb 0c3d d0d6 0ebe
00000020: c6bc 9dbc c342 3a3d 1c0d e7bd d891 963d
00000030: 6fb0 b53d bfa0 c83c 4a6b b83d ca62 f3bd
00000040: 64ba f43d 9ed0 bfbd 170a b13d 199d 49be
00000050: a386 12bc 1774 94bd 1c49 9abd 50d3 fa3c
00000060: d56d 88ba db11 ba3d ece9 ee3d 6dae 54be
00000070: ec11 933d cef1 183e 9c4c 86bc 7369 95bd
00000080: 9150 92bd 08dc ad3d 5895 31be c81d c0bd
00000090: 6fd2 c8bd d9b4 0b3e 2d01 93bd 731c c2bd
000000a0: e458 b43c c000 20bd 6918 c3bd 1f23 9c3d
000000b0: 702f 863d 5994 df3b 6347 9abc 9972 6abd
000000c0: 31e5 c5bd 491c ef3d ae0b 6f3d 6210 be3d
000000d0: 8fb9 673d 067f 2fbd 39b7 94bd 5514 f2bd
000000e0: 784d 0c3e 6dbb 53bd a674 4d3e a528 a73d
000000f0: fe0f 05bd 0667 0dbe a368 29be 06c3 123e
00000100: 77d6 83bd 0ec8 c73c 9658 90bb 493f 72be
00000110: bb1a a83d ce8f 023d cf94 153e c7c3 c5bc
00000120: 886c 883d ef18 0a3e cadb 133e d607 3fbd
00000130: fc33 00be 998f 9e3b 6010 31bd 7cc3 d5bd
00000140: 7eea 603d cce4 fa3d f315 893d 0e08 1ebc
00000150: 4f87 973d 27ed b2ba f30e 0e3d ff7a 98bd
00000160: 056e abbd 5bf8 20bb 4bd3 adbd 7954 593c
00000170: f1e3 a93d 0e7a 38bd 8c93 c93d 0bc5 e33d
00000180: 8cf2 bcbd 4ffa 883d ad12 933d d820 2fbb
00000190: d7a5 4a3d cb9f 2d3c c568 0f3d f433 3ebd
000001a0: e391 83bd b8fd cdbd 23eb bcbb 0cf2 123d
000001b0: 914a 62bd 4975 993d 6913 c03d c4ea 97bd
000001c0: 7c07 b6bd f43d 5c3c 0a07 89bc 1767 173c
000001d0: 798f 7e3c fec4 913d 77c5 7bbc c6c3 903d
000001e0: 6d8f 9f3d b4c6 ee3c bf3a bb3d aec4 473e
000001f0: f283 2b3d ef82 8a3d f87c 2b3d 1b07 ad3d
0.0135605745 -0.16857572 -0.075696394 -0.057195414 -0.05249605 0.02473778 0.034373626 -0.13949132
-0.019255053 0.045473825 -0.11281797 0.07352036 0.08871543 0.024490712 0.09004839 -0.11884077
0.11949614 -0.093659624 0.086445026 -0.19688834 -0.008943233 -0.07248705 -0.07533476 0.03061834
-0.0010408709 0.09085437 0.11665711 -0.20769663 0.07181153 0.14935991 -0.016393952 -0.072955035
-0.07144273 0.08489233 -0.17342126 -0.0938068 -0.09805762 0.13643207 -0.07177959 -0.094780825
0.022015043 -0.039063215 -0.0952614 0.07623886 0.06552017 0.0068231043 -0.018832868 -0.057238195
-0.096628554 0.11675317 0.058360748 0.092804685 0.056573447 -0.04284575 -0.072615094 -0.11820284
0.13701427 -0.051692415 0.20064029 0.08162049 -0.032485954 -0.13808832 -0.16543822 0.14332208
-0.0643739 0.024387386 -0.0044050915 -0.23656954 0.082082234 0.031875424 0.14607547 -0.024141205
0.06661326 0.13486074 0.14439312 -0.046638332 -0.1251983 0.0048388955 -0.043228507 -0.10437676
0.05491113 0.12250671 0.066936396 -0.009645475 0.07398855 -0.0013650999 0.034682225 -0.07445335
-0.08370594 -0.0024562094 -0.084875666 0.013264769 0.082954295 -0.045038275 0.098425955 0.11121567
-0.0922595 0.066883676 0.071812965 -0.0026722457 0.049474563 0.01059718 0.035012025 -0.046436265
-0.0642431 -0.10058159 -0.005765335 0.035875365 -0.055246893 0.074930735 0.09378702 -0.07417825
-0.08888146 0.013442505 -0.01672699 0.009240887 0.015537136 0.071176514 -0.0153669035 0.07068591
0.07791028 0.029147483 0.09142064 0.19508621 0.04187388 0.06763255 0.041867226 0.08448621

weight_v f4 [128]
00000000: 4bb5 60bc 949d 2c3e 823b 9b3d 5aea 693d
00000010: a4fc 563d a98a cbbc 1ce7 0cbd 51e6 0e3e
00000020: 1006 9f3c b471 3abd f3d7 e63d 5fc6 96bd
00000030: 7c86 b5bd 98d4 c8bc 4171 b8bd 1e52 f33d
00000040: d632 f4bd d873 bf3d b34b b1bd 389d 493e
00000050: 4698 133c 87b2 943d 2766 9a3d 5648 fcbc
00000060: bb19 8a3a a602 babd 0876 eebd 645b 543e
00000070: d6bc 92bd aa00 19be 64d9 843c e73e 953d
00000080: 5aeb 913d c510 aebd 934d 313e 3bbf bf3d
00000090: fb89 c83d adb7 0bbe dba8 923d 00de c13d
000000a0: 509b b5bc bd86 1f3d 01e1 c23d edcb 9bbd
000000b0: 016d 86bd afd8 e2bb b368 9b3c 9a05 6a3d
000000c0: e536 c63d 861f efbd 7a65 6ebd d2c0 bdbd
000000d0: 5522 67bd 82f0 2f3d bf79 943d 62c0 f13d
000000e0: 714d 0cbe 1f01 533d fc72 4dbe f9e6 a6bd
000000f0: 4527 043d df6b 0d3e 2170 293e b495 12be
00000100: 7dc4 833d 8ee6 c5bc dd26 923b 812b 723e
00000110: df56 a8bd 10d1 02bd 4e69 15be 8a17 c53c
00000120: 5424 88bd d9ed 09be 5dd9 13be 47b7 3f3d
00000130: 27f9 ff3d a042 a3bb 66bc 313d aea0 d53d
00000140: 74c1 60bd 05ea fabd 63f9 88bd 9b00 1c3c
00000150: 4b11 97bd c062 a43a 8763 0ebd ae27 983d
00000160: 9221 ab3d 0fbf 2f3b d892 ad3d 97b7 5bbc
00000170: 6852 a9bd 898f 373d f11b c9bd 2fee e3bd
00000180: 2912 bd3d 4aad 88bd ff48 93bd c906 273b
00000190: e315 4bbd eaa7 2fbc 40ce 0ebd ed7f 3e3d
000001a0: 07b6 833d c438 ce3d a116 ba3b 0c9b 12bd
000001b0: f0e9 613d 6f7f 99bd 16d8 bfbd 5dd6 973d
000001c0: 7f22 b63d fe92 60bc e1c4 873c 8037 16bc
000001d0: 2f9c 80bc afef 91bd dc60 7d3c 5d8a 90bd
000001e0: a6c9 9fbd 3ed0 edbc 5e5a bbbd 777d 47be
000001f0: aad2 2bbd 99c3 8abd 4e3c 2bbd 0b92 acbd
-0.013715099 0.16856986 0.075797096 0.05710826 0.05248703 -0.024846392 -0.03440009 0.13955046
0.01941207 -0.045518592 0.11271658 -0.07362055 -0.088635415 -0.024515435 -0.090059765 0.11880897
-0.11923759 0.09348267 -0.086570166 0.1968888 0.009008473 0.07260614 0.07539015 -0.030796211
0.0010536233 -0.090825364 -0.116436064 0.20737988 -0.07164924 -0.1494166 0.016216941 0.07287388
0.07124968 -0.08499292 0.17314748 0.09362646 0.09791943 -0.13644286 0.07161113 0.09466171
-0.022168785 0.038946856 0.09515572 -0.07607255 -0.065637596 -0.0069228034 0.018970823 0.05713425
0.09678439 -0.116759345 -0.058202244 -0.09265293 -0.056429226 0.042953975 0.07249784 0.11804272
-0.13701417 0.05151474 -0.20063394 -0.08149523 0.032264013 0.13810681 0.1654668 -0.1431492
0.064339615 -0.024157789 0.0044601993 0.23649408 -0.08219694 -0.03193766 -0.14590952 0.024059076
-0.06647554 -0.13469638 -0.14438386 0.046805646 0.12498694 -0.0049823076 0.04339256 0.10431038
-0.05487199 -0.12251667 -0.06688192 0.009521629 -0.07376345 0.0012541637 -0.034762885 0.07429443
0.083560124 0.002681676 0.08475274 -0.01341047 -0.08267671 0.04481462 -0.098197825 -0.11129414
0.092319794 -0.06673677 -0.07191657 0.0025486222 -0.04958142 -0.010721186 -0.034864664 0.04650872
0.06431203 0.10069421 0.005678967 -0.035792395 0.05515474 -0.07495009 -0.09367387 0.074139334
0.08893298 -0.013706921 0.016573371 -0.009168506 -0.015699474 -0.07125794 0.015464988 -0.07057641
-0.07802133 -0.029029962 -0.091480955 -0.19481455 -0.04194895 -0.067755885 -0.041805558 -0.08426293

weight f4 [1, 128]
00000000: 2c2d 5e3c 1d9f 2cbe b606 9bbd bd45 6abd
00000010: 1906 57bd e3a6 ca3c 5ccb 0c3d d0d6 0ebe
00000020: c6bc 9dbc c342 3a3d 1c0d e7bd d891 963d
00000030: 6fb0 b53d bfa0 c83c 4a6b b83d ca62 f3bd
00000040: 64ba f43d 9ed0 bfbd 170a b13d 199d 49be
00000050: a386 12bc 1774 94bd 1c49 9abd 50d3 fa3c
00000060: d56d 88ba db11 ba3d ece9 ee3d 6dae 54be
00000070: ec11 933d cef1 183e 9c4c 86bc 7369 95bd
00000080: 9150 92bd 08dc ad3d 5895 31be c81d c0bd
00000090: 6fd2 c8bd d9b4 0b3e 2d01 93bd 731c c2bd
000000a0: e458 b43c c000 20bd 6918 c3bd 1f23 9c3d
000000b0: 702f 863d 5994 df3b 6347 9abc 9972 6abd
000000c0: 31e5 c5bd 491c ef3d ae0b 6f3d 6210 be3d
000000d0: 8fb9 673d 067f 2fbd 39b7 94bd 5514 f2bd
000000e0: 784d 0c3e 6dbb 53bd a674 4d3e a528 a73d
000000f0: fe0f 05bd 0667 0dbe a368 29be 06c3 123e
00000100: 77d6 83bd 0ec8 c73c 9658 90bb 493f 72be
00000110: bb1a a83d ce8f 023d cf94 153e c7c3 c5bc
00000120: 886c 883d ef18 0a3e cadb 133e d607 3fbd
00000130: fc33 00be 998f 9e3b 6010 31bd 7cc3 d5bd
00000140: 7eea 603d cce4 fa3d f315 893d 0e08 1ebc
00000150: 4f87 973d 27ed b2ba f30e 0e3d ff7a 98bd
00000160: 056e abbd 5bf8 20bb 4bd3 adbd 7954 593c
00000170: f1e3 a93d 0e7a 38bd 8c93 c93d 0bc5 e33d
00000180: 8cf2 bcbd 4ffa 883d ad12 933d d820 2fbb
00000190: d7a5 4a3d cb9f 2d3c c568 0f3d f433 3ebd
000001a0: e391 83bd b8fd cdbd 23eb bcbb 0cf2 123d
000001b0: 914a 62bd 4975 993d 6913 c03d c4ea 97bd
000001c0: 7c07 b6bd f43d 5c3c 0a07 89bc 1767 173c
000001d0: 798f 7e3c fec4 913d 77c5 7bbc c6c3 903d
000001e0: 6d8f 9f3d b4c6 ee3c bf3a bb3d aec4 473e
000001f0: f283 2b3d ef82 8a3d f87c 2b3d 1b07 ad3d
0.0135605745 -0.16857572 -0.075696394 -0.057195414 -0.05249605 0.02473778 0.034373626 -0.13949132
-0.019255053 0.045473825 -0.11281797 0.07352036 0.08871543 0.024490712 0.09004839 -0.11884077
0.11949614 -0.093659624 0.086445026 -0.19688834 -0.008943233 -0.07248705 -0.07533476 0.03061834
-0.0010408709 0.09085437 0.11665711 -0.20769663 0.07181153 0.14935991 -0.016393952 -0.072955035
-0.07144273 0.08489233 -0.17342126 -0.0938068 -0.09805762 0.13643207 -0.07177959 -0.094780825
0.022015043 -0.039063215 -0.0952614 0.07623886 0.06552017 0.0068231043 -0.018832868 -0.057238195
-0.096628554 0.11675317 0.058360748 0.092804685 0.056573447 -0.04284575 -0.072615094 -0.11820284
0.13701427 -0.051692415 0.20064029 0.08162049 -0.032485954 -0.13808832 -0.16543822 0.14332208
-0.0643739 0.024387386 -0.0044050915 -0.23656954 0.082082234 0.031875424 0.14607547 -0.024141205
0.06661326 0.13486074 0.14439312 -0.046638332 -0.1251983 0.0048388955 -0.043228507 -0.10437676
0.05491113 0.12250671 0.066936396 -0.009645475 0.07398855 -0.0013650999 0.034682225 -0.07445335
-0.08370594 -0.0024562094 -0.084875666 0.013264769 0.082954295 -0.045038275 0.098425955 0.11121567
-0.0922595 0.066883676 0.071812965 -0.0026722457 0.049474563 0.01059718 0.035012025 -0.046436265
-0.0642431 -0.10058159 -0.005765335 0.035875365 -0.055246893 0.074930735 0.09378702 -0.07417825
-0.08888146 0.013442505 -0.01672699 0.009240887 0.015537136 0.071176514 -0.0153669035 0.07068591
0.07791028 0.029147483 0.09142064 0.19508621 0.04187388 0.06763255 0.041867226 0.08448621
