model/critic_gnn.pth (torch, 890283 bytes, 26 tensors)

weight f4 [128, 4]
000000 39 f7 c3 3c 3c 2b d6 3d 77 5e cf 3b a3 ba 07 3e
       0.023921596 0.10457465 0.0063283998 0.1325479
000010 6a f1 37 3e 9c c0 ef bd 03 b8 b8 3c a9 dd 82 3d
       0.17963186 -0.11706659 0.022548681 0.063899346
000020 0b e6 b2 3d 37 01 19 bd ed 64 0e 3e 76 3b 8c bd
       0.087352835 -0.037354674 0.13905688 -0.06847279
000030 d2 44 fd 3d c3 b3 c3 3c 6d 3c 97 3d 41 62 51 3d
       0.12366642 0.023889428 0.07384572 0.051119093
000040 a7 94 8d bd 7b 29 6d be 6c ea 30 bc 27 b8 7b bd
       -0.06913119 -0.23160355 -0.010798078 -0.06145492
000050 b6 78 d9 bd 37 57 b9 bd 49 60 9c bc 43 ea cd 3d
       -0.10618727 -0.09049838 -0.019088881 0.100544475
000060 b9 45 eb 3c 23 7c 29 bd d2 b0 b0 3d 31 0c ed 3c
       0.02871977 -0.04137815 0.08627476 0.028936477
000070 73 4f fa bc 25 91 eb 3c 3e 08 81 ba 04 5c 94 3d
       -0.030555462 0.028755734 -0.0009844375 0.07244113
000080 a5 4a 8a 3d f7 87 99 bd cf 77 0e bd 57 7e 22 be
       0.067525186 -0.07496636 -0.034782227 -0.15868507
000090 85 02 d9 3d 61 e9 c0 bd c7 65 0c bd ea 29 96 3c
       0.10596184 -0.094195135 -0.03427675 0.018330533
0000a0 ea 6c 5a bd 8e 24 29 3d 76 24 24 bd 14 1e 4d 3d
       -0.053326525 0.041294627 -0.040073834 0.050077513
0000b0 32 87 2d bc 6c 09 4c bd 63 4a 9d 3c 99 bb 9b bd
       -0.010591315 -0.049813673 0.01920051 -0.07604141
0000c0 21 7c 57 3c 46 02 c2 bc d4 db ae bd 9d 41 3b be
       0.013152153 -0.023682725 -0.08538023 -0.18286748
0000d0 b2 f4 04 3c 1e 43 2f 3d 16 fc 3f bd 7f 52 ea 3d
       0.0081149805 0.042788617 -0.046871267 0.11441516
0000e0 4d 0c 8d 3d 1e 5c 03 be 78 2c 53 bd 52 e2 7b 3d
       0.06887112 -0.12828109 -0.05155608 0.061495133
0000f0 64 0c be 3d 12 7c 83 bd a7 ab 3c 3d 2b 18 ba 3d
       0.09279707 -0.06420149 0.046062138 0.09086641
000100 93 cf de bb 30 7e 88 3d c8 a1 44 3c c4 6b 52 3d
       -0.006799647 0.06664693 0.012001462 0.051372305
000110 51 a3 b2 bd 23 03 e4 bc 90 c5 e0 bd f2 8a c6 bc
       -0.087225564 -0.027833527 -0.10975182 -0.024236176
000120 88 2f f3 bb 0b de 3f 3d 1b da 03 3d 3d a7 f6 3d
       -0.0074214377 0.046842616 0.032190423 0.12043617
000130 72 91 d6 bd 9d 0d fc bd 8b 9f 43 bd f8 81 4d be
       -0.1047696 -0.12307284 -0.047759574 -0.2006911
000140 5b 7e 66 bd 23 56 88 3d de fd 3d 3d 7f 59 9a bc
       -0.056272846 0.06657054 0.046384685 -0.018841503
000150 70 1f a8 bc bd c0 c1 bd 9c 2b f7 3c 4d af ea bd
       -0.020522803 -0.0946059 0.030172162 -0.11459217
000160 73 02 09 3d b1 38 df 3d 2c c2 88 3d cb c3 41 bd
       0.0334496 0.10899485 0.0667766 -0.047305863
000170 83 9c ed bd 75 b5 16 bc 61 56 14 bd 21 a7 23 bd
       -0.11602118 -0.009198536 -0.03621519 -0.03995431
000180 3f 98 69 3e 52 d5 07 be 9f 91 00 3e 26 c2 0a bd
       0.22811984 -0.13264969 0.1255555 -0.03387656
000190 d3 5d 91 3d b4 f4 fa 3d 34 4b 1d 3e b3 c1 91 3d
       0.07097974 0.12253705 0.15360719 0.07117023
0001a0 0f e9 5c 3d cf 7d ee bc d1 87 13 bd a2 d1 83 3d
       0.0539332 -0.029112725 -0.036018196 0.06436469
0001b0 21 94 12 bc d5 2d 52 3d 33 c3 f5 3d ce 4b d2 bd
       -0.0089464495 0.05131324 0.12000122 -0.10268365
0001c0 25 4c 76 bd 68 ec a3 bc d6 ef e2 3c 51 ee 06 3d
       -0.06013121 -0.020010188 0.027702253 0.03294212
0001d0 39 c7 a4 3c 48 56 2e 3d 7b 7b c2 3c 2a 15 31 be
       0.020114528 0.042562753 0.02374052 -0.1729323
0001e0 5b 91 b7 3d fb 95 31 3d 75 2e b6 bd 54 d9 9a 3c
       0.08963271 0.043355923 -0.0889558 0.018902458
0001f0 df 67 bc 3d dd 2d 64 bd 36 ef 03 bd 9e ca 87 bd
       0.09199499 -0.0557078 -0.03221055 -0.06630443
000200 dc cd b3 3d 4d 80 f9 3d c9 7b eb 3d a4 d5 cf bd
       0.08779499 0.121826746 0.114982195 -0.101481706
000210 c1 fb 33 bc 0f 8b 99 3d 3b 98 ff bc 88 35 b6 bd
       -0.010985316 0.074972264 -0.031200519 -0.08896929
000220 b5 54 fd 3c f0 39 45 bd 33 13 32 3d ae 60 27 3e
       0.03092418 -0.048150957 0.04347534 0.16345474
000230 09 92 87 bd ae 5b 0d 3e 11 a3 ac bc 67 ee ba 3c
       -0.06619651 0.13804504 -0.02107385 0.022818757
000240 91 2d 06 3e 75 30 0b 3e 25 df 48 be 36 83 2a bd
       0.1310332 0.13592704 -0.19616373 -0.04162904
000250 a7 ca f0 3c b2 5b 1c bd fc f0 9f 3d f8 30 ac 3d
       0.029393507 -0.038173385 0.07809636 0.084077775
000260 60 5d 92 3c d2 0d dd 3d 04 42 14 be de 89 bd bd
       0.01786679 0.10793652 -0.14478308 -0.09254812
000270 14 e0 a3 3b f1 0c 2f 3d 3e de e6 3c 09 17 d2 3d
       0.0050010774 0.04273695 0.028182145 0.102583
000280 4a c2 67 3a 06 f4 a7 bc 21 b9 05 3d 44 62 07 3e
       0.0008840902 -0.020502102 0.032647256 0.13221079
000290 86 45 ab bb de 78 a0 3d f9 5e 9d bc d9 43 10 be
       -0.0052267937 0.078355536 -0.019210326 -0.14088382
0002a0 fa 14 ca bd 9a 3c 92 3d 6d ec 36 bd dc 99 75 bd
       -0.09867282 0.07140465 -0.044659067 -0.059961185
0002b0 ec cc aa 3d b7 02 92 bc 51 b5 eb 3c 18 97 3b bc
       0.08339867 -0.01782356 0.028772982 -0.011449598
0002c0 77 71 76 bc cb 75 ea 3c 13 a2 0f be 8f 8c d9 bd
       -0.015041701 0.028620621 -0.1402667 -0.106225125
0002d0 c9 3f 0d bd 88 0a 0c be b6 90 bd 3d 5b 3d b2 3b
       -0.03448466 -0.13675892 0.09256117 0.005439443
0002e0 3f df 22 be db 23 c6 bc bc 38 1e be 3c 97 a4 bc
       -0.15905474 -0.02418702 -0.1545133 -0.020091645
0002f0 ec b6 e4 3d 8c 7e b7 bc bf 53 0a be 98 20 c8 bc
       0.11167702 -0.02239921 -0.13508509 -0.024429604
000300 5a 15 ec 39 67 37 59 3d 91 19 fb bd 94 c7 dd bd
       0.00045029336 0.05303135 -0.12260736 -0.10829082
000310 2f 82 e4 3c 63 f5 7e bd b0 d7 f4 bc 4f 63 2d bd
       0.027894108 -0.062245738 -0.029888004 -0.042331036
000320 ee 3c 7d 3c 39 71 37 3e 3e 34 f1 bc 00 ca 9d bd
       0.015456421 0.17914285 -0.029443856 -0.07704544
000330 31 a8 a4 3c 9e 1f ea bb f7 a3 23 3d a7 8f 43 3e
       0.020099731 -0.0071448823 0.03995129 0.19097768
000340 11 7e 3e 3d 54 42 85 bd 05 30 e5 bc f6 26 d8 bd
       0.046506945 -0.06506792 -0.027976999 -0.10554306
000350 15 53 cd 3c 43 32 a8 3d fa f7 00 bd 42 10 00 be
       0.02506403 0.08212712 -0.03148649 -0.12506202
000360 77 72 08 be ba 25 70 3d 0e c5 d4 bc e9 ff 03 bd
       -0.13324915 0.05862973 -0.02597287 -0.032226477
000370 5e 9e 96 3c 01 ff b0 bd a0 a7 9e 3d 50 dd 2c be
       0.018386062 -0.08642388 0.07746816 -0.16881299
000380 ab 47 b8 bd 83 47 e4 3d fa a9 aa 3c e9 a4 0a 3c
       -0.089980446 0.11146452 0.020833004 0.008462169
000390 c3 55 8a bc d1 9e f0 3d ea 55 f4 bd 69 52 22 3e
       -0.016886597 0.11749042 -0.11930449 0.1585175
0003a0 f8 48 9e 3c 57 be b6 3d 43 ae c5 bd e3 4b 88 bd
       0.019321904 0.08923023 -0.096523784 -0.06655099
0003b0 d7 55 da bc 2c 99 da bb 1e 1b c5 bd 13 e7 83 3c
       -0.02665226 -0.0066710915 -0.09624313 0.016101396
0003c0 87 c4 39 bc 08 09 ca bd 46 e3 c1 bc 16 d4 7d 3d
       -0.01133836 -0.09865004 -0.023667943 0.06196984
0003d0 c1 cb 01 ba ee 3e d4 bc 54 3b b6 3d 41 1c 02 be
       -0.0004951321 -0.025908913 0.08898035 -0.1270609
0003e0 84 3c 67 3e 55 61 00 3d 2b 98 0b bd e0 a8 f4 3c
       0.22581679 0.031342823 -0.034080666 0.029865682
0003f0 92 a5 bf 3d 42 9b fb bc 04 1d 61 3c 6b 3f a0 bd
       0.09357752 -0.030713681 0.013739828 -0.07824596

bias f4 [128]
000000 8c 9c 00 b8 09 f9 c8 b8 cd 85 91 37 2e 88 1b 39
       -3.0663374e-05 -9.5831296e-05 1.7347653e-05 0.00014832683
000010 a0 0c d0 38 02 75 cf 38 3c 4b 9d 39 c6 1e d8 38
       9.9205645e-05 9.8923236e-05 0.00030001428 0.000103054146
000020 1c 34 87 39 5a 09 8a b9 f5 15 54 39 7d e3 1e 39
       0.0002578803 -0.0002632838 0.00020226075 0.000151528
000030 6f 28 a9 38 97 a9 9b b9 2f f0 22 39 92 94 12 39
       8.066079e-05 -0.00029690258 0.00015539 0.00013978992
000040 aa 4b 34 b8 8e c5 92 b8 e8 e6 ea b8 3e 35 34 b9
       -4.2985812e-05 -6.99862e-05 -0.00011200999 -0.00017185972
000050 83 2e dc b8 00 30 2b b9 fd 0d 50 38 17 db 40 38
       -0.00010499081 -0.00016325712 4.9604092e-05 4.598041e-05
000060 b4 ed 2d 39 89 7f 80 39 93 d2 04 b9 75 c6 5b b8
       0.00016587117 0.00024509084 -0.00012666946 -5.2398496e-05
000070 22 8c 25 b9 b8 a3 ca b7 65 c3 d2 38 45 2a 27 b9
       -0.0001578783 -2.4156514e-05 0.000100499754 -0.00015942108
000080 34 e4 0e b9 ff 26 02 b7 63 17 3a 39 c3 88 16 39
       -0.00013627188 -7.757683e-06 0.00017747055 0.00014356062
000090 26 5d 74 b9 9b 04 64 39 ca 6b 33 b9 8b 5b 26 b9
       -0.00023304354 0.0002174549 -0.00017110925 -0.00015865096
0000a0 1b 7d 86 b9 a7 57 92 38 29 5a 3b b9 1a 9d 7e 39
       -0.00025651683 6.978149e-05 -0.00017867297 0.00024281853
0000b0 67 c0 5e 39 93 36 86 b9 50 e6 05 39 c2 74 40 b9
       0.00021243245 -0.00025599133 0.00012769667 -0.00018354043
0000c0 14 8c 5f b9 52 9e 89 b9 50 71 60 b9 98 04 1e b9
       -0.0002131912 -0.00026248634 -0.00021404517 -0.00015069766
0000d0 2e 16 d2 38 ed 39 0d b8 2c f8 46 b9 4a d1 6d b9
       0.000100177116 -3.3670967e-05 -0.00018975203 -0.00022680048
0000e0 ff aa 30 b9 0b 41 72 39 61 e1 8f 39 ab 0b 7c 39
       -0.00016848369 0.00023103149 0.00027443006 0.0002403694
0000f0 b8 c8 1b 39 9e a0 4f b8 ef 73 6f b9 c4 71 e4 b8
       0.00014856725 -4.9502232e-05 -0.00022836005 -0.00010893078
000100 d0 cb 9d 38 47 b8 61 b9 38 f6 cd 37 27 18 80 b9
       7.5243064e-05 -0.00021526321 2.4552559e-05 -0.00024432057
000110 97 3b 76 b7 1c b1 4c b9 57 1d 89 b7 ac cb 29 39
       -1.4676617e-05 -0.00019520934 -1.6345335e-05 0.0001619297
000120 d8 ee d5 b7 10 16 5c 39 0e e2 96 38 56 d5 4f b9
       -2.5502799e-05 0.00020989054 7.194663e-05 -0.00019820532
000130 63 2c 98 b8 b7 a2 fb 38 e0 71 bb 38 20 e0 0c 38
       -7.2561925e-05 0.00011998921 8.938066e-05 3.3587334e-05
000140 56 8e e3 37 c5 d3 7e b9 c0 07 3b b8 ce 17 58 b9
       2.7126789e-05 -0.00024302218 -4.4591492e-05 -0.00020608233
000150 64 ff 03 b8 78 9a c4 38 77 09 66 b8 3a d9 43 b9
       -3.1470685e-05 9.37478e-05 -5.4845088e-05 -0.00018677572
000160 3e 2b 82 39 20 64 ee b8 fc c3 9b 39 0f f3 b4 38
       0.0002482775 -0.00011367374 0.00029709924 8.628342e-05
000170 15 45 45 37 c5 99 d4 b8 e1 24 82 b9 40 01 8a 38
       1.1758199e-05 -0.000101375896 -0.0002482301 6.5805856e-05
000180 87 59 59 b9 fe dd b9 38 07 c1 ea b8 16 aa 1d b9
       -0.00020728084 8.862837e-05 -0.00011193944 -0.00015036049
000190 3b 51 60 39 f6 3a 0b b9 4d 07 ba 38 9b e3 0b 39
       0.00021392565 -0.00013278038 8.870531e-05 0.00013340863
0001a0 0e 0c c8 38 03 ca 89 39 85 ac fa b7 61 8b 8a 38
       9.5389885e-05 0.00026281187 -2.9882658e-05 6.606314e-05
0001b0 b2 7d 8b b8 de 56 8d b8 e9 81 81 39 56 e5 c3 38
       -6.651449e-05 -6.739584e-05 0.00024701588 9.341042e-05
0001c0 af 6f 3a 39 90 aa 13 b9 fa 1d 9d 37 a5 25 08 b9
       0.00017779948 -0.00014082552 1.8729817e-05 -0.00012983994
0001d0 ab 02 51 39 f1 6e cc 37 98 ef 9f b8 99 35 9e b8
       0.00019932787 2.4370356e-05 -7.6263386e-05 -7.5440104e-05
0001e0 35 03 33 39 31 f7 4a 38 9b 2a 68 39 9c e6 18 39
       0.00017071965 4.8390768e-05 0.00022141116 0.00014581758
0001f0 57 5e 65 b9 28 37 64 b9 31 fb 81 39 f3 72 9e 38
       -0.00021874286 -0.00021764322 0.0002479195 7.555438e-05

weight f4 [128, 4]
000000 8b a9 0d 3d 9f 1d ff 3d 93 f7 d0 3d 5c 40 85 be
       0.034585517 0.12456822 0.10203471 -0.26025665
000010 60 11 d8 3d 62 7e a0 3a f7 20 cf bd 90 03 32 be
       0.10550189 0.0012244696 -0.101137094 -0.17384171
000020 1d 5b 74 3c b1 51 93 bd 48 50 c2 bd 8a db 64 3c
       0.014914301 -0.07193316 -0.09487969 0.013968358
000030 8f c2 c7 3c 91 e2 a2 bc 7c b0 a8 3c 81 dc c0 bb
       0.024384765 -0.019883426 0.020591967 -0.005885661
000040 53 97 33 be 18 7e 83 bb 2c d2 8d 3d f3 76 fb bc
       -0.17538194 -0.0040128343 0.06924853 -0.030696368
000050 3e 63 6d bd c2 f4 0c 3a d2 24 ee 3c b4 b5 65 bc
       -0.057955973 0.0005377048 0.029070292 -0.014020372
000060 ef 10 f8 3d e2 b1 10 3d 8b 04 8e 3d 33 cc cb 3d
       0.12112605 0.035325892 0.0693446 0.09951057
000070 2e 97 96 bb 57 7d c4 3c 25 16 aa 3d 45 28 1c 3e
       -0.0045956587 0.023985548 0.08305005 0.15249737
000080 46 54 74 bd e8 3f 17 3e 61 b6 51 3d a5 b3 56 be
       -0.059650682 0.14770472 0.05119932 -0.20966966
000090 e8 03 3e bd 73 e6 08 3e ae b8 d1 bc 79 2d 43 3c
       -0.046390444 0.1336916 -0.025600757 0.011912697
0000a0 0e 25 de 3d 57 dd 9a bd 75 9f b9 3d 8d 4e a1 bc
       0.10846911 -0.075617485 0.09063617 -0.019690776
0000b0 99 56 16 be 81 b1 87 3d 6c ab c2 bc f3 f1 83 bc
       -0.14681472 0.06625653 -0.023763381 -0.016106581
0000c0 a4 ab 8b bd 01 84 99 3d db 2b 95 bc b4 fc 7b bc
       -0.06819847 0.07495881 -0.018209388 -0.015380073
0000d0 56 af 8c 3d 0f 23 f2 bb 5a 74 45 be a0 6c d0 3b
       0.0686938 -0.007389433 -0.19282666 0.0063606054
0000e0 7a 02 ea bd e3 3d 3e 3c af c0 89 3d 83 f2 04 3e
       -0.114262536 0.011611435 0.067262046 0.12983136
0000f0 ca 22 95 3d 8b 36 26 3e 63 75 85 3c de 2d 21 bd
       0.07282026 0.16231744 0.016291326 -0.039350383
000100 f0 3d d6 bd 23 9b c6 bc d4 6a 1c be e1 63 10 3c
       -0.104610324 -0.024243897 -0.15275127 0.0088128755
000110 53 d3 ef 3c 0d 3d 2f be 6f 94 da 3d ac 12 9b 3a
       0.029275572 -0.17113133 0.10672843 0.0011831126
000120 e7 95 03 3e e1 34 b0 be 61 10 d5 3d 76 c1 d4 bd
       0.12850152 -0.34415343 0.10403515 -0.10388462
000130 9c 2a 50 3d 7e 6d 90 3d 5f 05 8b bd 39 02 c1 3c
       0.050821885 0.07052134 -0.06788134 0.02356063
000140 89 c7 05 3e 37 7c 14 bb a9 e1 08 bc 4e 81 2e bb
       0.13064398 -0.0022657046 -0.008354583 -0.0026627365
000150 dd 0f 11 be 0c 53 5c bd b7 df 37 be 61 06 11 3d
       -0.14166208 -0.053790137 -0.17956434 0.035406474
000160 17 6d 98 3d 9e 92 ab bd 00 e6 86 bd 23 9a 61 3d
       0.07442682 -0.083775744 -0.06586838 0.055078637
000170 07 77 1d bd 5a 9d 18 bc a3 00 0b 3d 2f 3d 1e be
       -0.03844359 -0.009314859 0.033936154 -0.15453027
000180 a1 ec 83 bd 71 8f cf bb 42 e5 52 be 33 f0 bc 3d
       -0.06441618 -0.006334238 -0.20595267 0.09225502
000190 98 49 a9 3d 13 32 ff bc f3 65 6a be 26 bd af bb
       0.0826599 -0.031151807 -0.22890453 -0.0053631244
0001a0 2e d2 1c 3e 24 2d aa 3c 26 a2 38 3d 7e af 4f 3c
       0.15314552 0.020773478 0.04507651 0.012676118
0001b0 6e c6 aa 3d 3c 4a 72 3d d6 c1 1d 3e c6 e0 a3 bd
       0.08338629 0.059152827 0.15405974 -0.080018565
0001c0 31 d2 12 be 85 f2 da bd 7c 5a 80 bd ac c9 c9 bd
       -0.14337994 -0.10690788 -0.062672585 -0.09852919
0001d0 0d e5 1c 3e 1a d7 d5 3c b8 a0 34 bd 55 03 a1 3b
       0.15321751 0.026103545 -0.044098586 0.0049137273
0001e0 99 8e 8c 3c 0c 84 51 bc 66 ed df bc 0b 4c 34 bd
       0.01715784 -0.01278783 -0.02733488 -0.044017833
0001f0 ab f4 1a 3e 28 4b b9 bd f0 a5 b9 bd b5 17 01 3e
       0.15132396 -0.09047538 -0.09064853 0.126067
000200 fa eb 23 3d a1 cd 16 3e 9c a2 b0 3d 3b 22 7e 3d
       0.040019967 0.14726879 0.08624765 0.062044363
000210 1a 38 70 3d e0 ee 48 3d 47 e1 c8 bd 62 1e 08 3d
       0.058647253 0.049055934 -0.09808593 0.0332321
000220 91 b4 3c bc 0d 3b 82 bd 8c 41 a4 3d c5 0f 0a 3e
       -0.01151766 -0.06358919 0.080203146 0.13482578
000230 e9 01 b9 bd 5b 45 2b bd fc a6 75 bc ec 55 63 3c
       -0.090335675 -0.04181419 -0.014993425 0.013875466
000240 c9 09 04 be 6c ab c6 3c 0b 0b 44 be 57 d8 1b bc
       -0.12894358 0.024251662 -0.19144838 -0.009512029
000250 ac 79 3a bd 5d 7a e8 3d b7 5f 57 be be 7d d7 bd
       -0.04552619 0.11351464 -0.21032606 -0.1052203
000260 bd 51 95 3d 0a cc 99 bd 1e 36 11 3c 45 a1 23 3e
       0.07290981 -0.075096205 0.008863 0.15979488
000270 6a 34 5e bc 99 18 12 bc c6 d5 1d bd 31 1d 11 be
       -0.013562301 -0.008916997 -0.03853395 -0.14171292
000280 cb 96 94 3d c1 3f 2d 3e de 4b bc bd 1e 69 d4 bd
       0.07255324 0.16918851 -0.09194158 -0.10371612
000290 f0 9e 9a 3d 8b eb cb bd 43 23 b8 bc 4c 24 8e 3d
       0.07549846 -0.09957036 -0.022477752 0.06940517
0002a0 e8 81 a4 bd e1 17 ec bd 03 75 44 bc a8 8b a4 3d
       -0.0803259 -0.11527992 -0.011990788 0.0803445
0002b0 9a c3 e0 bd 9a 8d 55 3d fc c0 35 3e a2 75 11 be
       -0.10974808 0.052136995 0.17749399 -0.1420503
0002c0 22 cb 20 bd ac e5 09 be a2 97 a1 3d 70 f5 a6 bd
       -0.039256223 -0.13466519 0.0789025 -0.08152282
0002d0 ec 86 32 bd 9e 29 eb bd b6 35 34 3d bb 78 95 3d
       -0.043585703 -0.11482547 0.043996535 0.07298418
0002e0 a1 c5 20 be b8 2d eb 3d 1c 1d c6 bb 78 65 61 bd
       -0.1570039 0.114833295 -0.0060459506 -0.05502841
0002f0 78 cc e7 3d 0a e6 48 bd 52 df 2c bd 9a 4f 72 3e
       0.11318296 -0.049047507 -0.042205162 0.23663178
000300 a9 85 96 bd 26 45 b7 bc b9 52 9f bd fd 82 25 3d
       -0.073497124 -0.02237184 -0.0777945 0.040408123
000310 9b 64 0b 3d f4 c0 e0 3c 3b 2e 5a 3c 90 c5 8f 3d
       0.03403149 0.027435757 0.013316686 0.07020104
000320 07 54 f0 3d ff 17 fc ba 03 b3 76 bd 82 b6 ff 3a
       0.11734777 -0.0019233226 -0.060229313 0.0019509348
000330 19 a9 ca bc 95 b2 cb 3b 1d 63 bd bb 1e 4d 91 bd
       -0.024738835 0.006216357 -0.0057796375 -0.07094787
000340 2b ed 00 be 6a db 67 3d 5b 54 52 3d eb 8c 18 bd
       -0.12590472 0.056605734 0.05134998 -0.037243765
000350 80 57 07 3e 1b ce 04 be 12 4f 2d 3c 7d e4 c3 bb
       0.13216972 -0.12969248 0.010577934 -0.0059781657
000360 ca d3 c7 bc 4f 96 de 3d d1 d4 ae 3d d5 14 8d 3d
       -0.024392981 0.10868513 0.08536685 0.06888739
000370 f9 ac 6a 3c e8 bf e9 3c 41 75 ea bd 59 08 92 bd
       0.014323466 0.02853389 -0.11448146 -0.071304984
000380 04 d9 3e 3e 0b f6 ff 3d 1e cd 11 bd d9 c6 f7 3b
       0.18637472 0.12498101 -0.035596006 0.0075615463
000390 96 2d e5 bd c9 34 d7 bd 92 67 df 3c da 13 e8 3c
       -0.111903355 -0.10508115 0.027271066 0.028329778
0003a0 25 ea 97 3d 7f 3d 10 be 64 80 7b 3c 33 d4 af bd
       0.074177064 -0.14085959 0.015350435 -0.08585396
0003b0 31 cf 45 bc f3 e7 ec 3d 08 82 33 bd 0b 57 fb bc
       -0.012073324 0.11567678 -0.04382518 -0.030681154
0003c0 ae 3e 4f 3d 85 2e 45 be e2 19 fc bd b5 aa a5 bd
       0.050596885 -0.19256027 -0.12309624 -0.080892004
0003d0 c8 6f fd bc cf e4 2d bd 6c eb e5 bd 8f a3 a1 bc
       -0.03093709 -0.042454537 -0.11226544 -0.019731311
0003e0 d9 bd 2a 3e 07 50 07 3e e2 c0 bf bd 9d 5b cf bd
       0.16673984 0.13214122 -0.09362961 -0.10124896
0003f0 c9 23 84 3d c4 6c 1d 3e 39 94 95 3d 95 80 83 bd
       0.06452138 0.15373522 0.07303662 -0.064210095

bias f4 [128]
000000 c3 87 34 b9 92 77 0f b9 f5 ab 84 39 07 98 42 39
       -0.00017216713 -0.00013682086 0.0002530512 0.00018557916
000010 ff 21 76 b9 64 5c 1d b9 59 55 75 b9 69 2a 7a b9
       -0.00023473053 -0.00015007105 -0.00023396815 -0.00023857657
000020 33 d6 9a b8 2f df e1 b8 6d 56 50 b9 5e 7e 15 38
       -7.38319e-05 -0.00010770407 -0.00019868622 3.5642057e-05
000030 b9 9d 83 b9 5f 5b 38 39 dc a6 31 b9 8b a6 8d b9
       -0.0002510378 0.00017581646 -0.00016942195 -0.000270177
000040 85 e9 d2 37 ab ab 29 39 fb 66 7a b9 8f 17 8c b9
       2.5142692e-05 0.00016181047 -0.00023880221 -0.00026720433
000050 2c 03 16 b8 3c b0 4b b9 13 4c 9c 39 b2 cb cf 38
       -3.576574e-05 -0.00019425241 0.00029811318 9.9084704e-05
000060 59 99 99 38 50 2e 64 39 45 4c 4a 38 e6 ed 7b b9
       7.324172e-05 0.00021761027 4.8231585e-05 -0.0002402585
000070 c0 02 72 39 8e 53 8f b9 5d ec 97 b9 c2 99 73 b6
       0.00023079943 -0.00027337339 -0.0002897707 -3.629932e-06
000080 02 b1 cf b8 6b 57 53 b9 d9 e3 cd 36 c3 10 3d b9
       -9.9034994e-05 -0.00020155094 6.136001e-06 -0.00018030689
000090 de ac 77 b8 62 e9 8f b9 82 6f 98 b9 71 d4 96 b9
       -5.9050384e-05 -0.0002744897 -0.0002907478 -0.0002876851
0000a0 8f 2b 11 b9 be d2 0f 39 81 83 1c b9 71 fa 36 39
       -0.00013844504 0.0001371605 -0.00014926308 0.00017450169
0000b0 7e e8 8c b9 41 0a f8 b8 57 a6 1c 39 62 9b 09 b9
       -0.000268761 -0.000118274715 0.00014939286 -0.00013123223
0000c0 1a a8 19 b9 0f 25 86 39 6c be fa b8 97 df 19 b9
       -0.0001465384 0.00025586082 -0.00011956398 -0.00014674511
0000d0 b7 26 43 39 b9 5c bb 38 e7 c2 fe b8 ea 71 c4 38
       0.00018611072 8.934126e-05 -0.00012147967 9.3672264e-05
0000e0 c5 9c 42 b9 51 c4 37 b9 b6 39 62 39 17 37 4e 39
       -0.00018559683 -0.00017525374 0.00021574539 0.00019666213
0000f0 85 a4 ee b8 fb 57 53 39 a0 4c a5 39 a3 ff 62 39
       -0.000113793685 0.00020155303 0.00031528343 0.00021648272
000100 43 1e 84 b9 70 6f 87 b9 47 25 18 b9 de 7d bf b8
       -0.0002519955 -0.00025832234 -0.00014509737 -9.131034e-05
000110 74 71 d8 38 a1 77 f5 37 3a 25 7c b9 44 7b 99 b9
       0.00010320815 2.9261982e-05 -0.00024046461 -0.00029274274
000120 65 a3 06 39 62 29 27 b9 fb c4 16 b9 ec eb 0d 39
       0.00012840105 -0.00015941777 -0.00014378496 0.00013534696
000130 4a cd 53 b9 69 31 4e b9 61 6e 0e 39 7e 31 85 b9
       -0.00020199004 -0.00019664098 0.00013583295 -0.0002540461
000140 a0 d2 95 b9 16 08 1d b8 5c 3f 2e 36 14 5b 32 b9
       -0.00028576422 -3.7439248e-05 2.59649e-06 -0.00017009332
000150 61 a5 43 b9 e1 8b 25 b9 43 c5 fe b8 7e 63 a2 37
       -0.00018658258 -0.00015787735 -0.00012148407 1.9358235e-05
000160 06 7c 55 b9 39 7f a0 37 d5 16 5e 39 5f 72 8d b7
       -0.00020359465 1.9132729e-05 0.00021180075 -1.6861768e-05
000170 4a 23 9f b9 69 85 f2 38 76 85 08 b9 50 40 3a b9
       -0.00030353136 0.00011564309 -0.00013019689 -0.000177623
000180 f5 93 97 b8 b3 5d 04 39 f0 f5 62 39 56 54 e9 37
       -7.2278e-05 0.00012623407 0.00021644658 2.7815036e-05
000190 7f 27 0b 39 9a 2d 54 b9 30 f6 d3 b8 65 1c 12 39
       0.00013270786 -0.00020234883 -0.0001010712 0.00013934223
0001a0 18 b4 b7 b8 ef 23 aa b8 cb 3f 15 39 da e8 02 b8
       -8.759665e-05 -8.112925e-05 0.00014233512 -3.1211275e-05
0001b0 f2 e0 6d 39 b4 41 7f 39 eb b7 26 38 76 57 91 b9
       0.0002268588 0.00024343171 3.974877e-05 -0.0002772172
0001c0 b5 16 c2 b8 77 ca fe 38 b0 49 8d 38 8a 03 89 37
       -9.2548704e-05 0.00012149376 6.737129e-05 1.633332e-05
0001d0 01 40 9b 39 48 15 66 39 d7 3c 19 39 ad c8 e3 38
       0.0002961159 0.00021942437 0.00014613882 0.00010861582
0001e0 17 48 b0 38 ad 70 49 39 d0 64 ab b8 33 d0 68 39
       8.405762e-05 0.00019210829 -8.172693e-05 0.00022202804
0001f0 e8 69 a0 b8 42 fb a6 39 09 6d 65 39 d7 56 53 38
       -7.649121e-05 0.0003184919 0.0002187976 5.0387196e-05

weight f4 [128, 4]
000000 f7 10 c5 bd fb 0d 08 3e 53 c9 a2 3d 10 fa 98 3a
       -0.096223764 0.13286583 0.07948556 0.0011671204
000010 21 66 aa 3c 5c 56 33 be fc 2d be bb 04 6c 66 be
       0.020800652 -0.17513412 -0.0058038216 -0.22502142
000020 a4 81 79 bd 66 fe 4f bd 63 04 a2 3e e5 2d 81 3d
       -0.06091465 -0.050779723 0.31643972 0.06307582
000030 95 73 0a 3e 2e 26 77 3c d0 ad 92 bd f0 2a 88 bd
       0.13520654 0.015084786 -0.07162058 -0.06648815
000040 b6 77 d8 3d 2f 04 5a bc d7 f6 1e bd 47 2f 93 3d
       0.10569708 -0.0133066615 -0.038809624 0.07186752
000050 2e f6 a8 bb 4e 4b 1b 3b d6 c6 62 3e 09 92 03 3c
       -0.0051563 0.0023696008 0.22146162 0.008030423
000060 32 0a 76 3d 01 5e 0c 3e 9e c8 e8 3d 11 0d 4b 3d
       0.060068317 0.13707735 0.1136639 0.049573008
000070 53 77 83 bd 8a e8 f7 3c 1f f3 56 3d 87 fa 8c 3d
       -0.06419244 0.03026225 0.052477952 0.06883722
000080 05 29 8e bd 9c 37 46 3d d2 48 4e bb e7 50 a2 3d
       -0.069414176 0.048392877 -0.003147651 0.07925587
000090 53 c7 96 bd 3c 88 d0 3d 55 9a 1f 3e ef f6 40 be
       -0.07362237 0.10182235 0.15586217 -0.18844198
0000a0 47 1d d8 bd c5 ec 9b bd 47 05 85 3d d4 e5 ff 3d
       -0.10552459 -0.076135196 0.06495147 0.12495008
0000b0 c4 eb e5 3d cd b8 e8 bd ab 55 09 3e c3 eb ad bc
       0.11226609 -0.11363373 0.13411586 -0.021230584
0000c0 3b f5 74 3d 48 83 bd 3d 9f 04 8f bd c0 5a c0 bc
       0.059804182 0.092535555 -0.06983303 -0.023480773
0000d0 0e 98 ba bc 5d c7 f4 3c 9c 28 07 3e 28 b5 66 bd
       -0.022777583 0.02988022 0.13199085 -0.056325108
0000e0 b8 fe 9d 3c d3 a3 e9 bc a2 7c ec 3c da 7b 13 3e
       0.019286498 -0.0285205 0.028868023 0.14402714
0000f0 a4 ed 06 3e cd c6 1d 3e 54 9d 44 bb 6d 04 1d bd
       0.1317659 0.15407868 -0.0030001001 -0.0383343
000100 a8 66 85 3d 90 ae 23 be d7 69 14 3d e5 f2 c5 bd
       0.06513721 -0.15984559 0.03623375 -0.09665469
000110 fc 8b f2 bd 00 61 11 3e 0d 0c 2b 3d 78 c3 79 bc
       -0.11843106 0.14197159 0.04175954 -0.015244357
000120 b0 30 65 3e 26 71 52 3c 94 8c b1 3d df 50 8c 3c
       0.22381854 0.0128443595 0.08669391 0.017128406
000130 c4 26 d0 3c e6 71 28 3e 95 85 12 3e d6 45 ae bc
       0.02540911 0.16449699 0.1430877 -0.021273535
000140 d4 6e 24 3b 74 fb 71 3d 62 a1 8b bc 66 70 8b bd
       0.0025090473 0.059077695 -0.017044727 -0.06808548
000150 bb 72 09 be 58 2e c2 bd 8f 00 b3 3d 62 2c 16 be
       -0.13422672 -0.094814956 0.08740341 -0.14665368
000160 8b 7b 3c 3c 5d 34 12 ba 05 c6 8d bc 89 2f ab 3d
       0.011504064 -0.0005577261 -0.017306337 0.08358676
000170 57 ae c4 bc 8a c3 40 be 5b 67 bf 3b e6 ab 43 bc
       -0.024008913 -0.18824592 0.0058411784 -0.011942839
000180 72 d6 b8 bc ab 6f 38 bd 7e 5c 1f 3d 1d c2 e8 bd
       -0.022563193 -0.04502837 0.038906567 -0.11365149
000190 1c cd 45 be 25 ce 00 be a9 7c 54 bc 5a 2a 9c 3d
       -0.19316524 -0.12578638 -0.012969174 0.076252654
0001a0 97 bb f0 3c ac a7 a5 3c 09 28 97 bd eb 05 8d bc
       0.029386325 0.020221554 -0.07380683 -0.017214736
0001b0 86 e2 5d bb ed fc 9f bd bd 66 1e 3d 8c 39 c9 3a
       -0.0033856942 -0.07811914 0.038672198 0.0015352233
0001c0 7a bf a2 bd 66 dc 1b 3c 9b af 05 3e e5 c3 10 3c
       -0.079466775 0.009512996 0.1305527 0.008835767
0001d0 e0 db 4f bc 96 1f 01 bd 11 80 81 bd 41 08 1d 3e
       -0.0126867 -0.031524263 -0.06323255 0.1533518
0001e0 ba 48 a1 3c f4 57 fd bd 0f 4e 75 bd 63 61 23 bd
       0.019687999 -0.12370291 -0.059888896 -0.039887797
0001f0 f4 27 09 3e 36 22 d0 3d 75 ed a7 3d b6 db ac 3d
       0.13394147 0.10162775 0.08199588 0.08440344
000200 08 17 9c 3d bc d7 b8 bc 1b d0 a5 3c ac 9c 01 3c
       0.0762158 -0.022563808 0.020240834 0.007910889
000210 44 87 81 bd 0a 9a 05 3e 42 96 e7 bd 99 7a 26 bc
       -0.06324628 0.13047042 -0.11307956 -0.0101610655
000220 7d f4 d0 bd 95 6d e0 bb 3c 9d 04 be ed 5b 7a bd
       -0.102028824 -0.0068490007 -0.12950605 -0.061122824
000230 ff c4 9e 3d 39 1f 3d bd 7e 0c 1d be 30 79 80 3d
       0.07752418 -0.046172354 -0.15336797 0.06273115
000240 21 98 11 bb da b0 17 bc a8 17 95 bd e0 f5 8b bd
       -0.002221592 -0.009258473 -0.07279903 -0.06834006
000250 c0 b2 08 3e c7 e3 45 bd 60 9e 32 be 5f 74 b4 bd
       0.13349438 -0.04831293 -0.17443228 -0.088112585
000260 47 a8 8b bd 24 ed c3 3d 2e d7 35 3d 54 8e 3f 3d
       -0.06819206 0.09566715 0.044394664 0.046766594
000270 28 45 fb bd 1b 6c e1 bd 60 e9 98 3d 0a 04 13 be
       -0.1226905 -0.110069476 0.07466388 -0.1435701
000280 bd 3b 2e 3c 80 f9 5e 3e 93 e4 eb 3d d5 b6 da 3d
       0.01063436 0.21774864 0.115182064 0.10679404
000290 bd e6 17 3d 96 e6 f4 3d 67 40 ec bd 6d bd 82 bd
       0.037085284 0.11958043 -0.11535721 -0.06383786
0002a0 32 c1 d0 bd 90 de eb bd f4 bf dd bc 45 b7 e0 bd
       -0.10193099 -0.1151706 -0.02706907 -0.10972456
0002b0 b8 21 94 3d 4a 89 6d bd 2c 59 1f 3e 56 a3 34 bd
       0.07232994 -0.057992257 0.1556136 -0.04410108
0002c0 8d 46 d8 bb aa 6e bc 3d 6f ca f6 bd 7b e5 75 3d
       -0.006600207 0.09200795 -0.1205033 0.060033303
0002d0 dd ad f3 bd 60 52 b9 bd 08 10 0d bc 87 c1 2e 3d
       -0.11898396 -0.09048915 -0.008609779 0.04266503
0002e0 00 6b 0a 3e d1 28 4c 3c f1 58 4a 3d d3 f1 43 3d
       0.1351738 0.012460903 0.049401227 0.047838043
0002f0 a9 83 3c 3e b0 d6 00 3c 99 c5 ff bd 9d f9 ba 3b
       0.184096 0.0078636855 -0.12488861 0.0057060258
000300 c8 35 7e bd 24 bc 9d bd 8f 70 cf bd 60 f9 d8 3d
       -0.06206301 -0.077019006 -0.10128891 0.105944395
000310 1a bd 7f bd bf cc 0d bd fe 73 7a bd 04 7a a9 3d
       -0.0624362 -0.03461909 -0.061145775 0.08275226
000320 bb 74 85 bd 14 af 8e bd e1 f9 c9 3b 1c fa 01 3e
       -0.06516405 -0.06966987 0.006163821 0.12693065
000330 a7 e8 1a bd 7f 4e 2a bd 42 14 d8 bd 86 43 a7 bd
       -0.03781953 -0.041578766 -0.10550739 -0.08167176
000340 fd 0b 0a 3d f5 4d 69 3a cd a3 c2 ba cf cc 1c 3d
       0.03370284 0.0008899861 -0.0014849842 0.03828126
000350 f6 2e 2d bd 39 a6 94 3d 1a 36 15 bc 72 f0 5b 3d
       -0.042281114 0.07258267 -0.009107137 0.053696103
000360 ba 46 87 bc c4 0d 98 3c 70 bf b0 bd 43 f9 13 be
       -0.016513217 0.018561251 -0.08630264 -0.14450555
000370 e8 d4 2d be 78 a3 a3 bd ac 6d d3 3c 90 ef b9 3d
       -0.16975749 -0.079901636 0.025809132 0.09078896
000380 e5 22 13 bd b5 32 3f bd f9 cc 51 bd fe 31 d8 bd
       -0.03592195 -0.046679217 -0.051220868 -0.1055641
000390 d6 c4 e8 bb 83 2d 81 bd 58 68 a2 3d c4 86 5b be
       -0.007103543 -0.06307509 0.07930058 -0.21438128
0003a0 30 6d 07 be 71 25 b0 3c 0a b4 d4 bc 01 03 34 ba
       -0.13225245 0.021502228 -0.025964756 -0.00068669027
0003b0 91 6d 5a 3d 8e 3c e3 bc fd a1 ba bd 3b 80 fe 3d
       0.053327147 -0.027738836 -0.09112928 0.12426802
0003c0 11 b4 78 bd c4 11 dc 3d 0f 34 2d be f4 f9 29 bd
       -0.0607186 0.10745576 -0.1691439 -0.04149814
0003d0 c3 57 60 3e 32 fd b2 3d 0e 4a a5 3d 9e 5e 7f 3d
       0.21908478 0.087396994 0.080707654 0.062346093
0003e0 10 1a 06 3d be ca 46 3b 48 dc da 3b e4 21 c1 3c
       0.0327397 0.0030333246 0.0066790916 0.02357573
0003f0 c7 af f8 bb cd 73 a9 bc 9d ff 06 bd 32 59 ba bc
       -0.0075893137 -0.0206851 -0.032958616 -0.02274761

bias f4 [128]
000000 4e 8f b1 36 eb 2e 52 b9 92 67 f6 38 31 e0 8f 39
       5.291694e-06 -0.00020044639 0.000117494856 0.0002744212
000010 14 73 63 39 dd 7f e2 37 04 05 74 38 ee ee c2 b7
       0.00021691277 2.700084e-05 5.8178804e-05 -2.3237862e-05
000020 0d ba 82 37 30 46 81 38 59 78 5a b8 a3 d0 7b b9
       1.5583844e-05 6.164273e-05 -5.2087333e-05 -0.00024014949
000030 ed d9 77 39 38 33 44 34 97 89 d8 b8 ba fc 86 b9
       0.0002363694 1.8272556e-07 -0.00010325311 -0.00025746768
000040 01 82 7f b9 a1 7f 9a b7 2b 8e 86 b9 77 1c 0d b9
       -0.00024367125 -1.8417662e-05 -0.00025664395 -0.00013457412
000050 6e 76 27 b9 db 1a 37 38 a1 7d 37 b9 da 3e 95 b9
       -0.0001597048 4.365561e-05 -0.0001749904 -0.00028466323
000060 c7 10 29 39 c9 e2 7b b8 2e 1a 51 b9 31 88 1d b9
       0.00016123346 -6.0054273e-05 -0.00019941546 -0.00015023422
000070 f7 79 20 38 62 67 17 39 43 a0 c5 38 f8 7d 1d b9
       3.826056e-05 0.00014438995 9.423543e-05 -0.00015019614
000080 0a ab 71 b8 2b bc 5f 38 7c 8b d4 b7 37 5b e4 38
       -5.761817e-05 5.334259e-05 -2.5337322e-05 0.00010888877
000090 3c 35 c8 38 b1 f8 5d 39 16 c3 0e b8 00 46 c5 b8
       9.546659e-05 0.00021168847 -3.4037126e-05 -9.4067305e-05
0000a0 b0 de 83 36 c7 4b 2f 39 d1 ca 5f 38 d2 ee 84 39
       3.9300285e-06 0.0001671753 5.335623e-05 0.00025354937
0000b0 73 4c 08 38 53 8b 7b 38 17 5a 1c b8 bc 77 d2 38
       3.2496126e-05 5.997282e-05 -3.72772e-05 0.000100358826
0000c0 9e 89 80 39 16 6f e3 b6 45 6e f4 b8 66 cd af 38
       0.00024516595 -6.7780593e-06 -0.00011655366 8.382909e-05
0000d0 c2 2d 14 38 50 d8 a8 b8 dc ff 24 38 b4 32 25 37
       3.5328565e-05 -8.0511556e-05 3.9338935e-05 9.846572e-06
0000e0 b7 52 a2 b7 53 ee 4a 39 34 1b 07 b7 ba ba 58 b9
       -1.9350422e-05 0.00019353004 -8.052961e-06 -0.00020668926
0000f0 81 97 0d b9 4e 6c 58 b9 dd cd 62 39 7d f8 f7 b8
       -0.00013503247 -0.00020639712 0.0002162973 -0.00011824162
000100 c6 20 25 39 96 90 f5 b7 ba 23 68 37 bd 29 5e b9
       0.00015747835 -2.9273604e-05 1.3836596e-05 -0.00021187119
000110 a4 fa 1b b7 4b 81 92 37 79 9d 91 b8 50 4b 9c b8
       -9.297077e-06 1.7464763e-05 -6.94347e-05 -7.452688e-05
000120 73 82 ff 37 3a 0c ca 37 c9 a7 a9 38 f9 ad 78 b9
       3.0459114e-05 2.408597e-05 8.0898004e-05 -0.00023715933
000130 70 10 fd b2 2d 28 91 37 62 c9 7f b5 38 ac 0c b9
       -2.9460551e-08 1.7304055e-05 -9.5287953e-07 -0.00013415597
000140 b9 6d 5d b8 32 f1 1b 39 fa 33 72 b7 5b 41 ef 38
       -5.2792693e-05 0.00014871804 -1.4436426e-05 0.000114085815
000150 37 9d 9b 38 2f 97 cb b8 6c 44 d9 38 af 57 19 b9
       7.4202595e-05 -9.7079545e-05 0.00010360111 -0.00014623882
000160 98 06 27 39 77 0a e7 35 e7 e8 7e b9 42 0d bb b9
       0.00015928817 1.7213887e-06 -0.0002431009 -0.00035677297
000170 df b8 b2 b7 4f 7a 51 b7 88 77 8e 37 fc 9e db b7
       -2.130534e-05 -1.2485848e-05 1.698338e-05 -2.6180867e-05
000180 7b 44 25 37 f1 c7 3d b7 34 83 12 b9 ee 36 d4 b6
       9.850711e-06 -1.131183e-05 -0.00013972522 -6.324487e-06
000190 53 fc 9f b9 2b ab 96 b7 80 6f d6 b7 61 57 f3 38
       -0.0003051484 -1.79611e-05 -2.556271e-05 0.000116034185
0001a0 88 0f 9c 38 c7 30 c4 36 5d 0d b7 37 13 25 83 39
       7.4415526e-05 5.8469336e-06 2.1821523e-05 0.0002501389
0001b0 97 f1 06 b9 d3 84 40 b9 36 b8 dc b8 0b 0a 81 39
       -0.00012869235 -0.00018360028 -0.000105247294 0.0002461228
0001c0 12 c2 3f b7 fe 02 bb b9 48 61 c0 b9 2a f4 99 39
       -1.1429673e-05 -0.0003566965 -0.00036693574 0.0002936435
0001d0 72 e6 23 b8 d5 3e d0 b8 70 f9 0b 39 ff 23 94 38
       -3.9076847e-05 -9.929916e-05 0.00013348996 7.063895e-05
0001e0 2c 88 48 b8 0e 7b 0d b8 20 8d c4 b8 6f 12 82 b5
       -4.7810536e-05 -3.3731623e-05 -9.372295e-05 -9.69112e-07
0001f0 75 a3 3f b9 04 50 5e 39 85 ff cf b8 50 44 d4 b7
       -0.00018276072 0.00021201378 -9.9181234e-05 -2.530418e-05

weight f4 [128, 128]
000000 57 9b aa 3d 09 ff 48 3d ad 74 ed bd 4c 83 a7 3d
       0.0833041 0.049071345 -0.1159452 0.0817934
000010 c7 77 1b 3c ed cb 57 3c f8 ce bc bc 50 db da bd
       0.009489006 0.013171178 -0.02304791 -0.10686362
000020 ab 81 0a 3e d7 47 8b 3d 38 c4 3b 3c b4 f5 82 3d
       0.13526027 0.06800812 0.011460356 0.063945204
000030 0e 73 05 3d e2 8c b8 3d c5 fe de bc 1b f7 2c 3d
       0.032580428 0.09011246 -0.027221093 0.042227846
000040 40 6a cb bc 9c ff f0 bc fb b8 97 3d af 02 74 ba
       -0.024830937 -0.029418759 0.07408329 -0.0009308261
000050 e0 d1 05 be 70 c1 4f be 64 be fa 3d 76 97 24 3e
       -0.13068342 -0.20288634 0.122433454 0.16073403
000060 2d fb 1d bd 71 4f a5 bd 83 3e 7e bd 58 d0 be bc
       -0.038569618 -0.08071793 -0.062071335 -0.023292705
000070 cd ea f4 bd e9 41 12 3e 30 e6 a6 3c cf 8e 58 bd
       -0.11958847 0.14282955 0.020373434 -0.052870568
000080 35 9b 9d bc d1 99 a7 3d 20 f7 2f 3d cf ec b2 bd
       -0.019239048 0.08183635 0.042960286 -0.08736574
000090 bb bc 2c bd 0e 27 c3 bd 93 6e e2 3d c3 fe 48 be
       -0.042172175 -0.095289335 0.110562466 -0.19628434
0000a0 57 3b 36 bc 39 b3 2e 3d 7b 6c c1 3d 64 2c 0e be
       -0.011122546 0.04265139 0.09444519 -0.13884121
0000b0 1c 6a d9 bc 3e ea 0a bc 8d 4c fd bd ce c0 8a bd
       -0.026539855 -0.008478699 -0.123681165 -0.06775056
0000c0 98 41 d6 3d 94 79 1f bd a4 25 a8 bc 16 97 24 be
       0.1046173 -0.038934305 -0.020525761 -0.1607326
0000d0 a3 14 23 3e cb 11 be 3b 07 89 c7 3d de 78 19 bd
       0.15925841 0.005800461 0.09742933 -0.037468784
0000e0 b7 e2 ee bc 79 2d 96 3c 85 44 8f bd 9c 82 88 bd
       -0.02916084 0.01833223 -0.06995491 -0.06665537
0000f0 27 eb 04 be 82 34 54 bd 3d f7 8c 3d 0d 93 9c 3d
       -0.12980329 -0.051807888 0.068830945 0.07645235
000100 f5 59 99 3d 06 43 3b 3a 7e 57 f6 36 1b 89 9a bd
       0.07487861 0.0007143471 7.3415567e-06 -0.07545682
000110 6f 98 4f 3d 01 f2 86 bc a3 c4 54 3d 23 d1 49 3d
       0.05068248 -0.016472818 0.05194534 0.049271714
000120 84 d0 13 3d 67 5e 5b bd 8a 17 8a 3b 7a 20 0c bd
       0.036087528 -0.053556826 0.004214232 -0.03421066
000130 ef 85 89 3b da 76 9b 3d 8d a9 05 bd f5 05 68 bb
       0.0041968743 0.075910285 -0.0326324 -0.0035403941
000140 ee 9c f6 3d 17 84 b2 3d 71 36 0e 3d a0 75 12 3e
       0.12041651 0.087166004 0.034719888 0.14302683
000150 ab ee 41 3e 08 f5 ca bd e1 e4 dd bc 8e 56 0f bd
       0.18938701 -0.09910017 -0.027086677 -0.034994654
000160 5a 65 19 3d e9 2f d0 bd d6 24 d9 3d 32 a7 b4 bd
       0.037450172 -0.10165388 0.10602729 -0.088209525
000170 b2 9d f5 bc 35 21 07 be 23 7b 87 3d 0d ab 0d 3e
       -0.029982422 -0.13196261 0.06615283 0.13834782
000180 94 03 2b be 76 69 8d bc fb dc e0 bc 93 e7 92 bb
       -0.16700584 -0.017262202 -0.027449122 -0.004483172
000190 9b 64 1e 3d f2 2f 25 3d c7 9e c4 bc 0d a3 95 3d
       0.038670164 0.040328927 -0.024001492 0.0730649
0001a0 42 35 df bb 8e 07 84 bd 82 cf 90 bd d9 2c e8 3d
       -0.0068117687 -0.064467534 -0.07070829 0.11336679
0001b0 a9 e9 56 be 51 67 41 be 55 00 ef 3c 7e 24 b3 3d
       -0.20987572 -0.18887068 0.029174963 0.08747195
0001c0 d4 9e 78 bd cb 57 a8 3c d1 6d 17 3c 87 c0 ab bd
       -0.060698345 0.020549675 0.009242491 -0.08386331
0001d0 ee 8d e5 bd 6c bb 9a bd c6 47 92 3d d7 5a 03 bd
       -0.112087116 -0.07555279 0.07142596 -0.032069054
0001e0 b9 bd 93 bc a8 33 6e 3e 9d 0c 74 bd aa 31 50 3e
       -0.018034803 0.23261893 -0.05958234 0.20331445
0001f0 bf 68 d4 3d f5 cf be 3d 41 40 0f 3e ba 21 db bc
       0.10371541 0.093170084 0.13989355 -0.02674948
000200 37 a8 e2 bc d2 2b dc bd 82 c0 d5 bd 79 4f 64 be
       -0.027668102 -0.107505456 -0.104371086 -0.22295941
000210 50 3d 4f 3d 58 05 05 bc 60 cd 7d bc 02 5b b4 3d
       0.05059558 -0.00811895 -0.01549086 0.08806421
000220 b7 66 12 bd ff 40 22 3d 63 35 90 bd 34 8e 69 3c
       -0.035742488 0.039612766 -0.07041433 0.014255095
000230 ac 1a cf 3d 6f 5a 00 3e 4c ce 79 bc 8f 0b eb 3c
       0.10112509 0.12534498 -0.015246939 0.028692035
000240 89 c8 2d bd 08 46 37 bd 0b 3a 26 bd 35 c3 8a bb
       -0.042427573 -0.04474452 -0.040582698 -0.0042346963
000250 02 a4 60 3d 98 77 93 3e d3 4b 86 3c 76 ef 78 bc
       0.05484391 0.2880218 0.016393578 -0.015193811
000260 3e f3 f5 3d de 8b 9a bc 07 9a b4 bd 17 9b 06 be
       0.120092854 -0.018865522 -0.08818441 -0.131451
000270 5c f0 1e be 88 dc b7 3c db c0 1a bd dd 24 98 bd
       -0.15521377 0.022444025 -0.037781578 -0.07428906
000280 ab 0d 99 3d 39 d5 7e bc 12 66 4f 3d 8c 50 b2 bc
       0.0747331 -0.015553766 0.05063445 -0.021766923
000290 da 04 f7 3d ac 33 52 3e b3 da 4c bd f8 e5 c4 bd
       0.12061472 0.20527524 -0.050013255 -0.096141756
0002a0 c1 a2 a2 3c a9 14 cd ba b5 f1 4a 3d 1b 0b 0d bd
       0.019852998 -0.0015646416 0.049546916 -0.03443442
0002b0 ec f0 af bd 82 02 3a bd 9c 89 ca 3c 82 92 65 bd
       -0.08590874 -0.045412548 0.02472382 -0.056047924
0002c0 d2 5a 03 3e 3c 59 ab 3b 7d 60 a1 bd d6 ad 09 be
       0.12827614 0.0052291434 -0.07879732 -0.1344522
0002d0 55 12 bc bd 99 e3 dc bd e9 82 62 3d 84 0f 3f bd
       -0.09183184 -0.10785598 0.055300627 -0.046645656
0002e0 b7 6c 0d be 0c 37 c8 3d 57 93 88 3c f3 60 b5 bc
       -0.13811003 0.09776124 0.01667182 -0.022140956
0002f0 f1 50 0d 3e 5e 7f 79 3d 40 00 51 bd 5f 08 d6 bd
       0.13800408 0.060912482 -0.05102563 -0.104508154
000300 3e c8 2f bd 74 4a 9a 3c 04 3a a1 3d 66 9d 7d 3d
       -0.042915575 0.01883433 0.07872394 0.061917685
000310 ed 8d a1 bc a6 39 0b 3e 89 cc e2 bc f8 51 07 be
       -0.019720996 0.1359621 -0.02768542 -0.13214862
000320 95 ca a3 bd 90 a9 c3 bd c9 e1 9a 3d 0b 43 33 3e
       -0.07997624 -0.09553826 0.07562596 0.17506044
000330 c3 39 8a 3d 51 c4 8d bc 05 e4 ca bb d3 6b f9 3d
       0.067492984 -0.017305525 -0.006191733 0.12178769
000340 65 ef 2f bd 0d 85 85 3d 01 92 85 3d 5a 71 ca bd
       -0.042952914 0.06519518 0.06521989 -0.09884901
000350 10 49 5b 3c b0 dd d6 bd a8 93 af 3d fb 53 22 bc
       0.013384119 -0.10491502 0.08573085 -0.009907718
000360 ff f4 96 bd 71 59 12 3d 4f fd 27 3d 50 53 a4 bd
       -0.07370948 0.03572983 0.04101306 -0.08023703
000370 5c 6f d6 3d ac b9 10 3e c8 c1 2c 3c 76 b5 fa bc
       0.10470459 0.14133328 0.010544248 -0.030604105
000380 2b 9c 95 bc 8c 88 0d 3d 76 3e 2b 3d b7 70 00 bd
       -0.018262943 0.03455405 0.041807614 -0.031357493
000390 b0 20 95 3d ec bc 35 3c 5a 9e cd bc 09 28 02 be
       0.07281625 0.011092406 -0.025099922 -0.12710585
0003a0 6a 01 a6 bd d1 ea 09 3d 42 9b 9a 3b a1 63 15 3d
       -0.081057385 0.033671204 0.004718215 0.036471967
0003b0 02 90 3a be a9 00 01 be 3f 3a 9b bd ce 50 45 3e
       -0.18218997 -0.12597908 -0.07579469 0.19269106
0003c0 81 fe 01 3e 11 e5 39 be df d9 4d 3d e4 0d 1c 3d
       0.12694742 -0.18153788 0.050256606 0.038099185
0003d0 82 1e b1 3d 56 5a 51 be 46 1b 3e bd 87 40 d3 3d
       0.08648397 -0.20444617 -0.04641273 0.10315042
0003e0 05 d2 20 bd 07 1f 00 3e 26 5b 88 3c df 3e 02 3d
       -0.03926279 0.12511836 0.016645025 0.03179824
0003f0 58 d6 c1 bd 61 07 4b bd 9b 83 3c 3d eb 70 d6 3d
       -0.09464711 -0.049567584 0.046023946 0.10470756

bias f4 [128]
000000 91 ab 8d b8 04 e8 cc 38 00 00 00 00 00 00 00 00
       -6.755361e-05 9.770694e-05 0.0 0.0
000010 a4 ff 87 b9 c6 8b 99 b9 6e 35 94 b9 c3 35 9b b9
       -0.00025939674 -0.00029286573 -0.00028268568 -0.0002960396
000020 cf 0e 19 38 05 71 55 39 ce 70 27 39 b8 18 51 b9
       3.6491834e-05 0.00020355366 0.00015968384 -0.00019941002
000030 91 04 85 39 ae bb a1 39 87 f7 5e 39 50 80 4f 39
       0.0002537114 0.00030848145 0.00021263781 0.00019788858
000040 11 0a f4 b8 d3 81 fd b8 ed 25 42 b9 67 7d 31 39
       -0.00011636702 -0.00012088162 -0.0001851541 0.00016926751
000050 c1 b6 53 b9 98 e8 9d b9 a9 fd 98 b9 0b ca aa 39
       -0.00020190609 -0.0003011867 -0.0002918069 0.0003257546
000060 08 52 96 39 92 30 84 39 6b b0 e3 38 00 00 00 00
       0.00028671348 0.0002521319 0.00010857064 0.0
000070 d4 1a 10 b9 be ea b2 39 94 43 0f b9 4c 32 db b8
       -0.00013742904 0.00034125702 -0.00013662718 -0.00010452102
000080 3c c3 55 39 8d 3c 97 b9 87 95 81 39 00 00 00 00
       0.00020385993 -0.00028846078 0.00024716204 0.0
000090 93 cd 11 38 75 45 1f 39 99 d5 35 b6 8d 67 b6 b9
       3.476215e-05 0.00015189296 -2.7095432e-06 -0.00034790896
0000a0 00 00 00 00 0d 39 95 b9 16 58 94 b9 2f 9d 1e 39
       0.0 -0.00028462 -0.0002829439 0.0001512661
0000b0 e8 c6 61 39 60 95 23 b9 0c c9 d2 38 90 99 40 b8
       0.0002153177 -0.00015600538 0.00010051028 -4.5919383e-05
0000c0 a4 cf c1 b9 00 00 00 00 2c 2c c0 b8 74 5e 9e 38
       -0.00036966533 0.0 -9.163501e-05 7.5516204e-05
0000d0 49 3e 91 b9 1e 45 67 b9 1e 82 57 b9 51 fd ad 39
       -0.0002770296 -0.00022055625 -0.0002055247 0.00033185867
0000e0 1b e8 4b b9 e4 ad 16 39 cf 6e 73 39 00 00 00 00
       -0.00019446055 0.00014369894 0.00023215565 0.0
0000f0 ca 36 c0 b6 b2 ca 8f 38 00 00 00 00 c9 cf 96 39
       -5.728424e-06 6.856526e-05 0.0 0.00028765041
000100 c5 27 ac 39 00 00 00 00 d3 0c 9f b8 16 f7 0a b8
       0.00032836027 0.0 -7.5840995e-05 -3.313188e-05
000110 b5 27 63 39 00 00 00 00 79 2f f8 38 f5 ff 02 b9
       0.00021663199 0.0 0.00011834404 -0.00012493118
000120 00 00 00 00 22 54 93 b6 b4 e2 18 38 f3 f2 d4 37
       0.0 -4.3907357e-06 3.6450758e-05 2.5385501e-05
000130 00 00 00 00 b5 d3 9f b9 22 b7 8a 39 00 00 00 00
       0.0 -0.00030484577 0.00026457856 0.0
000140 50 1b bc b9 62 f8 92 b9 28 37 b7 b8 a4 bc b4 39
       -0.00035878504 -0.0002803235 -8.736394e-05 0.00034472824
000150 00 00 00 00 a4 22 40 39 fe 4f d8 38 60 bd 0b b9
       0.0 0.00018323452 0.00010314582 -0.0001332662
000160 00 00 00 00 90 55 d9 b5 00 00 00 00 35 71 60 36
       0.0 -1.6192662e-06 0.0 3.3444496e-06
000170 d5 77 e1 38 fa f1 96 b9 0d c0 68 b9 dc 26 9e b9
       0.000107511565 -0.00028790516 -0.00022196789 -0.0003016506
000180 b2 66 79 38 47 b0 96 39 89 0b ad 38 1f 2e 5e 39
       5.946187e-05 0.00028741566 8.2514314e-05 0.00021188751
000190 46 fc a4 39 0e d7 6d 35 a3 bf bb 39 f9 c3 33 38
       0.00031468476 8.8602326e-07 0.000358102 4.285944e-05
0001a0 e1 f8 c1 39 00 00 00 00 f8 6e d2 b8 00 00 00 00
       0.00036997258 0.0 -0.0001003425 0.0
0001b0 00 00 00 00 13 15 c0 b9 35 78 5f b9 c8 81 0d b8
       0.0 -0.00036636795 -0.00021311718 -3.3737888e-05
0001c0 84 66 22 39 06 3d bb 39 26 17 a4 b9 ae ea 0a b9
       0.00015487714 0.00035712885 -0.00031297765 -0.0001324813
0001d0 20 34 69 b9 15 8a 37 39 3a ad 09 39 67 05 b7 b8
       -0.0002224003 0.0001750368 0.0001312987 -8.727126e-05
0001e0 48 ec 90 39 2c 42 ac b6 e8 b2 e9 36 b7 54 ab 39
       0.00027641864 -5.133703e-06 6.9647685e-06 0.0003267878
0001f0 00 00 00 00 7c e7 0d 39 2e 93 4f b9 41 c5 8a b9
       0.0 0.00013533043 -0.00019795887 -0.00026468377
