model/critic_gru.pth (torch, 796205 bytes, 8 tensors)

weight_ih_l0 f4 [384, 128]
0.073417105 -0.0059832297 -0.07626791 0.080007896 0.044176914 -0.035611384 -0.08114669 0.010579305
-0.034356646 0.018669767 -0.023540879 0.06537417 0.043268442 0.015263298 -0.017246723 0.023789432
0.016888615 0.058332376 0.0050618267 -0.036813367 0.021662466 -0.034908418 -0.054275155 0.081109025
0.068583846 0.057843935 0.051796123 0.014962215 0.010757172 -0.0539405 -0.008564499 0.0035743276
-0.043036398 0.045109857 -0.06379132 0.034481384 0.036169894 0.07990521 0.07651365 -0.01485642
0.014890871 0.028617214 -0.08743147 -0.06733519 -0.03246671 0.05278581 -0.083557524 -0.006558746
0.0517369 -0.0700513 -0.07972331 -0.013206663 -0.07934697 0.020494295 0.06097372 -0.069883876
-0.0008972642 0.031661525 0.040668476 -0.08644271 0.04623917 -0.015392083 -0.0393676 -0.073515765
0.0362363 -0.014466566 0.07800198 -0.062100716 0.07591264 0.026957562 0.04392219 0.022270806
0.04318035 -0.054038417 -0.028921565 0.045015953 -0.082435176 -0.04540775 -0.03571336 -0.059864696
0.0007533152 -0.059690785 -0.019025575 -0.07669464 -0.048889425 0.04865381 -0.044249956 -0.07779214
0.05630296 -0.037213173 -0.06958283 -0.056423787 -0.053920105 0.06304867 -0.031644933 0.08300372
-0.03255953 0.0495982 0.07091665 0.023635339 -0.015459118 0.033597257 -0.06302007 0.02436838
-0.030013634 0.0048171217 -0.014145556 0.084162176 0.06824798 0.010946553 0.061846897 0.06852889
-0.048225097 0.08616326 -0.055320606 -0.031141786 -0.058887146 0.063986495 -0.05012914 -0.031044323
-0.07913113 0.07818633 -0.08073546 -0.009717809 -0.013211046 0.008092648 0.020248923 -0.002660711
0.045140844 0.0057223197 0.07322509 0.08553259 -0.012248756 -0.041468013 -0.08131895 0.029261492
0.045781434 -0.030627282 -0.019968955 0.0079647675 0.05905856 -0.07833293 0.044023424 0.047800656
-0.0022578612 -0.024188919 0.02897759 0.029960357 -0.016331693 0.054986868 -0.030475399 -0.038530253
-0.070575185 -0.07875293 -0.07230363 -0.038939398 0.034965374 0.048619732 -0.019117579 0.007835136
-0.05938012 -0.04750419 -0.029281622 -0.06743364 0.032443658 -0.0862961 0.05288829 -0.0024671352
0.019154035 0.02761827 -0.077364214 0.052403033 0.047361564 -0.035248302 0.042375647 -0.020793973
-0.083956406 0.020378243 0.044815972 0.07425573 -0.07381911 0.002231507 0.08733994 0.059088975
0.00059458666 0.06269862 0.029526647 0.038884357 0.03244668 0.0039683203 0.022337899 0.03820814
-0.04380857 0.0049822894 -0.006782676 -0.074896954 0.0636859 0.06354058 -0.02404336 0.07410473
-0.061575156 -0.011951193 0.02747406 0.07995989 -0.04157409 0.0020012693 0.012981086 -0.04634248
0.07183297 -0.075474136 -0.013237164 -0.060881507 -0.017552052 -0.033334315 -0.009226482 0.016586106
0.074399576 0.043923125 0.05508483 0.061303444 0.055412356 0.06767789 -0.064478844 -0.01366335
0.064054385 0.0034928122 0.050693322 0.056754775 -0.08550615 0.013331606 0.0015071154 0.0027910685
0.055726647 0.08044999 0.07407432 -0.0047282297 -0.0035150682 0.014674927 -0.045023058 -0.04429828
0.081870295 -0.08023912 -0.067421265 0.07853368 -0.049507365 0.07667857 0.011218923 -0.071182035
0.004655194 0.070949934 0.011413649 0.052102398 0.032068703 0.07622372 0.059177164 0.040556103
00000000: b55b 963d f80e c4bb 5a32 9cbd 2edb a33d
00000010: daf2 343d 3edd 11bd 3c30 a6bd d254 2d3c
00000020: 8eb9 0cbd 57f1 983c cdd8 c0bc e5e2 853d
00000030: 403a 313d e912 7a3c 0049 8dbc 0ee2 c23c
00000040: fe59 8a3c eeed 6e3d aedd a53b 9dc9 16bd
00000050: 7c75 b13c 21fc 0ebd a04f 5ebd 7d1c a63d
00000060: b075 8c3d c3ed 6c3d 2c28 543d 1424 753c
00000070: d93e 303c b7f0 5cbd 1d52 0cbc 443f 6a3b
00000080: ef46 30bd 1dc5 383d 06a5 82bd 5a3c 0d3d
00000090: e226 143d 58a5 a33d 30b3 9c3d 5868 73bc
000000a0: d7f8 733c a66e ea3c 450f b3bd 08e7 89bd
000000b0: d0fb 04bd ef35 583d 3520 abbd c0ea d6bb
000000c0: 12ea 533d 0e77 8fbd fa45 a3bd c260 58bc
000000d0: aa80 a2bd a7e3 a73c 94bf 793d 471f 8fbd
000000e0: 6236 6bba 84af 013d fd93 263d e008 b1bd
000000f0: 4965 3d3d 132f 7cbc ec3f 21bd 6f8f 96bd
00000100: 846c 143d 2d05 6dbc 81bf 9f3d 525d 7ebd
00000110: 1678 9b3d 1bd6 dc3c c1e7 333d 4471 b63c
00000120: e1dd 303d 6357 5dbd ebec ecbc a662 383d
00000130: c6d3 a8bd 7afd 39bd 2c48 12bd af34 75bd
00000140: 217a 453a 537e 74bd 86db 9bbc 1412 9dbd
00000150: 4740 48bd 3849 473d 713f 35bd 7c51 9fbd
00000160: ef9d 663d d76c 18bd 7181 8ebd a11c 67bd
00000170: 54db 5cbd a91f 813d 1e9e 01bd dbfd a93d
00000180: 245d 05bd 7b27 4b3d c03c 913d e69e c13c
00000190: 3e48 7dbc 479d 093d ab10 81bd 32a0 c73c
000001a0: 27df f5bc f2d8 9d3b c3c2 67bc 385d ac3d
000001b0: 99c5 8b3d 2c59 333c 2c53 7d3d e058 8c3d
000001c0: ae87 45bd 5d76 b03d dc97 62bd 0f1d ffbc
000001d0: a633 71bd 5a0b 833d 3754 4dbd aa50 febc
000001e0: 800f a2bd 2820 a03d a258 a5bd 7237 1fbc
000001f0: 2573 58bc 0797 043c 12e1 a53c 535f 2ebb
00000200: 9be5 383d 4c82 bb3b 09f7 953d b62b af3d
00000210: 02af 48bc 5dda 29bd 8d8a a6bd ccb5 ef3c
00000220: 5085 3b3d 11e6 fabc ef95 a3bc a87e 023c
00000230: 63e7 713d 046d a0bd e851 343d 9fca 433d
00000240: a0f8 13bb d727 c6bc 6962 ed3c 6c6f f53c
00000250: 0bca 85bc e939 613d 8ba7 f9bc e6d1 1dbd
00000260: b989 90bd 3749 a1bd ed13 94bd eb7e 1fbd
00000270: da37 0f3d 7c25 473d 789c 9cbc f15e 003c
00000280: 9238 73bd c193 42bd 03e0 efbc a61a 8abd
00000290: a4e3 043d 02bc b0bd 64a1 583d a9af 21bb
000002a0: ece8 9c3c b63f e23c 2171 9ebd 90a4 563d
000002b0: 33fe 413d 8660 10bd 1692 2d3d 1f58 aabc
000002c0: 56f1 abbd 46f0 a63c f490 373d 6313 983d
000002d0: 792e 97bd 7a3e 123b 48df b23d 4807 723d
000002e0: 09de 1b3a 2268 803d dee1 f13c 3445 1f3d
000002f0: cfe6 043d af08 823b f8fd b63c 2380 1c3d
00000300: 9d70 33bd 7942 a33b 3641 debb 9363 99bd
00000310: c16d 823d 9021 823d 95f6 c4bc 38c4 973d
00000320: 3b36 7cbd f0ce 43bc 4811 e13c 03c2 a33d
00000330: 9849 2abd ba27 033b 9fae 543c 9dd1 3dbd
00000340: 2a1d 933d 2f92 9abd b1e0 58bc e35e 79bd
00000350: 52c9 8fbc 9089 08bd ac2a 17bc 96df 873c
00000360: ce5e 983d bce8 333d a1a0 613d 5219 7b3d
00000370: 11f8 623d b59a 8a3d 7c0d 84bd 3edc 5fbc
00000380: f22e 833d aae7 643b cda3 4f3d b277 683d
00000390: d91d afbd cf6c 5a3c 678a c53a 5cea 363b
000003a0: a041 643d f7c2 a43d 47b4 973d 44ef 9abb
000003b0: 0f5d 66bb 1b6f 703c 196a 38bd 1d72 35bd
000003c0: 9dab a73d 6854 a4bd 2914 8abd 44d6 a03d
000003d0: 3cc8 4abd a709 9d3d 93cf 373c e3c7 91bd
000003e0: 998a 983b 334e 913d 5000 3b3c 5369 553d
000003f0: 795a 033d 2f1b 9c3d c163 723d 281e 263d

weight_hh_l0 f4 [384, 128]
-0.04458626 -0.063257426 0.020664752 0.05728459 -0.034713898 -0.06225434 -0.0635606 0.05341709
0.03718041 -0.004536714 -0.01985755 0.022759775 -0.031006286 -0.07233299 -0.019145265 -0.06288836
0.07488519 0.009634313 -0.048730258 0.018707443 -0.044368915 -0.03849195 0.026313717 0.021908596
0.00035008573 0.06960854 0.07662944 0.0096453 0.052600782 -0.062878124 0.03326305 0.08022577
0.0061054323 0.07338473 -0.0823112 0.023692641 0.021938402 -0.06818699 0.06256253 0.073167495
0.0050436812 0.08026245 -0.06565322 0.07701107 0.06952146 -0.021955548 0.07806609 0.043435365
0.033705033 -0.021738559 0.005228453 -0.04049614 -0.081565365 -0.073073216 -0.015827134 0.029914921
0.074344404 -0.056530487 -0.053902686 0.033673782 -0.07265971 0.068013564 0.018541522 -0.041638725
0.07120798 -0.0010357336 0.05033376 0.049898446 0.009344352 -0.06926645 0.0466148 0.018056592
0.050509624 0.03444116 0.08694077 0.031805452 -0.069228984 0.06334694 0.05491376 0.022687262
0.05646379 0.009243906 -0.06581431 0.08336372 -0.01773993 0.08187536 -0.02575966 -6.8778485e-05
-0.07527714 -0.035884246 0.067865 -0.047387645 -0.07941318 0.06566453 -0.03450815 0.075988755
0.048641197 -0.057547547 -0.013032565 0.05277996 -0.084951624 0.087970324 -0.046789773 -0.00501371
0.02690774 -0.016265195 0.033543922 -0.0069999634 -0.008461998 -0.03207178 0.06638243 0.08294026
0.05531429 0.026656073 -0.0116030425 0.050938405 0.0060429694 -0.023632009 -0.05627344 -0.082243755
0.005962976 0.02846447 -0.018639099 -0.08148574 0.04785214 -0.08362261 0.0018668378 -0.07190867
0.06840805 0.05237575 -0.051272273 0.02933946 0.02577726 0.0036381457 0.023688896 -0.02940095
-0.074625455 0.008967722 0.058869846 -0.06705097 0.07130152 0.0009934008 -0.085959375 0.01580233
-0.027991606 -0.019823296 0.042025223 0.0034309668 -0.05208114 0.07898391 -0.018892633 -0.0414038
-0.045259528 -0.06853479 0.07381392 -0.029715994 0.07198398 0.085244894 0.051780824 -0.07088951
-0.062164254 0.068384 0.026530692 0.08003869 -0.012690911 0.03517756 0.04329908 -0.042434253
-0.039901014 0.0781096 -0.048651405 -0.025286218 -0.008689432 0.07811928 -0.058035318 0.015976222
-0.0026459503 -0.006147695 0.06164798 -0.034932505 0.04561126 -0.029918782 -0.03319703 0.021508904
-0.058896355 0.00094749354 -0.06964011 0.076580934 -0.07761448 0.0740905 0.04316805 -0.0054282285
0.07278487 -0.02773618 0.021046933 -0.08588038 0.0044414788 -0.031620774 0.010209539 -0.07046524
0.02596427 0.035698663 -0.060287446 0.08600778 0.060932867 -0.055981465 -0.059217636 0.029816454
0.071792446 0.062406637 -0.08157764 -0.037251037 0.020927941 -0.06559296 0.06293012 -0.06277805
0.009011437 0.06026123 -0.009121417 -0.0074448427 -0.02304822 0.07771114 -0.065312386 -0.016282286
0.011353451 0.014130764 0.027219392 0.07681246 0.017598042 0.04366726 0.043864813 -0.06258212
-0.00340811 -0.016967362 -0.022887975 -0.07032476 0.073566444 -0.06698661 -0.08052967 -0.076808505
0.08585744 0.012377414 0.06197274 0.014862286 -0.068158835 0.07518391 -0.018655967 0.00074350345
-0.07209993 -0.0399417 0.027313404 0.07507474 0.023132423 -0.08006541 0.0023684315 0.08558665
00000000: 15a0 36bd 1c8d 81bd 2049 a93c 3fa3 6a3d
00000010: 2930 0ebd 68fe 7ebd 0f2c 82bd e1cb 5a3d
00000020: 7c4a 183d b7a8 94bb 4dac a2bc b572 ba3c
00000030: e500 febc 5223 94bd 88d6 9cbc 9dcb 80bd
00000040: 685d 993d 3dd9 1d3c 6199 47bd 5a40 993c
00000050: 2ebc 35bd bca9 1dbd dd8f d73c a879 b33c
00000060: b68b b739 ec8e 8e3d e5ef 9c3d 5207 1e3c
00000070: eb73 573d 3fc6 80bd d63e 083d 694d a43d
00000080: 1410 c83b bc4a 963d c692 a8bd 1217 c23c
00000090: 2ab8 b33c 9fa5 8bbd c920 803d d7d8 953d
000000a0: 7745 a53b a460 a43d 3275 86bd fbb7 9d3d
000000b0: 4461 8e3d 1fdc b3bc 1de1 9f3d 48e9 313d
000000c0: 4a0e 0a3d 1015 b2bc 7153 ab3b 48df 25bd
000000d0: be0b a7bd 69a7 95bd e8a7 81bc 2310 f53c
000000e0: e141 983d 838c 67bd 10c9 5cbd 85ed 093d
000000f0: 9dce 94bd b24a 8b3d 64e4 973c 5e8d 2abd
00000100: 7dd5 913d 74c1 87ba c62a 4e3d 5062 4c3d
00000110: 0e19 193c 92db 8dbd 29ef 3e3d 6beb 933c
00000120: 2ee3 4e3d 2c12 0d3d 010e b23d 6f46 023d
00000130: edc7 8dbd 0abc 813d 40ed 603d a3da b93c
00000140: 9346 673d c073 173c a7c9 86bd 99ba aa3d
00000150: 5453 91bc 45ae a73d ec05 d3bc 2b3d 90b8
00000160: e72a 9abd 5cfb 12bd cefc 8a3d 8c19 42bd
00000170: 61a3 a2bd 207b 863d 6b58 0dbd fe9f 9b3d
00000180: fe3b 473d fab6 6bbd 8a86 55bc cd2f 583d
00000190: 1efb adbd c929 b43d a2a6 3fbd 0c4a a4bb
000001a0: 9f6d dc3c 963e 85bc 5a65 093d f35f e5bb
000001b0: 31a4 0abc b35d 03bd 83f3 873d 95dc a93d
000001c0: 3d91 623d d65d da3c b01a 3ebc caa4 503d
000001d0: 1a04 c63b ea97 c1bc fb7e 66bd 6a6f a8bd
000001e0: 1165 c33b 522e e93c 06b1 98bc ffe1 a6bd
000001f0: 9b00 443d 5542 abbd afb0 f43a da44 93bd
00000200: 8519 8c3d f487 563d e002 52bd 4f59 f03c
00000210: d52a d33c f56d 6e3b 370f c23c 43da f0bc
00000220: 3bd5 98bd 5aed 123c 8221 713d 0552 89bd
00000230: 8806 923d 0035 823a 780b b0bd e373 813c
00000240: a74e e5bc 7764 a2bc a422 2c3d 12da 603b
00000250: 0953 55bd 51c2 a13d b9c4 9abc 0897 29bd
00000260: 0e62 39bd f85b 8cbd c12b 973d f56e f3bc
00000270: 566c 933d e094 ae3d 2118 543d 852e 91bd
00000280: f29f 7ebd e90c 8c3d e556 d93c 53eb a33d
00000290: 8aed 4fbc 5816 103d 605a 313d 8acf 2dbd
000002a0: 3f6f 23bd edf7 9f3d b246 47bd 0b25 cfbc
000002b0: 1f5e 0ebc 00fd 9f3d 71b6 6dbd 91e0 823c
000002c0: ae67 2dbb 9a72 c9bb 9882 7c3d 6315 0fbd
000002d0: dfd2 3a3d 3c18 f5bc 9cf9 07bd 7133 b03c
000002e0: 4e3d 71bd 3761 783a 799f 8ebd 77d6 9c3d
000002f0: 57f4 9ebd c3bc 973d fbd0 303d 48df b1bb
00000300: 3c10 953d fc36 e3bc 9e6a ac3c 0de2 afbd
00000310: d389 913b c984 01bd e945 273c 1450 90bd
00000320: 05b3 d43c c338 123d f8ef 76bd d924 b03d
00000330: be94 793d d24c 65bd 318e 72bd a341 f43c
00000340: eb07 933d 1a9e 7f3d 2d12 a7bd 8b94 18bd
00000350: 1371 ab3c 9a55 86bd 82e1 803d c791 80bd
00000360: b5a4 133c 7bd4 763d ff71 15bc def3 f3bb
00000370: 9fcf bcbc 0527 9f3d 80c2 85bd 6e62 85bc
00000380: d303 3a3c b884 673c 34fb de3c da4f 9d3d
00000390: c529 903c 71dc 323d 97ab 333d 0e2b 80bd
000003a0: 995a 5fbb 23ff 8abc 907f bbbc 6e06 90bd
000003b0: 01aa 963d 4730 89bd bdec a4bd c74d 9dbd
000003c0: 07d6 af3d a3ca 4a3c 21d7 7d3d f280 733c
000003d0: dc96 8bbd 06fa 993d 66d4 98bc ace7 423a
000003e0: 21a9 93bd e899 23bd 5cc0 df3c c9c0 993d
000003f0: 3580 bd3c 55f9 a3bd b037 1b3b 0e48 af3d

bias_ih_l0 f4 [384]
-0.07782741 -0.04903083 0.06395128 0.08454175 -0.08412796 0.03615865 -0.026636709 0.028268939
-0.080860585 0.053481992 0.051237796 -0.04086158 -0.014056537 0.0459043 0.08328848 -0.088252015
-0.03240883 -0.053056326 -0.06673101 0.038676757 -0.029321007 -0.0286034 -0.008165855 -0.010023278
-0.015114099 -0.035671208 0.034511995 0.017634321 0.028314015 -0.07151289 -0.061387554 0.014311764
-0.034324702 -0.065291375 -0.085355535 0.008665399 -0.05496354 -0.06680587 0.04779311 0.03135549
-0.031791832 -0.07038589 -0.04931078 -0.026975345 -0.07250935 0.009747072 -0.008334278 0.038884815
0.07575046 -0.04031789 -0.018873964 0.027883822 -0.053244457 0.07534189 -0.083182745 -0.048386373
0.06665155 0.015623634 -0.0024172235 -0.00033794047 0.032639734 0.03079837 0.002524697 -0.066121764
-0.05786677 0.0076346225 0.0025734967 -0.045671657 -0.005009698 0.04747906 -0.019114295 0.011375695
-0.045003448 0.033790097 -0.0074790004 0.043890156 0.0708482 -0.05476279 -0.04282338 0.05993895
0.08301313 -0.060001533 0.08633515 -0.06965455 0.0026431088 0.05230451 -0.073097706 -0.07664767
0.03168347 0.08106047 0.043570694 0.052797996 -0.0850582 0.060907174 -0.06798568 0.039513055
0.03613955 -0.05588512 -0.012123545 0.037877046 -0.038118377 0.010634964 -0.03367646 -0.08247302
-0.07438315 -0.020366186 0.04458302 0.02812508 -0.031675614 -0.03867986 0.009688635 -0.028174246
0.0004186627 0.06823379 0.0479151 0.014946807 0.07260767 -0.071763575 -0.0103556905 -0.003702941
-0.05294446 -0.081833094 -0.036381133 -0.0119203385 -0.031643994 -0.04362042 0.07751563 0.023242032
-0.02301151 0.003953276 -0.044121955 0.070641056 -0.026954437 -0.0071131242 -0.037608534 -0.07983885
0.041680217 0.027758583 -0.029194996 0.012756023 0.018140007 -0.036729597 -0.01758484 -0.06763673
-0.03168903 -0.016233299 0.059889097 -0.06366868 0.008963712 -0.032359205 0.08616821 0.084414266
-0.078693554 0.050281648 -0.056476053 -0.040554 0.05207225 0.08784157 -0.07300662 -0.07977488
0.08812008 -0.05398911 -0.054315835 0.08107258 -0.063535385 -0.034026932 -0.07893077 -0.05337642
0.022777889 0.034364905 0.045639675 -0.052864023 -0.05583576 -0.07491526 0.05183037 -0.0008649471
0.071919106 0.015487676 0.007990547 0.049685504 0.045632035 0.0012875063 -0.06459476 0.08328489
0.0705702 0.0784364 0.08426221 -0.023061734 -0.033193126 0.032859463 0.05618279 0.009063353
-0.017571026 0.011305822 0.043165945 -0.021006064 -0.015931457 0.04361501 0.06477646 -0.040487293
0.06734188 0.08765864 0.042009145 -0.07816078 -0.020295508 -0.027246041 0.02597637 -0.0030758914
0.021510871 -0.06019694 -0.04445234 0.01838652 -0.008341871 0.06236688 0.02025634 -0.07666053
-0.0781009 -0.030011185 0.084242165 -0.07324069 0.034645256 0.0351748 0.06537998 0.0823801
0.020534998 0.028034775 0.045787405 0.08377442 0.02467746 -0.06508352 0.0880165 -0.031669907
-0.045142885 0.0390887 -0.08809892 0.07373836 -0.008996771 -0.035344087 0.086656176 -0.009527132
0.027797144 -0.028805036 -0.01433046 -0.03968025 -0.058950033 -0.04955094 -0.0053971633 -0.06827352
-0.050076928 -0.026486166 0.06490275 0.061402254 0.08251479 -0.07379335 -0.06563651 -0.050118223
00000000: fa63 9fbd 8dd4 48bd e4f8 823d 3a24 ad3d
00000010: 484b acbd 181b 143d 3a35 dabc 4394 e73c
00000020: 3c9a a5bd ef0f 5b3d b9de 513d 795e 27bd
00000030: 644d 66bc 2606 3c3d 2793 aa3d 79bd b4bd
00000040: 1fbf 04bd 9751 59bd 45aa 88bd 856b 1e3d
00000050: 9c32 f0bc ad51 eabc 14ca 05bc ad38 24bc
00000060: 20a1 77bc f91b 12bd 735c 0d3d da75 903c
00000070: cbf2 e73c 5a75 92bd 8471 7bbd e47b 6a3c
00000080: 0f98 0cbd 7cb7 85bd e2ce aebd 51f9 0d3c
00000090: 7321 61bd 84d1 88bd b5c2 433d 9d6e 003d
000000a0: 2738 02bd 7a26 90bd 1afa 49bd 66fb dcbc
000000b0: c87f 94bd 2fb2 1f3c 7f8c 08bc af45 1f3d
000000c0: 0f23 9b3d 5f24 25bd 929d 9abc 9d6c e43c
000000d0: dc16 5abd d94c 9a3d b75b aabd ca30 46bd
000000e0: 9c80 883d 45fa 7f3c 486a 1ebb 9a2d b1b9
000000f0: 3eb1 053d dd4c fc3c 6375 253b d96a 87bd
00000100: b505 6dbd db2b fa3b 1ca8 283b 3412 3bbd
00000110: 6528 a4bb 6779 423d 9595 9cbc 1f61 3a3c
00000120: 8955 38bd 7c67 0a3d 6712 f5bb 2ac6 333d
00000130: dc18 913d f34e 60bd 9267 2fbd 8b82 753d
00000140: ca02 aa3d 2bc4 75bd 7cd0 b03d 0ba7 8ebd
00000150: 0238 2d3b 413d 563d 40b4 95bd 74f9 9cbd
00000160: 87c6 013d 0803 a63d 2f77 323d b642 583d
00000170: fe32 aebd cd79 793d 143c 8bbd 71d8 213d
00000180: 1107 143d cce7 64bd d5a1 46bc f624 1b3d
00000190: 0422 1cbd 463e 2e3c 54f0 09bd 9de7 a8bd
000001a0: 3156 98bd fdd6 a6bc af9c 363d 9166 e63c
000001b0: 4abe 01bd c66e 1ebd 15bd 1e3c adcd e6bc
000001c0: f57f db39 28be 8b3d a042 443d 74e3 743c
000001d0: 55b3 943d c8f8 92bd eaaa 29bc 0aad 72bb
000001e0: 4adc 58bd 1c98 a7bd 6204 15bd 864d 43bc
000001f0: 229d 01bd 53ab 32bd 84c0 9e3d 1366 be3c
00000200: a282 bcbc 7c8a 813b 39b9 34bd 42ac 903d
00000210: 8dcf dcbc 3615 e9bb 680b 1abd 8d82 a3bd
00000220: e0b8 2a3d f865 e33c 582a efbc a3fe 503c
00000230: 5a9a 943c c671 16bd 150e 90bc 2085 8abd
00000240: 5bcc 01bd b2fb 84bc 454e 753d ba64 82bd
00000250: 88dc 123c 168b 04bd f578 b03d 63e1 ac3d
00000260: 162a a1bd 21f4 4d3d 6f53 67bd f31b 26bd
00000270: b649 553d 48e6 b33d 7f84 95bd 0361 a3bd
00000280: 4d78 b43d af23 5dbd 487a 5ebd 6109 a63d
00000290: d71e 82bd d35f 0bbd 75a6 a1bd 3ca1 5abd
000002a0: b298 ba3c 37c2 0c3d abf0 3a3d f287 58bd
000002b0: 0ab4 64bd 2c6d 99bd 154c 543d 9ebd 62ba
000002c0: 534a 933d 05c0 7d3c c9ea 023c 0783 4b3d
000002d0: a8e8 3a3d 8bc1 a83a 424a 84bd 4591 aa3d
000002e0: 1c87 903d 43a3 a03d aa91 ac3d f6eb bcbc
000002f0: 84f5 07bd a597 063d ed1f 663d 757e 143c
00000300: 1df1 8fbc 0e3c 393c c6ce 303d e914 acbc
00000310: b082 82bc a7a5 323d 85a9 843d 01d6 25bd
00000320: 8aea 893d 6086 b33d c811 2c3d c212 a0bd
00000330: c442 a6bc 1733 dfbc 65cc d43c e594 49bb
00000340: 9137 b03c 1191 76bd a813 36bd 549f 963c
00000350: 58ac 08bc 6a74 7f3d a0f0 a53c 3200 9dbd
00000360: 5df3 9fbd 04da f5bc 2887 ac3d 37ff 95bd
00000370: 2fe8 0d3d 7313 103d f0e5 853d e6b6 a83d
00000380: 0339 a83c 2fa9 e53c 938b 3b3d ec91 ab3d
00000390: 6228 ca3c 824a 85bd ff41 b43d 4eb8 01bd
000003a0: bfe7 38bd 791b 203d 356d b4bd 2304 973d
000003b0: 3167 13bc f6c4 10bd cb78 b13d b017 1cbc
000003c0: d6b6 e33c 8af8 ebbc 4eca 6abc c287 22bd
000003d0: 9775 71bd edf5 4abd b0da b0bb fdd2 8bbd
000003e0: 771d 4dbd 84f9 d8bc bceb 843d ee80 7b3d
000003f0: 84fd a83d f820 97bd 6f6c 86bd c448 4dbd

bias_hh_l0 f4 [384]
-0.033471465 0.030942088 -0.06979498 -0.062001318 0.0242215 0.08676706 -0.05607093 -0.047893155
0.06539914 -0.06842461 0.08043457 -0.06673779 -0.065549575 -0.05490215 0.014799819 0.08497229
0.051005557 -0.04950461 -0.06867474 0.02865487 -0.045305125 -0.0698583 -0.083078675 0.018035678
0.07702154 -0.05753654 0.07650763 -0.03214574 -0.015072381 0.030107005 0.060439248 -0.059924
0.0055737486 0.049721166 -0.02652249 -0.03370492 -0.08025672 0.019521145 -0.084255874 -0.05047067
0.013973165 -0.0812046 0.002000097 0.042656653 -0.037546404 0.049172223 0.080486126 -0.03288309
0.06566521 -0.00034567324 0.07087789 0.017508617 0.08626405 0.051999234 0.02499984 0.072300844
-0.0062128655 0.079099946 0.031090712 0.027148759 -0.060985997 -0.0024044742 0.010273005 -0.03987293
0.08807173 0.033653293 0.036509212 0.017747464 0.022121167 0.0035534548 0.0041121054 0.078712374
0.0033185354 0.041772317 0.02143202 -0.021188518 -0.044782557 -0.03593867 -0.07586588 0.051778223
-0.030071922 -0.012065383 0.08797059 -0.037915766 0.022619998 0.07929674 0.016111905 -0.040290773
-0.04799313 -0.0430603 0.018110476 -0.008308578 0.012585533 0.019857587 -0.08769637 0.035252318
0.015532823 0.047635786 0.058545697 -0.04234769 0.036420945 -0.001644467 -0.033093106 0.07217759
-0.035399847 0.045009814 0.06893657 -0.07658932 -0.030318948 0.085428275 -0.08602603 0.08748278
-0.01751638 0.08323956 -0.04247521 0.06656467 -0.07975042 -0.07371132 -0.032625265 -0.03739607
-0.0668026 -0.025945505 0.067484505 0.035826035 0.077729635 -0.06505763 -0.01921022 0.054436203
0.08500547 0.0061236806 0.028863197 0.00476329 -0.059494723 -0.05509807 -0.07932532 0.04347786
-0.019203989 -0.0031200831 0.028330361 -0.06357155 0.06032351 0.039625403 -0.06491198 -0.054843076
0.069932565 0.023068806 -0.013337994 -0.016889155 -0.07063633 -0.042434353 0.024272569 0.088264026
-0.08343193 -0.011277572 -0.0009469686 -0.047604345 -0.046978153 0.038345717 -0.019908 -0.013110381
-0.075132266 0.018604696 0.06022013 -0.0061634323 0.04832114 0.011675096 -0.075167485 -0.08527868
-0.05094954 0.019591853 0.009595698 0.045980386 -0.08370963 -0.030576944 0.06569358 0.024004433
0.081158675 0.0045207697 0.028346905 0.065029986 0.016450262 -0.017397456 -0.002293669 -0.069188125
-0.00012925162 0.038767423 0.08222714 0.010711957 0.020757757 0.06061192 0.06907732 0.012425755
-0.084921286 -0.027113315 0.04100637 0.056972977 0.016942758 0.033398297 -0.023581615 0.07640194
-0.028734768 -0.05485798 0.056207977 0.031692732 0.037110183 0.05897756 -0.04452357 0.039671436
-0.057628013 -0.071788415 -0.0034209508 0.027511017 0.05101422 0.065767236 0.071994826 0.04224198
0.06596766 0.06573312 0.009714848 -0.047993783 -0.08824213 -0.035412215 -0.07460045 -0.068323225
0.03561303 -0.06938822 0.08109185 -0.052934438 0.053877726 0.024276784 0.07943066 -0.0026781443
0.084515855 0.052545324 0.08092111 0.013095557 -0.03579179 -0.05792412 -0.0186801 -0.030386524
-0.0437404 -0.037119817 -0.06667645 0.017386477 0.01854286 0.01759804 0.0659875 -0.0753318
-0.01967032 0.08747588 0.054416943 0.023376463 0.009083234 -0.08444581 -0.037029207 0.087606505
00000000: 6019 09bd 437a fd3c acf0 8ebd 18f5 7dbd
00000010: 2b6c c63c eeb2 b13d a2aa 65bd 9d2b 44bd
00000020: fcef 853d 3422 8cbd e1ba a43d d3ad 88bd
00000030: db3e 86bd 14e1 60bd f17a 723c f405 ae3d
00000040: 34eb 503d 59c5 4abd 58a5 8cbd 9ebd ea3c
00000050: de91 39bd de11 8fbd 2725 aabd 8fbf 933c
00000060: 78bd 9d3d 6fab 6bbd 08b0 9c3d 40ab 03bd
00000070: 26f2 76bc f7a2 f63c 258f 773d de72 75bd
00000080: fea3 b63b 6ca8 4b3d b145 d9bc 2c0e 0abd
00000090: a35d a4bd cfea 9f3c 588e acbd 55ba 4ebd
000000a0: b4ef 643c 994e a6bd 0f14 033b beb8 2e3d
000000b0: 42ca 19bd d068 493d e9d5 a43d 6bb0 06bd
000000c0: 7b7b 863d 7a3b b5b9 6d28 913d 3b6e 8f3c
000000d0: 35ab b03d 26fd 543d 77cc cc3c 7712 943d
000000e0: 4b95 cbbb 27ff a13d f3b1 fe3c 1367 de3c
000000f0: 74cc 79bd 6294 1dbb 1b50 283c cc51 23bd
00000100: f45e b43d 09d8 093d af8a 153d 2163 913c
00000110: 7337 b53c 14e1 683b d7be 863b f433 a13d
00000120: c97b 593b 7319 2b3d 3492 af3c 8b93 adbc
00000130: ea6d 37bd 6d34 13bd 925f 9bbd 6715 543d
00000140: 6459 f6bc e2ad 45bc ed29 b43d 904d 1bbd
00000150: 934d b93c 5466 a23d 1dfd 833c f007 25bd
00000160: 7294 44bd ff5f 30bd 6c5c 943c b420 08bc
00000170: 8d33 4e3c 61ac a23c 289a b3bd bc64 103d
00000180: 627d 7e3c be1d 433d 9dcd 6f3d c574 2dbd
00000190: 212e 153d 288b d7ba a38c 07bd d8d1 933d
000001a0: 6eff 10bd 365c 383d 9e2e 8d3d ddda 9cbd
000001b0: 715f f8bc 05f5 ae3d 6a2e b0bd 2c2a b33d
000001c0: 837e 8fbc 8179 aa3d 7cfa 2dbd 0f53 883d
000001d0: 3054 a3bd f6f5 96bd 12a2 05bd 9f2c 19bd
000001e0: cdcf 88bd ab8b d4bc 5135 8a3d 52be 123d
000001f0: b730 9f3d ef3c 85bd c05e 9dbc 7ff8 5e3d
00000200: 5917 ae3d 28a9 c83b 8372 ec3c 5f15 9c3b
00000210: bdb0 73bd 84ae 61bd 5075 a2bd d715 323d
00000220: af51 9dbc 4f7a 4cbb 1315 e83c cd31 82bd
00000230: c915 773d 3f4e 223d 92f0 84bd 22a3 60bd
00000240: ce38 8f3d cbfa bc3c 9a87 5abc 205b 8abc
00000250: c8a9 90bd a5cf 2dbd 44d7 c63c c5c3 b43d
00000260: 5cde aabd 91c5 38bc fd3d 78ba c6fc 42bd
00000270: 2a6c 40bd 6610 1d3d 1a16 a3bc eccc 56bc
00000280: f2de 99bd e068 983c 62a9 763d 9ef6 c9bb
00000290: 63ec 453d e748 3f3c 69f1 99bd 97a6 aebd
000002a0: 77b0 50bd 187f a03c 4637 1d3c ee55 3c3d
000002b0: f46f abbd 807c fabc 5b8a 863d f2a4 c43c
000002c0: 8536 a63d f722 943b c537 e83c 712e 853d
000002d0: b3c2 863c 1c85 8ebc 6151 16bb 81b2 8dbd
000002e0: b887 07b9 97ca 1e3d b466 a83d 3481 2f3c
000002f0: 2c0c aa3c 3444 783d 6978 8d3d 6595 4b3c
00000300: 36eb adbd be1c debc 4cf6 273d 7f5c 693d
00000310: 8acb 8a3c a7cc 083d 3b2e c1bc 9f78 9c3d
00000320: 2d65 ebbc c3b2 60bd 563a 663d 3dd0 013d
00000330: d900 183d 7492 713d 595e 36bd 847e 223d
00000340: 5a0b 6cbd ce05 93bd 0832 60bb c95e e13c
00000350: 49f4 503d f9b0 863d 0672 933d ed05 2d3d
00000360: 0d1a 873d 169f 863d 072b 1f3c 2195 44bd
00000370: 4ab8 b4bd 660c 11bd 1fc8 98bd 0ced 8bbd
00000380: f8de 113d 691b 8ebd 7c13 a63d c8d1 58bd
00000390: e4ae 5c3d 1be0 c63c 8bac a23d ce83 2fbb
000003a0: a616 ad3d c439 573d f8b9 a53d bf8e 563c
000003b0: 699a 12bd d841 6dbd 0207 99bc 29ed f8bc
000003c0: 2229 33bd f30a 18bd aa8d 88bd 166e 8e3c
000003d0: 32e7 973c c429 903c 7424 873d 8f47 9abd
000003e0: a723 a1bc 8e26 b33d 4de4 5e3d ff7f bf3c
000003f0: d8d1 143c edf1 acbd f0ab 17bd 0a6b b33d

weight_ih_l1 f4 [384, 128]
0.029512705 0.045546606 0.085240014 0.047936168 -0.03096929 -0.0144637665 0.024666013 -0.04116743
0.0246511 0.062073313 -0.06646642 -0.0017965675 -0.07190072 -0.053397845 -0.08774578 0.047642365
-0.070903495 0.06879604 0.0077779274 0.07807522 -0.04127484 -0.044099033 -0.003195237 -0.08252164
-0.08153342 -0.033844993 -0.019499708 0.058521528 -0.007383007 0.01220375 0.05398782 0.06508256
-0.040169057 0.05407623 -0.063633695 -0.040878512 -0.07945731 -0.04544384 0.058031008 -0.05389119
-0.082957044 0.08414906 -0.01677856 -0.041727968 -0.022075351 0.018232206 -0.07193635 0.022778582
0.024827244 -0.062204164 -0.03934012 0.040746484 -0.04921199 0.048350126 0.07189415 0.0008055244
0.083478734 0.012587119 0.035644572 -0.011240845 0.017713536 0.016867723 -0.05327278 -0.009859156
0.066510685 -0.0111682275 -0.06479262 0.0063599544 -0.073627986 0.030945184 0.047551345 -0.008151638
-0.07147364 0.033399925 0.006597397 -0.06705737 0.08522313 0.0831408 0.009510747 -0.059919145
-0.07825821 0.00042173042 -0.07717391 0.08732663 0.030598415 0.07463292 -0.009604252 0.02708976
0.0050002323 -0.0707509 -0.01632505 0.050149966 0.06239449 0.004398573 0.053821646 -0.08263359
-0.013432432 -0.017490191 -0.05239834 -0.02970139 -0.06869622 -0.014310577 0.05903567 -0.07009455
0.002649339 -0.07580179 0.04150197 0.016304867 0.009269911 0.03627026 0.08250428 -0.0049154735
-0.06814782 0.03218403 -0.0040920284 0.08142679 -0.085141 0.03839573 0.010827951 0.058147278
-0.08480628 0.075758114 0.03691711 0.039525233 0.053129606 -0.03694467 -0.0106208185 -0.032201845
-0.071629226 -0.0049941144 0.04251727 -0.0277734 0.036154114 0.048584294 -0.022020213 0.024275776
0.021671802 -0.024056055 -0.036213353 0.021680858 -0.074355535 -0.00573091 0.04297552 0.00091807963
-0.036189053 0.0009302295 0.00908906 0.03183131 -0.06721308 -0.081912555 0.016048208 -0.08078332
0.056098472 0.047439985 0.03775428 0.02634809 -0.04812946 0.055402502 -0.03812944 0.0856269
0.01567662 0.05954399 -0.028314877 -0.051244818 -0.020436898 -0.007953178 0.087393105 0.07456552
0.021978404 -0.017851548 0.044175018 0.080608726 -0.017368726 -0.08605587 -0.06500302 -0.07926941
0.016827734 0.08627599 0.046715975 0.016580278 -0.05484979 -0.009824104 0.00076723914 -0.07160053
-0.012518439 -0.01875535 0.021819666 0.02838068 -0.02060951 0.02020693 0.084973946 -0.038604897
-0.007289901 -0.00521915 0.05099283 -0.025042474 -0.0067621525 0.06073659 -0.039169 -0.012129367
-0.046419572 0.031617116 0.008443734 -0.065132365 -0.06588809 0.024569277 0.00882655 0.08137883
-0.011746053 0.015871825 -0.048794802 0.035953157 -0.08060712 -0.0070441947 0.03606152 0.069708824
0.025478924 0.07758357 -0.03774678 0.087061286 0.019868221 -0.0210837 -0.072724424 -0.06778127
-0.0539718 -0.05626443 0.034135576 -0.0067310315 0.08159623 -0.03448963 -0.057748266 -0.044423737
-0.016472846 -0.017501324 -0.025039012 -0.030121395 0.03211301 -0.04360233 -0.047124848 -0.05725788
0.06098089 0.01869306 -0.08598175 0.024407748 0.009183959 -0.061513934 -0.015385907 0.012587358
-0.049197305 0.03728916 0.022773067 -0.06880277 -0.07647308 0.022467185 -0.0004935995 -0.0122442255
00000000: a1c4 f13c 148f 3a3d 5192 ae3d b758 443d
00000010: 4fb3 fdbc 6ff9 6cbc 6110 ca3c 2e9f 28bd
00000020: 1bf1 c93c 9640 7e3d 8c1f 88bd cd7a ebba
00000030: af40 93bd b3b7 5abd 0fb4 b3bd a424 433d
00000040: da35 91bd f0e4 8c3d fcdd fe3b e7e5 9f3d
00000050: ce0f 29bd 30a1 34bd 2e67 51bb 1b01 a9bd
00000060: fefa a6bd 0ca1 0abd dabd 9fbc 45b4 6f3d
00000070: 27ed f1bb 3df2 473c 5522 5d3d 014a 853d
00000080: 4f88 24bd 097f 5d3d 6252 82bd 3a70 27bd
00000090: 84ba a2bd 5223 3abd ecb1 6d3d 02bd 5cbd
000000a0: 62e5 a9bd 5856 ac3d 3173 89bc f2ea 2abd
000000b0: 5ed7 b4bc b55b 953c 5d53 93bd 269a ba3c
000000c0: 8162 cb3c cbc9 7ebd 1b23 21bd c9e5 263d
000000d0: 8392 49bd c80a 463d 3d3d 933d d429 533a
000000e0: e6f6 aa3d 343a 4e3c 0b00 123d 852b 38bc
000000f0: fa1b 913c 2e2e 8a3c 8f34 5abd 4c88 21bc
00000100: c136 883d f1fa 36bc feb1 84bd 2a67 d03b
00000110: 45ca 96bd c180 fd3c 33c5 423d 738e 05bc
00000120: c660 92bd 5cce 083d fa2e d83b 6055 89bd
00000130: 7789 ae3d b945 aa3d f7d2 1b3c c76d 75bd
00000140: d745 a0bd b31b dd39 5b0d 9ebd 4ed8 b23d
00000150: 87a9 fa3c 25d9 983d 275b 1dbc 58eb dd3c
00000160: fdd8 a33b d9e5 90bd 1cbc 85bc 0d6a 4d3d
00000170: 5d91 7f3d e821 903b 1674 5c3d cd3b a9bd
00000180: b413 5cbc 9747 8fbc a49f 56bd 5450 f3bc
00000190: 9bb0 8cbd e976 6abc 63cf 713d bb8d 8fbd
000001a0: 88a0 2d3b f83d 9bbd f8fd 293d c991 853c
000001b0: d3e0 173c 2090 143d 01f8 a83d fb11 a1bb
000001c0: 1691 8bbd 67d3 033d 6c16 86bb 17c3 a63d
000001d0: 685e aebd d744 1d3d b867 313c d72b 6e3d
000001e0: eaae adbd 1227 9b3d 6536 173d 36e5 213d
000001f0: 6e9e 593d 4b53 17bd f102 2ebc 15e6 03bd
00000200: 58b2 92bd aba5 a3bb 9726 2e3d 0b85 e3bc
00000210: 5616 143d 5300 473d bc63 b4bc fedd c63c
00000220: 1089 b13c 3411 c5bc 7454 14bd 0e9c b13c
00000230: b747 98bd 5cca bbbb 1907 303d 48ab 703a
00000240: f93a 14bd a5da 733a 48ea 143c 8c61 023d
00000250: 03a7 89bd c5c1 a7bd 8877 833c ba71 a5bd
00000260: 83c7 653d 6e50 423d 3ba4 1a3d f3d7 d73c
00000270: 6623 45bd bced 623d 9e2d 1cbd 285d af3d
00000280: 416c 803c 66e4 733d 9af4 e7bc 16e6 51bd
00000290: 486b a7bc 0c4e 02bc 28fb b23d cfb5 983d
000002a0: 0e0c b43c 693d 92bc ddf0 343d 3016 a53d
000002b0: dc48 8ebc 0f3e b0bd 4e20 85bd 0058 a2bd
000002c0: 51da 893c 77b1 b03d 4059 3f3d 5dd3 873c
000002d0: 2caa 60bd 47f5 20bc 8c20 493a 4ca3 92bd
000002e0: 241a 4dbc d2a4 99bc 28bf b23c 9a7e e83c
000002f0: 46d5 a8bc 0189 a53c d206 ae3d 2b20 1ebd
00000300: 1fe0 eebb 6705 abbb dcdd 503d e025 cdbc
00000310: 0c95 ddbb eec6 783d ac6f 20bd 41ba 46bc
00000320: 7322 3ebd f380 013d 9657 0a3c 1e64 85bd
00000330: 56f0 86bd 8245 c93c 3c9d 103c f2a9 a63d
00000340: 8472 40bc a105 823c 0fdd 47bd 9e43 133d
00000350: 5915 a5bd fdd2 e6bb 3fb5 133d 80c3 8e3d
00000360: 2db9 d03c 22e4 9e3d 5e9c 1abd 304d b23d
00000370: aec2 a23c b9b7 acbc 8bf0 94bd e8d0 8abd
00000380: 8911 5dbd 8875 66bd bfd1 0b3d fc8f dcbb
00000390: ed1b a73d 0045 0dbd 7289 6cbd aaf5 35bd
000003a0: 10f2 86bc f05e 8fbc 9d1e cdbc 25c1 f6bc
000003b0: ee88 033d 5b98 32bd fc05 41bd 3d87 6abd
000003c0: 19c7 793d 3022 993c 3317 b0bd c2f2 c73c
000003d0: 5178 163c 09f6 7bbd 2c15 7cbc 353b 4e3c
000003e0: 1d83 49bd 85bc 183d 958e ba3c 77e8 8cbd
000003f0: eb9d 9cbd 1a0d b83c e764 01ba 019c 48bc

weight_hh_l1 f4 [384, 128]
-0.050228667 -0.06066159 0.04479108 -0.046255715 -0.021591088 -0.05419073 0.08104713 -0.011783506
-0.054952912 -0.015931804 0.080402486 -0.01739436 -0.02444119 -0.07759378 0.017727936 -0.032953694
-0.071714856 0.07145599 0.07345788 0.051132903 0.08292001 0.014672656 0.054445654 0.057635564
-0.013176778 0.040595096 0.009623677 0.08147695 -0.0063604317 0.027183296 0.052423157 0.035726365
0.052566998 -0.07024666 -0.0013920455 -0.06853931 -0.04620196 -0.07731988 -0.059023257 0.014219268
0.07042916 -0.04064214 -0.026205415 0.017908568 0.022901766 -0.013507478 0.015248809 0.060139444
-0.006593557 -0.08087611 0.05344217 -0.030727133 -0.039836507 -0.04010786 0.08815276 0.01051642
0.033542585 0.026649116 -0.07305263 -0.01416984 0.08770717 -0.075640276 0.025981825 -0.011573454
-0.047068328 -0.06497116 0.06591055 -0.07456457 -0.082145 -0.035862748 0.021471143 -0.055089902
0.0054534753 -0.061901197 0.00697028 0.07481942 0.055938385 -0.05107959 -0.04473848 0.028608928
0.0352799 -0.032338217 -0.053722467 0.046994347 -0.008503798 0.035084926 0.06398095 -0.027944947
0.062677704 0.020200586 0.06286591 0.08242151 0.037564047 -0.08585527 0.0031978996 -0.026878197
-0.083138585 0.08115324 -0.024441322 0.061036557 -0.067043684 0.08749283 -0.06791636 -0.004021381
0.065691225 -0.058509592 -0.032707583 0.008212578 0.07396287 -0.074119285 0.075037 0.077635586
-0.010464877 -0.029168624 -0.0075454456 -0.014510934 -0.021949533 -0.016703734 0.052598637 0.08258539
0.023543555 -0.048025884 0.008900827 -0.04747016 0.022655554 0.086731024 -0.010962046 -0.021590136
-0.008705745 0.06352654 0.064590044 -0.0011518113 -0.009689721 0.031322088 0.07502996 -0.07416172
0.038415845 -0.010886097 0.07528365 -0.017207345 0.0009530348 0.04942635 -0.046662197 -0.038044497
0.063990094 0.07071353 -0.05171471 -0.026773699 0.06583389 0.035026535 -0.025680667 -0.029274007
-0.06708397 0.041019693 -0.038576763 -0.054006122 0.037344065 0.03975971 -0.012193862 -0.011381366
0.007940354 -0.0060806684 0.005938957 -0.030581115 0.08384928 -0.0032044128 0.007014701 0.02573296
0.06585769 0.08719822 -0.06983843 -0.0517839 0.060199067 -0.07255739 -0.08828696 0.03964634
0.017177776 -0.02033942 0.0215176 0.08763532 0.07662001 0.040637948 -0.0404007 -0.009888975
0.078522615 0.08108264 -0.06194886 -0.0035327275 -0.069680296 0.04089266 0.03265001 0.05448128
-0.007520408 -0.008339253 -0.0057311384 -0.03224208 0.06346459 -0.00046079428 0.049506422 -0.043340128
0.078178026 -0.053859185 0.07190986 -0.039072685 0.007436409 -0.0051292027 -0.05578354 -0.025368826
0.049474828 -0.08276898 -0.009432735 -0.04140078 -0.055724792 0.022969458 0.009206326 -0.070743255
-0.045772076 -0.014316289 0.028939417 -0.06913504 -0.056309648 -0.024966532 0.0062887957 -0.06409807
0.0716744 0.070784815 0.04642059 -0.033705037 -0.035424806 -0.08570431 0.0818461 -0.046717983
0.07218099 0.05215356 -0.031860422 -0.062312353 -0.069329426 0.047152698 -0.07868819 -0.05791211
0.031191116 0.000596858 -0.05450715 -0.043006536 -0.03662126 0.010077059 -0.069494426 -0.0636777
-0.065000564 0.020822037 -0.021986835 0.060910434 -0.073819906 -0.009494345 0.060587022 -0.055897903
00000000: 93bc 4dbd 4a78 78bd da76 373d a276 3dbd
00000010: cbdf b0bc 19f7 5dbd 0afc a53d 9b0f 41bc
00000020: 4e16 61bd 6a83 82bc 0faa a43d 9e7e 8ebc
00000030: e438 c8bc 7de9 9ebd 2d3a 913c 74fa 06bd
00000040: 3ddf 92bd 8557 923d 1671 963d bc70 513d
00000050: f7d1 a93d 9465 703c 6802 5f3d 4513 6c3d
00000060: 6ae3 57bc 0b47 263d a0ac 1d3c 63dd a63d
00000070: 2b6b d0bb 81af de3c aab9 563d cf55 123d
00000080: 7e50 573d 7bdd 8fbd 4c75 b6ba 565e 8cbd
00000090: 443e 3dbd e359 9ebd 5fc2 71bd eff7 683c
000000a0: 2a3d 903d 5f78 26bd bdac d6bc fdb4 923c
000000b0: 7c9c bb3c 784e 5dbc 24d6 793c c754 763d
000000c0: c40e d8bb 60a2 a5bd 2de6 5a3d 78b7 fbbc
000000d0: 9b2b 23bd 2448 24bd 6f89 b43d 104d 2c3c
000000e0: f363 093d 3f4f da3c 9e9c 95bd 9e28 68bc
000000f0: d19f b33d 4ae9 9abd d6d7 d43c 969e 3dbc
00000100: b8ca 40bd 990f 85bd 1cfc 863d 4fb5 98bd
00000110: a33b a8bd d1e4 12bd 40e4 af3c f3a5 61bd
00000120: 11b3 b23b 1c8c 7dbd f266 e43b ed3a 993d
00000130: a61f 653d d538 51bd b23f 37bd 455d ea3c
00000140: a881 103d 1475 04bd 170c 5cbd 257d 403d
00000150: 8453 0bbc 36b5 0f3d 7208 833d cdec e4bc
00000160: 2b5d 803d b37b a53c d8bf 803d 9ccc a83d
00000170: c2dc 193d e3d4 afbd da93 513b aa2f dcbc
00000180: 9044 aabd ab33 a63d 2b39 c8bc 7801 7a3d
00000190: 334e 89bd 712f b33d bc17 8bbd cac5 83bb
000001a0: 1f89 863d c1a7 6fbd 63f8 05bd 0c8e 063c
000001b0: d879 973d dacb 97bd 00ad 993d 68ff 9e3d
000001c0: e074 2bbc 0af3 eebc c93f f7bb 45bf 6dbc
000001d0: 82cf b3bc 45d6 88bc ab71 573d 8722 a93d
000001e0: 6ade c03c cab6 44bd c6d4 113c 1270 42bd
000001f0: 2498 b93c 09a0 b13d 279a 33bc ccdd b0bc
00000200: 8ba2 0ebc 341a 823d c947 843d 60f8 96ba
00000210: a3c1 1ebc 974b 003d 4fa9 993d 1ae2 97bd
00000220: ef59 1d3d 9a5b 32bc 502e 9a3d 6bf6 8cbc
00000230: 15d5 793a 4973 4a3d dc20 3fbd 8cd4 1bbd
00000240: 3d0d 833d 41d2 903d ced2 53bd 8454 dbbc
00000250: ebd3 863d fc77 0f3d 4360 d2bc 0bd0 efbc
00000260: 5263 89bd 4404 283d ab02 1ebd 8635 5dbd
00000270: 17f6 183d 14db 223d c4c8 47bc e978 3abc
00000280: 4218 023c 5840 c7bb 959b c23b 3f85 fabc
00000290: 2cb9 ab3d 2001 52bb 94db e53b eecd d23c
000002a0: 66e0 863d fb94 b23d 7307 8fbd 5b1b 54bd
000002b0: 4c93 763d f898 94bd cbcf b4bd 3364 223d
000002c0: 68b8 8c3c db9e a6bc ae45 b03c 267a b33d
000002d0: f4ea 9c3d fa73 263d 347b 25bd 5e05 22bc
000002e0: 77d0 a03d a80e a63d 16be 7dbd 5585 67bb
000002f0: 8bb4 8ebd 107f 273d 04bc 053d c327 5f3d
00000300: c16d f6bb 5da1 08bc 46cc bbbb 4510 04bd
00000310: b9f9 813d c396 f1b9 3fc7 4a3d 6b85 31bd
00000320: cd1b a03d 739b 5cbd 7a45 933d ae0a 20bd
00000330: 1fad f33b df12 a8bb 487d 64bd 49d2 cfbc
00000340: 1ea6 4a3d c882 a9bd c28b 1abc dd93 29bd
00000350: ae3f 64bd 722a bc3c 21d6 163c d7e1 90bd
00000360: 807b 3bbd de8e 6abc 5b12 ed3c ac96 8dbd
00000370: f2a4 66bd 9d86 ccbc 3e12 ce3b d945 83bd
00000380: 07ca 923d a1f7 903d 8423 3e3d 4b0e 0abd
00000390: 9a19 11bd be85 afbd ee9e a73d 5b5b 3fbd
000003a0: a0d3 933d f99e 553d 1380 02bd 3d3b 7fbd
000003b0: 96fc 8dbd 3023 413d 4627 a1bd 4035 6dbd
000003c0: 8384 ff3c 7676 1c3a e442 5fbd 9f27 30bd
000003d0: 2d00 16bd 401a 253c 1853 8ebd 7469 82bd
000003e0: 041f 85bd fa92 aa3c bc1d b4bc 387d 793d
000003f0: e42e 97bd 2b8e 1bbc 192a 783d 33f5 64bd

bias_ih_l1 f4 [384]
0.078320324 0.07353989 0.0051457165 -0.052635994 -0.064081155 0.067653246 0.07033873 0.004726289
-0.015526374 -0.061536822 -0.01506648 0.084546864 -0.07373425 -0.084365964 0.03247981 0.070005186
0.07002314 0.06569569 0.06694657 0.035443928 -0.024130613 -0.005577903 -0.07549549 -0.068900764
0.0040312447 -0.04879306 0.08706777 0.032046013 0.01970409 0.058760285 0.0428462 0.01330095
-0.06426313 0.00422953 0.08629474 0.043705028 0.0020290406 -0.06572114 0.08552114 -0.015169253
-0.03450263 0.07392251 0.03488941 0.06716551 0.003447208 0.078850776 0.052009277 -0.014539084
0.06722421 0.044267714 -0.032503385 -0.055352326 -0.06210543 0.054078694 0.043188225 -0.06687245
-0.008318635 -0.08857674 -0.039013915 0.011733623 0.01468099 0.0011880271 -0.018879166 -0.08784782
-0.07953256 -0.000982746 0.054289382 -0.051685244 -0.033305142 0.004621706 0.042230252 0.051632825
-0.045411162 0.051565673 0.053602368 0.06517829 -0.0525582 -0.051576156 -0.073887825 -0.04216251
0.067929484 -0.0076995287 0.029319774 -0.013594111 0.009998386 -0.039244283 -0.0842929 0.047502916
0.035983894 -0.012542086 0.03637755 -0.01484812 0.06731152 0.03247053 0.056545965 -0.0115435375
0.024558501 -0.086441346 0.031003127 0.055124607 -0.06495949 0.050542533 -0.063488096 -0.01649884
-0.00091379194 -0.065568045 -0.069762945 0.08530216 0.013950708 0.08476588 0.062977485 -0.069694676
-0.042758014 0.03188664 -0.04501824 -0.01081946 0.058163524 -0.062786505 -0.02644711 -0.08188433
0.02248108 0.060002513 0.050176006 0.027315268 0.055102646 -0.033088647 -0.036029216 0.061870284
-0.014182048 0.08668346 0.0576075 -0.06246235 -0.035443854 -0.08840961 -0.025510097 0.06842798
-0.019642528 0.078990944 0.05999281 0.026329478 -0.08750295 -0.07648912 0.0823927 -0.004051574
0.016155394 -0.060074862 0.07789649 -0.028684525 0.020208836 0.044029858 0.018807244 0.044157807
0.004551933 -0.011720278 0.0113608 -0.049051087 0.060797967 0.05765069 0.048135106 -0.0016008401
-0.04538888 -0.01701379 0.018007467 0.0058581624 -0.055881083 0.042358406 0.019178808 -0.023399204
-0.033925235 0.040549282 0.030126186 -0.062155448 -0.013845479 0.08662971 -0.031009883 -0.06520487
-0.04282696 0.012328706 0.03278101 -0.044791035 -0.031245098 0.07567389 -0.06060831 -0.06480622
-0.023528947 -0.079641126 -0.0132173 0.059443697 0.019550245 -0.0010749765 0.069776386 0.044454075
-0.019856127 -0.038246382 -0.040447377 -0.025020309 -0.06619732 -0.042921394 -0.060330592 -0.009057628
-0.068894535 0.005915267 -0.08086153 -0.008306708 0.07431462 0.03977828 0.084286354 -0.058695592
-0.055216186 -0.059888054 0.00010435342 -0.060168095 0.025605062 -0.07706461 -0.031415798 -0.07653491
0.06716888 -0.030868633 -0.039183583 -0.02276352 0.03055224 0.042665087 -0.045314036 -0.012135359
0.032639235 0.007741194 -0.07309985 -0.037219316 0.023762474 0.0734282 -0.020252038 -0.030763082
-0.059571095 -0.07294831 0.08423272 0.07195575 0.024729267 0.009690503 0.068882026 -0.033349544
0.013127586 0.05445327 -0.046815284 0.08009429 0.026357183 -0.033879675 -0.050865293 0.06360954
0.025099143 -0.0036605285 0.08712097 0.08749484 -0.063788034 0.08779763 -0.03988866 -0.0804166
00000000: 6866 a03d 159c 963d 669d a83b d798 57bd
00000010: fb3c 83bd c98d 8a3d c10d 903d fcde 9a3b
00000020: 5562 7ebc 090e 7cbd 66d9 76bc e826 ad3d
00000030: fc01 97bd 10c8 acbd 8d09 053d e15e 8f3d
00000040: 4b68 8f3d 768b 863d 491b 893d a72d 113d
00000050: 90ad c5bc d7c6 b6bb 619d 9abd d81b 8dbd
00000060: 8818 843b 3bdb 47bd 9650 b23d ae42 033d
00000070: 796a a13c a0ae 703d 7f7f 2f3d 3aec 593c
00000080: 639c 83bd df97 8a3b 4cbb b03d 0b04 333d
00000090: a7f9 043b ce98 86bd b525 af3d 7588 78bc
000000a0: a152 0dbd af64 973d 33e8 0e3d 128e 893d
000000b0: 8eea 613b 847c a13d ae07 553d 5735 6ebc
000000c0: d9ac 893d 1052 353d 4522 05bd 1fb9 62bd
000000d0: 4362 7ebd 9f81 5d3d 23e6 303d 6cf4 88bd
000000e0: e24a 08bc b967 b5bd 0ecd 1fbd 623e 403c
000000f0: 8988 703c 93b7 9b3a 7ba8 9abc 8fe9 b3bd
00000100: f8e1 a2bd 7ccf 80ba 8b5e 5e3d e8b3 53bd
00000110: f96a 08bd ae71 973b a1f9 2c3d f17c 533d
00000120: 0e01 3abd 8736 533d 288e 5b3d 327c 853d
00000130: 4447 57bd 8541 53bd 8052 97bd 99b2 2cbd
00000140: 9d1e 8b3d 544c fcbb 0630 f03c d6b9 5ebc
00000150: 45d0 233c 9dbe 20bd c2a1 acbd 6b92 423d
00000160: d963 133d 527d 4dbc a000 153d 8745 73bc
00000170: 9fda 893d d2ff 043d be9c 673d 1b21 3dbc
00000180: e92e c93c 2908 b1bd 45fa fd3c 57ca 613d
00000190: 7b09 85bd b005 4f3d 0c06 82bd 9328 87bc
000001a0: 8a8b 6fba 8a48 86bd e0df 8ebd e6b2 ae3d
000001b0: 8391 643c bc99 ad3d 57fa 803d 15bc 8ebd
000001c0: 0723 2fbd 919b 023d 0c65 38bd 1b44 31bc
000001d0: e03c 6e3d 3696 80bd 9ca7 d8bc f9b2 a7bd
000001e0: 3e2a b83c 32c5 753d 5b85 4d3d 45c4 df3c
000001f0: 50b3 613d f687 07bd 5f93 13bd b26b 7d3d
00000200: d25b 68bc 1987 b13d d8f5 6b3d 85d8 7fbd
00000210: 932d 11bd 1910 b5bd 8dfa d0bc f823 8c3d
00000220: 5ee9 a0bc 01c6 a13d 05bb 753d ebb0 d73c
00000230: bf34 b3bd 54a6 9cbd 81bd a83d 11c3 84bb
00000240: 5158 843c 0f11 76bd 3288 9f3d cffb eabc
00000250: 008d a53c a758 343d a611 9a3c d1de 343d
00000260: 6228 953b 6906 40bc a622 3a3c cbe9 48bd
00000270: 4a07 793d 2123 6c3d 5129 453d 48d3 d1ba
00000280: b1e9 39bd 8160 8bbc 6584 933c d4f5 bf3b
00000290: 90e3 64bd 0280 2d3d e01c 9d3c b0af bfbc
000002a0: 30f5 0abd 0117 263d 31cb f63c b696 7ebd
000002b0: 26d8 62bc eb6a b13d 7008 febc 228a 85bd
000002c0: 536b 2fbd 57fe 493c 6145 063d ce76 37bd
000002d0: b8f5 ffbc eafa 9a3d 6b40 78bd 20b9 84bd
000002e0: c7bf c0bc e31a a3bd 608d 58bc 3c7b 733d
000002f0: d627 a03c 3ae6 8cba ece6 8e3d 7a15 363d
00000300: 51a9 a2bc 3da8 1cbd 26ac 25bd 64f7 ccbc
00000310: 7692 87bd 58ce 2fbd 361d 77bd 7266 14bc
00000320: 9418 8dbd dbd4 c13b bb9a a5bd dc18 08bc
00000330: 4332 983d 8dee 223d 539e ac3d ca6a 70bd
00000340: 5e2a 62bd 2d4d 75bd 51d8 da38 d272 76bd
00000350: b5c1 d13c 0dd4 9dbd daad 00bd 56be 9cbd
00000360: d68f 893d 37e0 fcbc f77e 20bd 907a babc
00000370: b148 fa3c 96c1 2e3d 369b 39bd 63d3 46bc
00000380: b8b0 053d d8a9 fd3b 60b5 95bd 4873 18bd
00000390: 85a9 c23c 8661 963d 9ae7 a5bc dc02 fcbc
000003a0: d200 74bd ec65 95bd 3482 ac3d 895d 933d
000003b0: 0895 ca3c eac4 1e3c 0512 8d3d 8899 08bd
000003c0: 1615 573c 640a 5f3d 62c1 3fbd 7a08 a43d
000003d0: 05eb d73c 6ac5 0abd 2058 50bd b845 823d
000003e0: b89c cd3c 7ae5 6fbb 7b6c b23d 7f30 b33d
000003f0: 4da3 82bd 3ecf b33d 4b62 23bd 75b1 a4bd
