model/critic_mean.pth (torch, 4215 bytes, 3 tensors)

weight_orig f4 [1, 128]
000000 f7 cf 25 be 75 5d 41 bc 8c 99 cc bd 7f 50 c9 3d
       -0.16192614 -0.011802067 -0.09990224 0.098298065
000010 64 da a5 bc 59 e2 8b 3d ed 85 86 3d fc fa bf 3d
       -0.020245738 0.06830282 0.06568513 0.09374043
000020 a5 36 32 bd 29 1a 60 3c 6d 50 87 3d 66 d8 b4 bc
       -0.043509144 0.013678112 0.06607137 -0.022075843
000030 21 d0 0d be 36 aa ec 3d c5 b0 a0 bd 3d 41 12 3e
       -0.13848926 0.11555903 -0.07846216 0.14282699
000040 dd a7 9e 3d 98 c2 dc bc ab 71 ae 3d 20 0d 42 bc
       0.07746861 -0.026948258 0.08517774 -0.01184395
000050 ec 5d 99 bd 1e 99 5c be 38 23 56 bc 62 59 26 3d
       -0.07488617 -0.21542785 -0.01306992 0.040612586
000060 7d 77 09 3d 93 36 97 bb 9f 3f 8e bb e9 27 39 3c
       0.03356122 -0.00461466 -0.0043410803 0.011301019
000070 7d 09 7c 3d 8d 17 a8 bd 3d 8a 9f 3d d7 50 0a 3e
       0.061532486 -0.08207617 0.07790039 0.135074
000080 9c 39 f5 3d de a9 35 3d 99 ed cf bd 9a c5 9d bc
       0.11973879 0.04435145 -0.1015274 -0.019259263
000090 30 54 34 3d 29 07 fe bd c8 3c 90 ba e1 d5 8c bd
       0.0440256 -0.124037094 -0.0011004442 -0.06876732
0000a0 eb 10 38 be 20 ff 93 bd 41 19 4f bd 7f fb 8f 3d
       -0.17975204 -0.072263956 -0.050561193 0.07030391
0000b0 7f 7f 2d bd a9 ba bd 3d 94 0a 3d 3d aa 85 f9 bd
       -0.042357918 0.09264118 0.046152666 -0.121836975
0000c0 26 1a 14 3d f1 7f 27 3e d1 76 a1 3b b5 c8 e2 3c
       0.03615775 0.163574 0.004927494 0.027683595
0000d0 77 99 d3 3d d7 d0 cc bc 6a 1c 42 be a4 96 1e 3e
       0.103320055 -0.025001926 -0.18956152 0.15487152
0000e0 57 c7 d8 3d 46 52 52 bd ab 53 3c 3e b5 3f 55 bd
       0.10584896 -0.051347993 0.18391292 -0.05206271
0000f0 5a d1 a4 3c 3e 1a 5c 3d 59 73 b2 3b 75 de c4 bc
       0.020119358 0.053735964 0.0054458794 -0.024031857
000100 d4 16 8f bd 57 ef d0 3d 3c de 23 bd 5b 8a b6 bb
       -0.06986776 0.102019005 -0.04000686 -0.0055706925
000110 f6 8e 62 bd 72 e4 b1 3c 39 1c d0 3c ca c7 fd 3c
       -0.05531212 0.021715377 0.025404083 0.030979056
000120 c1 18 04 3e 99 49 1c bd 8f 5f 6c 3d c6 dc bf bd
       0.12900068 -0.038156126 0.05770832 -0.09368281
000130 93 0d 83 bb ed 2c a4 bd 0e 20 30 3e 7e a3 18 bd
       -0.003999421 -0.080163814 0.17199728 -0.037265293
000140 5b ca 97 bd ef b3 5d 3d cb b7 f8 3c 05 e2 72 bd
       -0.07411643 0.054126676 0.030361077 -0.05929758
000150 9c c3 7d 3d a7 b3 44 3e 5c 7e 10 bd 8c 4d 97 bc
       0.061954126 0.19209157 -0.035276756 -0.018469594
000160 d2 30 86 be 54 75 38 bd 47 f8 11 3d fa 7d a1 3c
       -0.26209122 -0.045033768 0.035637166 0.01971339
000170 3f 3e 13 bc 34 1b a3 3d 49 c7 44 be 56 b0 05 3c
       -0.008987009 0.07964173 -0.19216646 0.008159718
000180 c1 47 22 bd fc 50 8a 3b 5d 87 b4 3d 76 4b 1f bd
       -0.03961921 0.00422108 0.08814881 -0.038890325
000190 9c fb ce bb 76 02 aa 3d f1 c0 26 3e d2 71 01 3e
       -0.0063166153 0.08301251 0.16284539 0.12641075
0001a0 7c bb 3d 3d 3b 67 e1 bd c5 03 7e 3c 00 60 ca 3d
       0.046321377 -0.11006018 0.015503828 0.09881592
0001b0 b5 f2 e6 bb c7 58 af 3d a6 f4 61 be fb 29 18 3d
       -0.007047976 0.08561855 -0.22065982 0.03714941
0001c0 63 57 39 3d 3d 3c b3 3d 1b 57 aa bc 3a 25 4c 3d
       0.045249354 0.08751724 -0.020793488 0.04984019
0001d0 0f e0 10 be 83 bc 7c bd 44 49 a8 3d 67 28 67 bd
       -0.14147972 -0.061703216 0.08217099 -0.056435015
0001e0 5e dc 9f bd 16 5f e4 bc 66 f3 cc bc b3 6e cf bd
       -0.078057036 -0.027877372 -0.025018405 -0.10128536
0001f0 2e ba 1a 3d cb ba 11 be a0 29 eb 3c 58 12 a2 3c
       0.03777521 -0.14231412 0.028706372 0.019784138

weight_v f4 [128]
000000 c9 51 25 3e d9 3d 39 3c 91 9d cd 3d d6 50 c8 bd
       0.1614448 0.01130625 0.10039819 -0.09781043
000010 a6 ea a1 3c bf de 8c bd 5c 86 85 bd cb f6 be bd
       0.01976521 -0.06878423 -0.06519768 -0.09324416
000020 23 3c 34 3d c0 f0 57 bc 79 55 88 bd c8 cd b8 3c
       0.044002663 -0.013179958 -0.066569276 0.022559062
000030 49 4e 0d 3e e5 ad ed bd 84 b0 a1 3d 8d bf 12 be
       0.13799395 -0.116054334 0.07894996 -0.14330883
000040 1a a4 9d bd 61 b6 d8 3c 2d 6d ad bd 9d 32 3a 3c
       -0.076973155 0.026454153 -0.08468089 0.011364606
000050 94 5c 98 3d 7e 1b 5c 3e 94 21 5e 3c 50 50 24 bd
       0.07439533 0.21494862 0.01355781 -0.040115654
000060 85 6e 07 bd fc 00 87 3b a9 67 7e 3b c6 24 31 bc
       -0.033064384 0.0041199904 0.003881911 -0.01081199
000070 44 16 7a bd 74 16 a9 3d 25 8b 9e bd ea d0 0a be
       -0.06105639 0.08256236 -0.077413835 -0.13556257
000080 d5 0c f6 bd d5 b3 37 bd cf ef d0 3d 48 aa a1 3c
       -0.12014166 -0.044849236 0.1020199 0.019734517
000090 b5 7e 35 bd ea ff fe 3d 1f 7d cf 3a 13 d1 8b 3d
       -0.04431029 0.124511555 0.0015830136 0.06826987
0000a0 cb 92 38 3e 49 fa 92 3d 65 22 51 3d 37 f9 8e bd
       0.18024747 0.07176644 0.05105819 -0.06981128
0000b0 b0 78 2b 3d 82 bd be bd f6 0f 3f bd 55 82 f8 3d
       0.041863143 -0.093134895 -0.04664608 0.12134234
0000c0 47 15 12 bd 7f fd 26 be b3 35 91 bb 65 d0 e6 bc
       -0.035664823 -0.16307639 -0.0044314503 -0.028175542
0000d0 07 8e d4 bd 8a c2 c8 3c 96 98 42 3e 5b 17 1f be
       -0.10378652 0.024506826 0.1900352 -0.15536253
0000e0 91 bd d9 bd da 5a 54 3d 57 d5 3c be d6 47 53 3d
       -0.1063186 0.051844455 -0.18440758 0.05158218
0000f0 5b cf a8 bc 4e 20 5e bd 4b 31 a2 bb 41 f0 c8 3c
       -0.020606687 -0.054230027 -0.004949724 0.024528624
000100 a8 46 8e 3d 2c db d1 bd 8c e6 25 3d 1c 78 a6 3b
       0.0694707 -0.10246882 0.04050307 0.005080236
000110 f2 8b 64 3d e1 ee b5 bc f0 0c cc bc 75 e0 f9 bc
       0.055797525 -0.022208633 -0.024908513 -0.030502537
000120 75 99 04 be c9 35 1e 3d ec 56 6a bd f1 d1 c0 3d
       -0.12949164 0.038625512 -0.0572118 0.09415043
000130 bb 59 93 3b d1 2c a3 3d c0 9f 2f be 35 9f 16 3d
       0.0044967807 0.079675324 -0.17150784 0.036772925
000140 24 c6 96 3d 36 0e 5f bd 96 a5 f4 bc 8f 8e 74 3d
       0.07362011 -0.054456912 -0.029864114 0.059706267
000150 53 c0 7f bd 70 37 44 be 31 7a 0e 3d b1 5f 9b 3c
       -0.062439274 -0.19161773 0.0347845 0.018966528
000160 eb 71 86 3e c2 7e 3a 3d 2f fc 13 bd 71 7b 9d bc
       0.26258788 0.045531042 -0.036129173 -0.0192239
000170 9d a2 19 3c 23 02 a4 bd 45 45 44 3e 84 9f 0d bc
       0.009377149 -0.0800822 0.19167049 -0.0086439885
000180 5a 43 20 3d 53 38 74 bb b6 a8 b3 bd 0e 48 1d 3d
       0.03912673 -0.0037265017 -0.087724134 0.038398795
000190 2e 2c df 3b ca 03 a9 bd 09 43 27 be 77 f4 00 be
       0.0068106866 -0.08252676 -0.16334166 -0.12593256
0001a0 8b c4 3f bd 56 69 e2 3d fa ef 75 bc ed 5b c9 bd
       -0.046818297 0.110552475 -0.015010828 -0.098319866
0001b0 16 e1 d6 3b 4c 5c b0 bd ab 74 61 3e c8 24 1a bd
       0.006557594 -0.08611354 0.22017162 -0.037632734
0001c0 98 4d 37 bd af 39 b2 bd 32 59 a6 3c ee 1d 4a bd
       -0.044751734 -0.087024085 0.020306204 -0.04934495
0001d0 05 61 11 3e 89 bc 7a 3d 3b 51 a7 bd 96 11 69 3d
       0.14197166 0.061214957 -0.0816979 0.056901537
0001e0 fd dd a0 3d 11 4c e0 3c c7 e3 c8 3c f9 76 ce 3d
       0.07854841 0.027380021 0.024522675 0.10081286
0001f0 6a c3 18 bd c9 3c 12 3e 2a 60 e8 bc df 36 9e bc
       -0.037295736 0.14281 -0.028366167 -0.019313274

weight f4 [1, 128]
000000 f7 cf 25 be 75 5d 41 bc 8c 99 cc bd 7f 50 c9 3d
       -0.16192614 -0.011802067 -0.09990224 0.098298065
000010 64 da a5 bc 59 e2 8b 3d ed 85 86 3d fc fa bf 3d
       -0.020245738 0.06830282 0.06568513 0.09374043
000020 a5 36 32 bd 29 1a 60 3c 6d 50 87 3d 66 d8 b4 bc
       -0.043509144 0.013678112 0.06607137 -0.022075843
000030 21 d0 0d be 36 aa ec 3d c5 b0 a0 bd 3d 41 12 3e
       -0.13848926 0.11555903 -0.07846216 0.14282699
000040 dd a7 9e 3d 98 c2 dc bc ab 71 ae 3d 20 0d 42 bc
       0.07746861 -0.026948258 0.08517774 -0.01184395
000050 ec 5d 99 bd 1e 99 5c be 38 23 56 bc 62 59 26 3d
       -0.07488617 -0.21542785 -0.01306992 0.040612586
000060 7d 77 09 3d 93 36 97 bb 9f 3f 8e bb e9 27 39 3c
       0.03356122 -0.00461466 -0.0043410803 0.011301019
000070 7d 09 7c 3d 8d 17 a8 bd 3d 8a 9f 3d d7 50 0a 3e
       0.061532486 -0.08207617 0.07790039 0.135074
000080 9c 39 f5 3d de a9 35 3d 99 ed cf bd 9a c5 9d bc
       0.11973879 0.04435145 -0.1015274 -0.019259263
000090 30 54 34 3d 29 07 fe bd c8 3c 90 ba e1 d5 8c bd
       0.0440256 -0.124037094 -0.0011004442 -0.06876732
0000a0 eb 10 38 be 20 ff 93 bd 41 19 4f bd 7f fb 8f 3d
       -0.17975204 -0.072263956 -0.050561193 0.07030391
0000b0 7f 7f 2d bd a9 ba bd 3d 94 0a 3d 3d aa 85 f9 bd
       -0.042357918 0.09264118 0.046152666 -0.121836975
0000c0 26 1a 14 3d f1 7f 27 3e d1 76 a1 3b b5 c8 e2 3c
       0.03615775 0.163574 0.004927494 0.027683595
0000d0 77 99 d3 3d d7 d0 cc bc 6a 1c 42 be a4 96 1e 3e
       0.103320055 -0.025001926 -0.18956152 0.15487152
0000e0 57 c7 d8 3d 46 52 52 bd ab 53 3c 3e b5 3f 55 bd
       0.10584896 -0.051347993 0.18391292 -0.05206271
0000f0 5a d1 a4 3c 3e 1a 5c 3d 59 73 b2 3b 75 de c4 bc
       0.020119358 0.053735964 0.0054458794 -0.024031857
000100 d4 16 8f bd 57 ef d0 3d 3c de 23 bd 5b 8a b6 bb
       -0.06986776 0.102019005 -0.04000686 -0.0055706925
000110 f6 8e 62 bd 72 e4 b1 3c 39 1c d0 3c ca c7 fd 3c
       -0.05531212 0.021715377 0.025404083 0.030979056
000120 c1 18 04 3e 99 49 1c bd 8f 5f 6c 3d c6 dc bf bd
       0.12900068 -0.038156126 0.05770832 -0.09368281
000130 93 0d 83 bb ed 2c a4 bd 0e 20 30 3e 7e a3 18 bd
       -0.003999421 -0.080163814 0.17199728 -0.037265293
000140 5b ca 97 bd ef b3 5d 3d cb b7 f8 3c 05 e2 72 bd
       -0.07411643 0.054126676 0.030361077 -0.05929758
000150 9c c3 7d 3d a7 b3 44 3e 5c 7e 10 bd 8c 4d 97 bc
       0.061954126 0.19209157 -0.035276756 -0.018469594
000160 d2 30 86 be 54 75 38 bd 47 f8 11 3d fa 7d a1 3c
       -0.26209122 -0.045033768 0.035637166 0.01971339
000170 3f 3e 13 bc 34 1b a3 3d 49 c7 44 be 56 b0 05 3c
       -0.008987009 0.07964173 -0.19216646 0.008159718
000180 c1 47 22 bd fc 50 8a 3b 5d 87 b4 3d 76 4b 1f bd
       -0.03961921 0.00422108 0.08814881 -0.038890325
000190 9c fb ce bb 76 02 aa 3d f1 c0 26 3e d2 71 01 3e
       -0.0063166153 0.08301251 0.16284539 0.12641075
0001a0 7c bb 3d 3d 3b 67 e1 bd c5 03 7e 3c 00 60 ca 3d
       0.046321377 -0.11006018 0.015503828 0.09881592
0001b0 b5 f2 e6 bb c7 58 af 3d a6 f4 61 be fb 29 18 3d
       -0.007047976 0.08561855 -0.22065982 0.03714941
0001c0 63 57 39 3d 3d 3c b3 3d 1b 57 aa bc 3a 25 4c 3d
       0.045249354 0.08751724 -0.020793488 0.04984019
0001d0 0f e0 10 be 83 bc 7c bd 44 49 a8 3d 67 28 67 bd
       -0.14147972 -0.061703216 0.08217099 -0.056435015
0001e0 5e dc 9f bd 16 5f e4 bc 66 f3 cc bc b3 6e cf bd
       -0.078057036 -0.027877372 -0.025018405 -0.10128536
0001f0 2e ba 1a 3d cb ba 11 be a0 29 eb 3c 58 12 a2 3c
       0.03777521 -0.14231412 0.028706372 0.019784138
