model/critic_gru.pth (torch, 796205 bytes, 8 tensors)

weight_ih_l0 f4 [384, 128]
00000000: f9b6 46bc 4686 333d 4dc0 3fbc e64b 55bd
00000010: ea71 bdbc 3a62 b3bc aeae 163c 7019 1b3d
00000020: b6a2 fa3c 0924 763d 2639 223c 4ec1 1bbd
00000030: 7a96 e0bc 38b2 753d 482e 0cbd 0a6c 1c3c
00000040: 397b 363a db68 a8bd 17bf 0ebd 5f3f fa3c
00000050: 4cd8 54bd 3910 f2bc a1fe 56bd eef0 2fbd
00000060: 601f af3c 7852 af3d 42b0 dc3c ded8 933c
00000070: 6107 03bd 23b0 a03c 819f 093d 2d93 133d
00000080: 273d 103d 715e 643d 54cd 96bc a368 9b3c
00000090: 27c6 23bd c8d7 583d 182c fbbc 0b11 8c3d
000000a0: 9936 1b3d fdbf 6dbd 5f8e af3d 8585 343d
000000b0: 6f0a e03c d55a 923d 68d5 973d 982c 3b3d
000000c0: 5026 083d a0cd 8d3c ee43 493d 40ae 283d
000000d0: add5 863d 9c52 18bd d731 75bd 7b65 4fbd
000000e0: de40 e6bc 34d4 a3bc c728 9d3d b92f 783d
000000f0: e6b0 a23d 610a c6ba 7ea6 eebc 8d0b 7fbd
00000100: 09c9 c4bc 94d5 cd3c 84f7 a6bd 8193 5abc
00000110: 4940 d53b eae7 653c 93e2 59bc ceaf 953a
00000120: 7a77 77bd 7b24 16bd 2c19 7e3d e7ff a5bc
00000130: 24ea 89bb 8f84 763c 03fb a7bd 807d 2fbb
00000140: 751e a5bd 152a 513d bf37 7bbd f454 12bc
00000150: 846b acbd 2465 f53c cd4a 983d 8b1c aebc
00000160: 27c0 2fbd 5e30 9f3d 0e42 d53c 9d45 cc3b
00000170: 8e64 a33d 24ad 07bd 744a abbd e8a3 263c
00000180: 1225 04bd cb19 813d 9daa 0cbd 5460 273d
00000190: f2c2 153d 96ef 90bd e8db 563d 1655 3a3d
000001a0: 0506 9f3d fc17 90bd d6e6 cbbc 60ae 5cbd
000001b0: 4bd5 a63d 7773 613b 0a79 8fbd 4c7d afbd
000001c0: 2e1d 91bd f797 25bc 9d6e 5e3d a4c0 873c
000001d0: 66ad 61bd f368 4d3d f2ed 8bbd 3df3 85bd
000001e0: 8c47 4a3d 3546 883c ba64 af3d 73e4 853d
000001f0: 8e27 3d3d 1aad 993d 2028 6d3d acb8 74bd
00000200: 0a3f 9cbc bb0f 683c 07ad 3abd 96cb aebd
00000210: 5407 f7bc c8a7 b73c 169b 923d 3fa2 81bc
00000220: dd6b aa3d 9974 9bbd 41e2 ac3d 7bdd 6ebd
00000230: 7b1e 9dbd 958c 8fbc e8e0 83bd ec3c db3b
00000240: 9f1f 943d d668 b5bc e749 a2bc f6c8 94bd
00000250: bb9f 4a3b 2ecc 103d 8260 a0bc 8fa9 1bbc
00000260: b7cf 313d a0e0 08bc 457e 353b 2568 6abd
00000270: 4b99 343d 80db 8fbd e9dd 02bd cd3e 833d
00000280: 90a8 a9bc 2ed7 9cbd 38ed b4bc 2207 d8bc
00000290: f171 3fbd d312 91bd ad3b 84bd d803 9cbd
000002a0: 3ab0 893d 58a0 74bc a506 7f3b e5f7 793d
000002b0: 0938 2bbd bfba 923b efbd 223d 34ec f5b9
000002c0: b583 293d c8b8 5abb 93d4 783c 6e4c 0c3d
000002d0: 4640 84bd a611 c93c 567e 37bd f90c 683d
000002e0: dc84 26bd bde4 8f3d cc50 aebc 1fcb 9c3d
000002f0: 927a 65bd 2cd7 8cbc 0a0c b0bd ff95 0dbd
00000300: cc59 99bd 0037 3b3d 2a7d 70bc 65f9 853c
00000310: 8009 723d abb7 1c3d 4d20 6a3d da8f 1d3b
00000320: eb4b 00bc b357 adbd c26a 473d 1ea0 b0bb
00000330: 4a00 8f3c 8bda 57bd c436 3fbc 6105 57bd
00000340: 8f79 8f3d 75dc a4bb 325c 923d 1bd4 093d
00000350: 44b7 5ebb 0497 483d 511c 80bd f0aa 9e3d
00000360: b593 26bd e522 22bd 9d5d f53c 3014 1d3d
00000370: 579b ac3d 0553 15bd 6855 353d 98aa a03d
00000380: af42 9d3c 1258 57bc d0ff b8bc 9e16 843b
00000390: c7f9 623d 0b92 98bd 0702 b4bb 9015 adbd
000003a0: a071 d8bc c71b b1bd 67ca 6a3d d013 373d
000003b0: 04e7 9abd 483e 85bd d547 273b 8a4a 10bd
000003c0: e0ed 5f3d 99c9 7ebb af4c a23d be70 e4bc
000003d0: d154 653d af34 693d dd36 14bd 1291 8ebc
000003e0: 2a16 eabc cd76 cb3c f1d4 ab3d f712 2d3d
000003f0: 8f22 ac3d ed54 57bd 6721 ab3c 6654 563d
-0.012128585 0.043829225 -0.011703563 -0.052074336 -0.023125608 -0.021897424 0.00919692 0.037866056
0.030595165 0.06009296 0.009901321 -0.038026147 -0.027415503 0.059984416 -0.034223825 0.009547243
0.00069611106 -0.082231246 -0.034850206 0.030547796 -0.05196409 -0.029548751 -0.052488927 -0.042954378
0.021377265 0.085606515 0.026939515 0.018047746 -0.03198946 0.019615239 0.03359938 0.03602903
0.03521457 0.05575413 -0.018408455 0.018970793 -0.039983895 0.05294016 -0.030660674 0.06839188
0.037893865 -0.058044422 0.08572077 0.044072647 0.027348725 0.07146231 0.07413751 0.045696825
0.033239663 0.017309964 0.04913705 0.041181803 0.06583724 -0.037188157 -0.059861984 -0.05063389
-0.028107103 -0.019998647 0.07673793 0.060592387 0.07943897 -0.0015109294 -0.029132124 -0.062266875
-0.024021642 0.025126256 -0.081526786 -0.013340832 0.0065079075 0.014032343 -0.013298648 0.0011420192
-0.060416676 -0.036655884 0.062035725 -0.020263625 -0.00420882 0.015046253 -0.082021736 -0.0026777685
-0.0806245 0.051065523 -0.06133246 -0.008931387 -0.084189445 0.029955454 0.07436142 -0.021253845
-0.04290786 0.07772897 0.026032474 0.0062338845 0.07978164 -0.033124104 -0.0836381 0.010170914
-0.032261916 0.06303748 -0.034342397 0.04086335 0.036562867 -0.070769474 0.052455813 0.0454913
0.0776482 -0.07035825 -0.024890345 -0.053877234 0.08146151 0.0034401098 -0.07005508 -0.0856882
-0.07085644 -0.010107032 0.054304708 0.01657135 -0.055097006 0.050148915 -0.06832494 -0.06540535
0.04938464 0.01663504 0.08564134 0.06537714 0.0461803 0.0750372 0.057899594 -0.05974643
-0.019073028 0.014163907 -0.045575168 -0.08534925 -0.030154862 0.022418872 0.071584865 -0.015824435
0.083213545 -0.075905986 0.08441592 -0.05831669 -0.07671829 -0.01752309 -0.06439382 0.006690612
0.07232594 -0.022144716 -0.01981063 -0.07264893 0.003091796 0.03535097 -0.019577269 -0.009500875
0.043410983 -0.008354336 0.002769367 -0.057228226 0.044091504 -0.07024288 -0.03194991 0.06408463
-0.02071026 -0.0765823 -0.022085771 -0.026370589 -0.046739522 -0.070836686 -0.06456695 -0.07617921
0.06723066 -0.014930807 0.0038913873 0.061027426 -0.041801486 0.0044778283 0.039731916 -0.00046906027
0.04138537 -0.0033374298 0.0151874 0.034252577 -0.06457572 0.024544548 -0.044798218 0.056652997
-0.04065405 0.0702605 -0.021278761 0.0765593 -0.056025095 -0.017192446 -0.08596046 -0.034566876
-0.074878305 0.04570675 -0.014678279 0.016354272 0.05909109 0.038261097 0.05715971 0.002404204
-0.0078306 -0.08463993 0.048685797 -0.005390181 0.017456193 -0.052698653 -0.011670772 -0.052495364
0.07005607 -0.0050311633 0.07146491 0.033649545 -0.0033983747 0.048972145 -0.06255401 0.077474475
-0.04066821 -0.03958406 0.029951865 0.03834933 0.08428066 -0.036456127 0.044270903 0.07845038
0.019196836 -0.013143556 -0.022582918 0.0040310165 0.055413987 -0.074497305 -0.0054934057 -0.08451378
-0.026421368 -0.08647876 0.057321932 0.04469663 -0.07563594 -0.0650602 0.0025524993 -0.035227336
0.054670215 -0.0038877486 0.079247825 -0.02788579 0.05598909 0.05693501 -0.036185134 -0.01740316
-0.028575022 0.024836922 0.08390225 0.042254414 0.08405029 -0.052571226 0.02088995 0.052326582

weight_hh_l0 f4 [384, 128]
00000000: f5d1 943d b234 b3bd 002e 1cbd 11c7 953c
00000010: c48b 703d 42a0 28bd 2c1e 0fbd 3829 8f3d
00000020: 6606 3b3d 0e7f 59bd a7f8 82bd c311 933d
00000030: 45d9 07bd 86bc 3f3a 04e1 91bc 33e7 24bc
00000040: fe1c 1f3d ba13 823c 2940 dd3b 4842 793c
00000050: c5d8 08bd 36c7 353d 8129 a3bd 568a 4dbd
00000060: 8e95 4cbd 28f5 8abd 405d c43c 20c0 fcbc
00000070: 91e6 96bd 72e2 9f3d ec07 ac3c f5ea 71bd
00000080: ddd6 ae3d ee13 963d a432 1ebc 623f 9cbc
00000090: ae32 b5bd 8b63 d83c eb20 943b d0a7 533d
000000a0: 0635 4d3c 494e 41bd e46f e6bc 70a9 7abd
000000b0: 7589 4b3d 0c83 2ebd 8f69 c63c 189c 7ebd
000000c0: cb9f b13c 2b9c 85bd fd75 9cbd 352e 39bd
000000d0: a96f 1a3d 18c6 323d 4501 f83c fd6b fb3c
000000e0: 9316 eb3b d962 8bbd 8516 0d3d 359c 3fbd
000000f0: 98cb 413b 4bbb 4dbd 57af 623b dbd7 2a3d
00000100: df59 b93a fba1 69bd 1b52 84bc b069 47bb
00000110: 2bdd 1c3d 0efa 9bbd a81c a0bd 81ff 2a3c
00000120: 352a 98bd a264 7ebd e3b9 6a3d b78a 7d3d
00000130: 3d38 50bd 3250 97bc 75c2 05bc 1eae 943d
00000140: 3884 833d 54f4 9dbc 5cf8 9d3c 2c35 a93d
00000150: 33d5 8ebd 495a 8d3d 66f5 ea3c 005c 8f3d
00000160: 75f4 52bd aaaf 9dbd 2657 1fbd c132 ebbc
00000170: 5ed2 dc3b a71a 8b3b b9b5 3e3c 2850 393d
00000180: b0be 673d 7023 02bd 87c3 bc3c 3ef7 253d
00000190: 759f 613d 43af 7fbd 511b ddbb 4fc0 5dbd
000001a0: 8cd6 86bd d3b6 13bc d11e 80bd 9587 a23d
000001b0: 77f5 aa3d 563e 213d 093f 233d a80a 37bc
000001c0: ce0a 53bd 584f e83c 6a5c 553b 1b12 a2bd
000001d0: 1872 ecbb cce0 793d 11c4 88bd 2ca9 80b9
000001e0: 2982 9ebd 36ef 9ebc 0a5d 933d c735 15bd
000001f0: 8bba 10bd 41f8 243d 4641 43ba 0978 103c
00000200: 362b 9b3d b78b 0abd 74e9 84bc 3e4a 0f3d
00000210: b73f 7cbd 98e0 103b 42db 05bd 6a3a 2e3d
00000220: eeb1 8e3d 9243 983d 4f5b acbd af87 ce3c
00000230: 3e7e a6bd e155 203d 815e b2bd d24c 793d
00000240: 988e 543c 8170 003d 6e96 643d 2c61 28bd
00000250: 7973 7b3d e36f 3bbd 9a03 b13c c0df a13d
00000260: 206b b03d 1043 8ebd ccf7 4dbd f96f 363b
00000270: 1539 863b 66de 20bd a317 88bc d810 a5bb
00000280: 2c6f 61bd 2d06 23bd f0db 903d 6d47 acbd
00000290: 9c69 a0bd 1454 d13b 5d77 013d 6308 8dbd
000002a0: cffd 2ebd 489a 453d 141a ac3d a3df 7c3c
000002b0: 6eeb 83bc fabb daba ad2a 46bd c2f7 5cbd
000002c0: 4cd6 a93d 0380 763d abea 2dbd cbee 8d3c
000002d0: d5cb 473d a4af 873b c945 81bc 755a 60bd
000002e0: 3255 edbc a109 61bd 24ec 79bd dbb3 a03d
000002f0: 1c7a 7a3d a88f 75bd cb6f 87bd 8505 96bd
00000300: e161 12bd df13 d6bc fd97 63bd 6c36 05bd
00000310: 565e fcbc 2577 e43c 45ef 333d ba8f e6bc
00000320: 9356 32bc 47e7 0fbd eb47 c03c 95a3 45bd
00000330: bfa4 b53d 79ec 553d 3bc3 c7bb 7689 553d
00000340: b0c9 513d 2666 11bc 3166 9e3d f606 d93c
00000350: 98c6 713d 15e8 e9bc 0536 a63d 189a abbd
00000360: 74ed 903d b06f f73c 7705 aebd 5767 4d3d
00000370: 8e61 80bd e4a9 933d 9a39 553d 75e9 1aba
00000380: cd6c 963c da90 20bd 1d44 1bbd 8062 83bd
00000390: ea67 b2bc 6c4c 8e3c 49ed 9b3d 2c83 ed3c
000003a0: dbee a1bd d923 5f3c ed47 b3bc c811 a53d
000003b0: a291 6dbd 2782 f73c 58d9 c1bc 678d b5bc
000003c0: a063 5f3d 3dba 4f3d 4df4 8b3d c963 30bd
000003d0: 4474 9c3d 53e0 3cbc 1a51 20bd d652 853c
000003e0: e3a7 b0bd 9511 99bd fcbd 103c 08e4 353d
000003f0: 915f 9e3c 0848 5b3d 20da 8e3d 1c45 5ebd
0.072666086 -0.08750285 -0.038129807 0.018283399 0.05872704 -0.04116846 -0.034940884 0.06990284
0.0456604 -0.053099684 -0.06395083 0.07181122 -0.03316619 0.0007314164 -0.017807491 -0.010064888
0.03884601 0.015878547 0.0067520333 0.015213557 -0.033409853 0.044379435 -0.079669006 -0.050180756
-0.049947314 -0.06785041 0.023970246 -0.030853331 -0.07368196 0.07806863 0.020999871 -0.059061963
0.08537076 0.0732802 -0.009655628 -0.019073192 -0.08847557 0.026414653 0.0045205257 0.05167371
0.012524849 -0.0471938 -0.028129525 -0.061196744 0.049691636 -0.042605445 0.024220256 -0.06216058
0.02168264 -0.06523927 -0.07639692 -0.045210082 0.037704144 0.04364595 0.030274043 0.030691141
0.007174322 -0.06805963 0.034445304 -0.04677983 0.0029570814 -0.050227445 0.0034589374 0.041709762
0.0014141164 -0.057039242 -0.016152432 -0.0030427985 0.03829686 -0.076160535 -0.07817966 0.010436893
-0.07429925 -0.06210769 0.05730618 0.061899867 -0.050834883 -0.018470857 -0.008164038 0.07259773
0.06421703 -0.019281544 0.019283466 0.08262095 -0.06974258 0.06901986 0.028681468 0.069999695
-0.051502664 -0.07699521 -0.03890147 -0.028710725 0.006738945 0.0042451206 0.011640006 0.04524246
0.05657834 -0.031772077 0.023042453 0.04051899 0.05508371 -0.062423002 -0.006747641 -0.054138478
-0.0658389 -0.009015757 -0.06255878 0.079360165 0.083476 0.03936609 0.039855037 -0.011171974
-0.051523976 0.028358147 0.0032556304 -0.079136096 -0.0072157495 0.0610054 -0.06678022 -0.00024540105
-0.0773967 -0.019401174 0.0719548 -0.03642824 -0.03533415 0.040275816 -0.0007448386 0.008817681
0.07576601 -0.03382465 -0.0162246 0.034982912 -0.0615842 0.0022106525 -0.032679804 0.042536177
0.06967531 0.07434763 -0.08415853 0.025211183 -0.081295475 0.0391444 -0.087094314 0.060864277
0.01297345 0.031357292 0.055807523 -0.041108295 0.06138942 -0.045761 0.021608163 0.07904005
0.086141825 -0.06946385 -0.050285146 0.0027837737 0.00409616 -0.039274596 -0.016612833 -0.0050374083
-0.055037662 -0.03980081 0.070732 -0.08412061 -0.078326434 0.0063881967 0.031607974 -0.06886365
-0.04272252 0.048242837 0.084034115 0.0154341785 -0.016103473 -0.0016688101 -0.048380543 -0.053947218
0.08292827 0.060180675 -0.042460125 0.01732578 0.048778374 0.004140811 -0.015780346 -0.054773767
-0.028971288 -0.054940823 -0.061016217 0.07846805 0.06115161 -0.059951454 -0.0661312 -0.073252715
-0.035737876 -0.026132522 -0.05556487 -0.032522604 -0.030806702 0.027888844 0.043929357 -0.028144706
-0.010884899 -0.035132673 0.023471793 -0.048251707 0.088693134 0.05222747 -0.0060962713 0.052133046
0.051217735 -0.008874452 0.07734335 0.026492577 0.059027284 -0.028553048 0.08115772 -0.083790004
0.070765406 0.030204624 -0.08497136 0.05014738 -0.06268607 0.072101384 0.052056886 -0.00059094216
0.018362427 -0.03920064 -0.037906755 -0.06415272 -0.021778066 0.017370425 0.07613618 0.028993212
-0.07906886 0.013619387 -0.021884883 0.08060032 -0.058000214 0.030213429 -0.023663208 -0.022162152
0.05453837 0.05071472 0.06833706 -0.043063913 0.076393634 -0.011528092 -0.039139844 0.01627485
-0.08625772 -0.07474057 0.008834358 0.04440692 0.019332679 0.05353549 0.06975198 -0.054265127

bias_ih_l0 f4 [384]
00000000: b4be 093c db99 193c 7c9e 113d 78cf c03c
00000010: 22ef 7ebd dab2 963c 565b 483d 12f6 fdbc
00000020: d979 75bd 10dd 903d a8c6 f43c 1cd0 de3c
00000030: a7f4 7dbd 3357 a9bd 3129 babd dadc 0cbd
00000040: 437b 9b3d 17b8 873b 6cc4 81bd f92f 79bd
00000050: ea54 a3bd cc2b 9f3b 97ea 3dbd 59bd 9a3d
00000060: f6eb 0fbc bb60 3cbd 962b cabc 884e aebc
00000070: 9a07 b63b eab4 9d3d 2c80 823d 08b1 ce3b
00000080: e671 3f3d 3d4c 573b 5ca9 cabc 43cd 51bc
00000090: b236 8abd 21ef 1ab7 8649 083c f5e3 a23d
000000a0: ec61 71bd aa91 1a3c a05e 6d3b be47 8cbd
000000b0: 7b4d a63d b629 a03c cf31 d73c 0a61 55bc
000000c0: 1c05 923d 387b 153d 3583 e13c 818f 3abc
000000d0: b95e 9fbc 2886 933d d370 613d 5a44 943d
000000e0: 1421 19bd 72fb 00bd ae03 ba3c c7da 92bc
000000f0: f0ff 293d 8c7d 3b3d f832 85bd 497c 6ebd
00000100: 3500 30bd 33b1 91bd c42c 633d c594 2dbc
00000110: 089b 823d e649 53bd 2a89 e0bc 27f0 0dbd
00000120: 4a74 683d de3d 063d 35cc 723d 5d14 0f3d
00000130: 0828 8cbd 655f a03d c0cb 85bd 1fd7 173d
00000140: 1477 02bd 40ab e33c f0cb aa3d 4596 1ebc
00000150: f7c6 65bc 7d2a 033d 8180 533d 7b5c c63b
00000160: 4a35 3bbc 5046 acbb cda6 9cbd e6a8 abbd
00000170: 1d0f 493d d5c2 14bd ed99 ec3c 9898 aa3c
00000180: 4245 3abd 82bc f9bb 0dba 47bd ce8a 42bd
00000190: 6aa5 0abd 6b74 bfbc 52ec 31bd f202 9c3d
000001a0: 3911 32bd 4363 573d 382f 46b9 e66e a1bc
000001b0: 6195 2dbd 4b91 2cbd 6c5b 1a3d 0901 92bd
000001c0: 3de6 a6b9 792c a8bd 78a4 673d 9fbd b13c
000001d0: bfd9 dd3b 0a7b 273d 3da3 5bbd 8741 87bc
000001e0: 9461 a43d 6ee5 f9bc f750 dabc c446 0cbd
000001f0: 19a4 3c3d b979 113d 6057 4d3d 74fa 483d
00000200: 71df d8bc 9f91 1abd c202 9dbd c730 70bd
00000210: 78ca 8abd 0f75 983d 5070 c3bc bb2c 7b3d
00000220: 88df 09bd 32c2 30bd b182 0bbd 226a 02bd
00000230: 05fc 61bd 72b2 26bd 0151 313d d754 93bd
00000240: bc0d a73d 3ffd 90bd d1d6 5e3d 1661 e73c
00000250: a71f 72bd 3f68 2abd 39b8 87bd 7062 423d
00000260: d18d 46bc 1ae6 81bd 8217 8b3d 19da 84bd
00000270: b671 96bd 5ba8 80bd b8d2 6fbd 88a2 8bbd
00000280: 502f 093d 1ea7 8fbd 2cc7 bb39 efc8 a63d
00000290: bb91 aa3d c43b 4e3d 2fa5 b8bc 8e70 cebb
000002a0: 4832 1a3d 93b2 3abd 5106 1d3d b758 9abd
000002b0: df35 34bc 465b efbc eed3 ef3c 5c62 063c
000002c0: b4a6 ba3c 4ba4 a13d f3b1 5ebd 2bf6 783d
000002d0: 4854 ff3c 9515 64bd b480 2c3d e404 993d
000002e0: 319c 91bd f224 88bd 30ca 81bd 7247 49bc
000002f0: 00f3 2f3d 14a6 ac3d b7c7 69bd d235 0cbd
00000300: 876d b4bd d7db a5bd 2f0d 6d3c 3127 8ebd
00000310: 46dc 2d3d 96f3 44bc 0775 973d 14c8 ab3d
00000320: 7c50 80bc 266a 173d 398a b13d f21a 133d
00000330: 12b4 313d 4423 9e3d b17a cf3c 4df5 a33d
00000340: 13a5 643d 710e ebbc 85de 533d 8c90 593d
00000350: 6053 ab3d 79e5 b23d 7f5c 3fbd 41ff 743d
00000360: 7608 31bc e68e b33d 9b40 be39 409d 603d
00000370: 7e5f 733d 06b6 cb3c 211d ed3c 5fc5 b1bc
00000380: 1512 96bd 092a 453d a966 91bc 476d 573d
00000390: 1807 7f3d e195 46bd 7f74 aebd 002d ebbc
000003a0: d90f 85bd 6478 8c3d 3d38 413d de1c 88bd
000003b0: 32db eabc 2e75 8c3c c1af aabd d8e5 afbc
000003c0: 104a 0e3d 9b88 4a3d cc94 ac3d ea2f bcbc
000003d0: 72a7 cb3a dd29 d9bc b500 abbd b8b8 b23d
000003e0: 79e2 13bd 3197 063d f69c 1abd 982e 91bc
000003f0: 7b18 823d 4d29 97bd 3736 6d3c ba31 cb3c
0.008407284 0.009375061 0.035551533 0.023536429 -0.062239774 0.01839583 0.04891523 -0.031001125
-0.059930656 0.07073414 0.029879883 0.027198844 -0.062000897 -0.08268585 -0.09089888 -0.034390308
0.0759187 0.0041418183 -0.063362926 -0.060836766 -0.079751804 0.004857516 -0.0463663 0.075556464
-0.008784285 -0.045990687 -0.024678987 -0.021277681 0.0055551054 0.07700522 0.06372103 0.006307725
0.04673948 0.0032851838 -0.02473896 -0.012805286 -0.067487136 -9.234792e-06 0.008318311 0.079536356
-0.058931276 0.009434143 0.003621973 -0.06849621 0.08120247 0.01955114 0.026268868 -0.013023624
0.07129881 0.036494464 0.027528385 -0.011386753 -0.019454347 0.07203323 0.05503924 0.072395995
-0.03738506 -0.031489797 0.022706833 -0.017926587 0.041503847 0.045774028 -0.06503862 -0.058223996
-0.042968947 -0.07113876 0.055462614 -0.010594551 0.06377226 -0.051584147 -0.027409155 -0.034652855
0.056751527 0.032773845 0.05927678 0.03493153 -0.06843573 0.07830695 -0.06533003 0.03707039
-0.031851843 0.02779162 0.08339679 -0.009679382 -0.014024488 0.03202294 0.051636223 0.006053505
-0.011426279 -0.0052574053 -0.07649002 -0.08381824 0.04908668 -0.03631862 0.028881991 0.020824715
-0.045476206 -0.007621349 -0.048761416 -0.047495656 -0.033849157 -0.023370942 -0.043438263 0.07617749
-0.043473456 0.052584898 -0.00018900342 -0.0197062 -0.042378787 -0.04213075 0.037684843 -0.07129104
-0.00031833528 -0.082116075 0.056553334 0.021696864 0.006770342 0.040888824 -0.053622473 -0.016510738
0.08026424 -0.030504908 -0.026649935 -0.034247175 0.046054933 0.035516474 0.050132155 0.049066976
-0.026473733 -0.03773653 -0.07666542 -0.058640268 -0.06776899 0.07444202 -0.023857266 0.061321955
-0.03366044 -0.04315395 -0.034060184 -0.031839497 -0.055171985 -0.040697522 0.043290142 -0.07193916
0.081569165 -0.07079553 0.054404084 0.028244536 -0.059112217 -0.041603323 -0.066269346 0.04745716
-0.012118773 -0.063427165 0.06791593 -0.06486911 -0.073459074 -0.06282111 -0.058550566 -0.0681811
0.033492386 -0.07014297 0.00035815814 0.08143794 0.08328577 0.050349966 -0.022539703 -0.0063000387
0.03764561 -0.045580458 0.038336102 -0.07536452 -0.010999172 -0.029218327 0.02927586 0.008202162
0.022784568 0.078926645 -0.054368924 0.06078164 0.031168118 -0.055684645 0.04211493 0.07471636
-0.07109869 -0.06647672 -0.06337392 -0.0122851 0.042956352 0.084301144 -0.05707523 -0.034231015
-0.08809953 -0.08098572 0.014468475 -0.06941069 0.042446397 -0.012020966 0.07395368 0.08387771
-0.015663378 0.036966465 0.08668942 0.03591437 0.04338462 0.0772157 0.025327059 0.08005772
0.05582149 -0.02869341 0.051725883 0.053116366 0.08365512 0.08735175 -0.04671907 0.05981374
-0.01080524 0.0876749 0.0003628776 0.054837465 0.05941724 0.024867069 0.028944554 -0.02170056
-0.073276676 0.04813579 -0.017749147 0.05259445 0.062262625 -0.04848278 -0.085183136 -0.028707981
-0.06497163 0.068589 0.047172774 -0.06646131 -0.028668974 0.01714572 -0.08334304 -0.021471903
0.0347386 0.049446683 0.08426818 -0.022972066 0.0015537573 -0.02650922 -0.08349744 0.087266386
-0.036104653 0.03285903 -0.037747346 -0.017722413 0.063523255 -0.073809244 0.014478258 0.024803985

bias_hh_l0 f4 [384]
00000000: ce2f fcbc 26ac 233d dd93 3bbd e78d 2abd
00000010: 4e74 8f3d 7b7f 7d3d d5a8 09bd fc7d 5f3d
00000020: 25ed 91bd 9d90 9a3d ca9d 2f3d 5234 2f3d
00000030: c7f7 7c3d 54e6 8e3d 2b13 963d 77ac 893c
00000040: 40a4 4abd 6d4b 91bd cf85 9f3d c178 013d
00000050: 1b4a 3dbd bab5 9ebd 9210 023d bd3e a43c
00000060: 0132 9ebd fe7b 863d be7c 91bc 4804 80bd
00000070: 8584 a53c 0e0e d5bc 1923 503d 024b a0bd
00000080: 217b b23c 8e34 70bd d3c0 903d f3e2 8c3b
00000090: d55c a93c 196b 173d 7047 013d 6a9a 393c
000000a0: 211f 8ebd a0fb 7d3d 5617 7bbd 0e8a 683d
000000b0: cb62 a23d a326 ac3d 1c35 69bd 1a3b bebc
000000c0: 9558 ae3d f484 18bd b8d2 9fbd c4f5 ab3c
000000d0: 0f37 28bd 42bd abbd 2f17 693c 9de5 3ebc
000000e0: 9e88 79bd 1ebb 5cbd ddeb cbbc b576 adbd
000000f0: 2007 afbc 707f 5b3d 8d15 0f3c 9674 be3c
00000100: e552 fdbc f930 433b 6642 093d 6f0a d9bc
00000110: 9e08 af3d 7baf 8f3d 4528 9bbd 1972 6abd
00000120: 0f14 c3bc b6a0 aa3d 681e 35bb c4f5 3dbd
00000130: aab5 26bd 38ce 8ebd 61d9 40bd 826e e7bc
00000140: b3ea 323d af1f 863d 067b 76bd bca7 f03c
00000150: e274 b2bd b8c9 3e3d b87c 0ebd 3786 ab3d
00000160: 24e9 6d3b 5d67 3dbc b9d2 3a3d ab58 4cbd
00000170: 6ad5 0abd f24b 783c 7a05 f43c fb93 073d
00000180: f438 143d 1bdc 803d 40a5 79bd 20cc 1dbc
00000190: a8ce 60bc a880 7a3d d81f c93c ac84 3abc
000001a0: c943 423d f32c 353d 8dcf bfbd a62b a5bd
000001b0: 0fb0 a83d b98c 14bd b3f1 683c 0a8f 5fbd
000001c0: 400a 8cbc 21a8 283d c1de a23c c92e 86bd
000001d0: e700 0f3c 3eb6 693d a4ec 823d 5a9d 30bd
000001e0: 5041 1bbd 60d6 21bd 2092 433d 0b94 1f3d
000001f0: 291e 663b d682 b73d 282d efbb f8da 6d3d
00000200: 0991 43bd 8cba 8c3c 172f 423d e569 38bd
00000210: f492 9ebd 9470 8dbc f51f 283d 159e 09bd
00000220: 1212 323d 9b22 a63d 64dd a13d 0396 ba3b
00000230: 1751 583c 5e1c 9c3d a0a1 a53d 1961 8e3c
00000240: 5c40 533d cb41 acbd 054e c43b 939d 323d
00000250: b20a c53c 6738 97bd dd42 033d 5491 c93c
00000260: 8c3a abbd 2f28 0b3c e824 983c 0cf2 8cbd
00000270: dab4 a63d eade 433d 0e61 eabc a291 74bb
00000280: dd1c ed3c 04c2 343a 1377 cebc 0868 91bd
00000290: f2c2 e1bc 2408 a03a 2ed1 2abd a3bf 063b
000002a0: 6e47 52bd 97ef 883d 32ea 123d 6538 093d
000002b0: 47f3 fc3c c066 52bd a81f 28bd eafd 1bbd
000002c0: f220 803c 1e41 a23c cae3 f73c a070 78bc
000002d0: 4bc1 a6bb 650d d23c 9c88 a6bd 84d5 903d
000002e0: b6c0 3cbd 6dad 8bbd b9c2 953d 9e15 b3bb
000002f0: 4954 51bc eee2 9abd dad3 b1bd ed20 953d
00000300: 02d8 31bd 8a84 09b9 408b ffbc 75b5 89bd
00000310: 609e 03bd 80e5 85bd 574d 8d3d e949 9abd
00000320: 1e10 9cbd d905 b03c d8ed 1a3d f5e3 99bb
00000330: 7f48 0a3d 4d71 c23c 8f0e 9cbd 59c3 a83d
00000340: 44b5 b1bd e389 b5bd f472 da3c ad82 5abc
00000350: 92cd 8fbd 8cc5 de3c 7882 ad3c 415c afbd
00000360: f08a f5bc 56b7 5d3d ebf2 aabd 1728 51bd
00000370: 88f9 e9bc f53e e4bc 8d76 b3bc afc6 f6bb
00000380: 51d7 debc 7545 07bd 781c a73d 4162 2fbd
00000390: 28f5 82bd 4baa 49ba 05fb 623d 5c20 a5bd
000003a0: 2452 873c a55e e2ba 7244 3b3d 6c0a 53bd
000003b0: 6b33 a6bd 4da2 67bc a3e1 903d a168 7e3d
000003c0: b863 0c3d 9dc2 edbc 0356 9fbd df1d a03c
000003d0: c228 afbd 07ed 99bc 2952 693d 38bf 3dbd
000003e0: 6eba 5dbd 4b6c 0c3c afba 243d 631e 61bd
000003f0: 70e0 933d 503f cf3c 2976 5cbd c5bc de3c
-0.030784514 0.039959095 -0.04579531 -0.041639235 0.07004605 0.061889153 -0.033608276 0.054563507
-0.0712531 0.07547114 0.04287509 0.042774506 0.061759736 0.06977525 0.07327875 0.01680587
-0.049473047 -0.070944645 0.07789194 0.0316093 -0.04621325 -0.07749505 0.031754084 0.020049447
-0.07724381 0.065666184 -0.017759677 -0.062508166 0.020204792 -0.026007678 0.05081472 -0.078268066
0.021787228 -0.05864387 0.07068028 0.0042995154 0.020674149 0.03696737 0.03156227 0.011328319
-0.06939531 0.062007546 -0.06130155 0.056772284 0.079289995 0.08405807 -0.056935415 -0.023221541
0.085129894 -0.03723617 -0.07803863 0.020991214 -0.041068133 -0.083857074 0.014226719 -0.011651424
-0.060921304 -0.053889386 -0.024892742 -0.08469907 -0.021365702 0.05358833 0.008733165 0.023248952
-0.030923316 0.0029783829 0.033510588 -0.026494233 0.085465655 0.07015892 -0.0757604 -0.05723772
-0.023813276 0.083314344 -0.0027636532 -0.04637696 -0.040700592 -0.06972927 -0.04708231 -0.028250936
0.043680858 0.06549012 -0.060175918 0.029376857 -0.087137 0.046579093 -0.03478691 0.08375209
0.0036302293 -0.011560288 0.045611117 -0.049889248 -0.033894934 0.0151548255 0.029787768 0.03310011
0.036187127 0.06291982 -0.06094861 -0.009631187 -0.013721146 0.061157852 0.024551317 -0.0113841705
0.047427926 0.04423232 -0.09365759 -0.08064966 0.082367055 -0.036267016 0.014217782 -0.054579772
-0.017094731 0.041175965 0.019881608 -0.06551892 0.0087282425 0.057058565 0.06392792 -0.043118812
-0.037904084 -0.039511085 0.047746778 0.038959544 0.0035113192 0.08960502 -0.007299084 0.058070153
-0.04774574 0.017178796 0.04740819 -0.045022864 -0.07742873 -0.017265595 0.0410461 -0.033598024
0.043474264 0.08112069 0.07903555 0.0056941523 0.013202927 0.07622598 0.08087468 0.017380284
0.05157505 -0.084109865 0.005990746 0.043607306 0.024052951 -0.07383805 0.032046188 0.02460543
-0.08360776 0.008493467 0.018572286 -0.06882104 0.081399634 0.04782001 -0.028610732 -0.003731825
0.028944427 0.00068953657 -0.025203263 -0.070999205 -0.027558777 0.0012209457 -0.041703396 0.0020561002
-0.051337652 0.06686323 0.035867877 0.033501048 0.030877722 -0.05136752 -0.041045815 -0.03808395
0.01564071 0.01980644 0.030259985 -0.015163571 -0.0050889603 0.025641153 -0.08131525 0.07071975
-0.04608222 -0.06820188 0.07312531 -0.0054652235 -0.012776443 -0.07562815 -0.086829856 0.07281671
-0.04341889 -0.00013114713 -0.03119433 -0.06724063 -0.03213346 -0.06537914 0.06899517 -0.075336285
-0.076202616 0.021487163 0.03782448 -0.004696364 0.033760544 0.023735667 -0.07619964 0.082403846
-0.08677152 -0.088641904 0.026666142 -0.01333682 -0.07021631 0.027193807 0.021180376 -0.08562518
-0.029973477 0.05412992 -0.08347114 -0.051063623 -0.028561369 -0.027862052 -0.021907115 -0.007531009
-0.02720228 -0.033025224 0.08159727 -0.04281831 -0.06394416 -0.0007692917 0.055415172 -0.08062813
0.01651866 -0.0017270638 0.04571957 -0.05152361 -0.08115276 -0.014137817 0.07074287 0.0621115
0.034274787 -0.029023463 -0.07780077 0.019545494 -0.08552696 -0.018789781 0.05696312 -0.04632494
-0.05413287 0.008570741 0.040217098 -0.05496062 0.072205424 0.025298744 -0.053823624 0.027189622

weight_ih_l1 f4 [384, 128]
00000000: 9670 1cbd 71b3 7f3d dab0 ce3c 4d4a bd3c
00000010: a1b2 1d3a 78af 6e3d d83a 443d fbd6 8fbd
00000020: 2923 273d 0c3e 053c 3abe dd3c 8bb9 76bc
00000030: b43f 4e3d ec5e ed3c e837 8fbd 3cb8 80bd
00000040: e54b 7f3b 28b5 f8bc 7222 c83c 9309 82bd
00000050: fb84 953b f10f 66bc d006 e4bc 98e9 513d
00000060: 9864 b03d 9f96 2a3b 60b3 553d 87fc 1cbd
00000070: fd7c 33ba c176 433d c7a5 68bd d7cd 2dbd
00000080: 62b6 f5ba 9a8f 0cbd eb77 67bd 5fdb 8dbb
00000090: d33e e33c 4f1b ad3d a963 4abd cf60 21bc
000000a0: 84a6 37bc fcef 9f3b 65b9 183c 9998 143c
000000b0: 48f7 a4bc b0ab 623d d770 f6bc 1bc1 6e3d
000000c0: 97b7 6fbd 4807 a13d a889 a03c ba11 b33c
000000d0: f3e3 8dbd 7267 f1bc 2653 4ebd 0dae 583d
000000e0: cbd1 273d ff8e 18bd e696 193c 3e65 69bc
000000f0: c794 c2bc 3360 48bd 5d32 593d 8794 d63c
00000100: 860e 893d 1b8f 13bd 1b24 80bd c6e2 2a3d
00000110: c41b 44bd 5edb 883c ff30 673c 5232 973d
00000120: be04 adbd cb7e af3d 7489 6fbd 0845 8c3d
00000130: def1 603d 3f3a 0ebd 1738 b13d ccab 7a3d
00000140: eefa 0d3d aea9 763c 067c 91bd b27c 75bd
00000150: 960a 6abd 5e2e f83c 252e 0cbd 0a9a 19bd
00000160: ca56 7bbd 79bd 3abd 50ba 9a3b e456 f43c
00000170: 4e47 663d 9060 9e3d ed05 8cbc d693 b43c
00000180: 69ce 243d f36a 013c 95b5 a7bc 13d5 11bd
00000190: 2949 80bd 2ca2 99bc e027 9bbd 6c31 1b3d
000001a0: b914 3e3d 5119 b6bd 786e 7fbd 0cbe dbbc
000001b0: 61b5 61ba d66f 99bd ddb0 193b fa8c 95bd
000001c0: e3f0 a6bd cfbf 413d d152 8f3d f1e3 7dbd
000001d0: d2a7 7cbc 41d3 9f3d b0b0 7fbd 4d8c b53d
000001e0: b92e acbc 12cd 76bd d5f8 9c3c 1f41 8cbb
000001f0: 2021 353b eaaa 59bb b301 3f3d 3754 8cbc
00000200: e590 ab3c 6c46 c3bc f5ad 8e3d 087e 35bb
00000210: 6495 713d 4413 d93c 33d1 273c b4c1 9a3d
00000220: 00f7 83bc f993 0fbd 7aea 793d 5179 29bc
00000230: b97c 883d fdbc f33b 911c 333d 1d86 c03c
00000240: e3bc 3f3d 2b11 35bb 0972 c23c ae0d 23bd
00000250: 373a 98bd d63b 82bd 8547 b33c 67ce a7bc
00000260: 3a3f 4e3c e37a 09bc 1675 963d f9d9 ff3b
00000270: 70b4 ad3d d2ac 783d 5b38 a73d 30d6 86bd
00000280: c5a5 52bc f21e 9fbb baab 163d a9c2 a8bd
00000290: 70cb 1ebd 1ed9 663d 1e54 473d c16e c7bc
000002a0: d69e e8bc 7856 83bd a452 33bd 0a48 e33c
000002b0: b05c 23bd f929 8bbc 9701 bebc 2e99 b83d
000002c0: 8400 8c3d ebd7 353d c121 32bc 737b 18bd
000002d0: feca 5cbd 60f3 9d3d 2241 a63c d7df 173d
000002e0: 3d20 a63c df88 22bd 2c71 2cbd 5635 0cbc
000002f0: f714 8f3d b285 7d3b 820a 8f3d 476f 9f3d
00000300: 2a9e 993c 2d71 05bd 3b5f 113b 6bb5 3fbd
00000310: e12d 65bd e74a 333d 1f19 b53c a8fa 603d
00000320: 04a9 99bd 4554 d33a 8e87 663d 6e50 153c
00000330: 3047 a0bd 3f6c a63d db2a 9c3c b4ab 653d
00000340: 178f 253d 9154 67bd 3aa1 ad3d 58af 6d3d
00000350: 0f21 febc a392 e13c 0e9a 35bd 3083 59bd
00000360: 99e5 7e3d 0e3c 013d 6d15 49bd 05c8 403c
00000370: e712 02bb 0c45 b5bd 1cf8 e9ba 75b5 cd3c
00000380: 3034 103d bc22 babd 8cb4 8bbd 2dcb 33bd
00000390: bcc8 0f3c 0693 b03d fda6 89bd 1dd6 8ebd
000003a0: a89f d1bc e8f9 9dbd 9b6a 87bd c59e 9a3d
000003b0: 42d6 523d c845 933d c52d 1abd 68ea 9abd
000003c0: 8c3c c5bc 3cd3 66bd f893 19bd 0355 4a3d
000003d0: 6413 9b3d 350b 803d 8b51 6d3d 991e 72bd
000003e0: cb18 99bc b397 9cbd 9dd2 cfb9 1852 94bd
000003f0: fdd0 b23d 9acc 8e3d 269e a1bd aa69 513d
-0.038193308 0.062426988 0.025230814 0.023106718 0.00060156925 0.05827281 0.04790768 -0.07023426
0.040805016 0.008132469 0.027068246 -0.015058885 0.05035372 0.028975926 -0.06993085 -0.0628514
0.0038955149 -0.03035982 0.024430487 -0.063494824 0.0045629716 -0.014041887 -0.02783528 0.051248163
0.08612937 0.0026029719 0.05217302 -0.038326766 -0.0006846933 0.047720674 -0.056798723 -0.042432632
-0.0018746371 -0.034316637 -0.056510847 -0.0043291296 0.027739918 0.08452474 -0.04941145 -0.009849741
-0.011209134 0.0048809033 0.009321545 0.009069585 -0.020137444 0.055339515 -0.030083103 0.05828963
-0.058524694 0.07862717 0.01959689 0.021859039 -0.069282435 -0.029468272 -0.050372265 0.052900363
0.04097156 -0.037245747 0.009374356 -0.014245329 -0.023752583 -0.048919868 0.053026546 0.02619387
0.06692223 -0.036025148 -0.062568866 0.041720174 -0.047878042 0.016706165 0.014110803 0.07382645
-0.0844817 0.08569106 -0.058480695 0.06849104 0.054918163 -0.034723517 0.086532764 0.061198995
0.034663133 0.015055103 -0.07103734 -0.05993337 -0.057139 0.030295547 -0.034223694 -0.03750042
-0.061362065 -0.04559085 0.004721917 0.029826589 0.056220345 0.077332616 -0.01709267 0.02204315
0.04023591 0.007899034 -0.020472327 -0.035603594 -0.06263954 -0.018754087 -0.07575965 0.03788893
0.04640648 -0.088915475 -0.06236121 -0.02682402 -0.00086100964 -0.07492034 0.0023451366 -0.0730228
-0.08151414 0.047302064 0.06998218 -0.06198496 -0.015420871 0.07803965 -0.06242436 0.08864651
-0.021018373 -0.060254164 0.019161621 -0.004280224 0.0027638152 -0.0033213445 0.04663248 -0.01713
0.020943115 -0.02383729 0.069667734 -0.0027693529 0.05898036 0.026498444 0.010242748 0.07556477
-0.01610899 -0.035053227 0.06101463 -0.0103438655 0.06664414 0.0074383006 0.043728415 0.02350145
0.046810996 -0.002762864 0.023736017 -0.039807968 -0.074329786 -0.06359069 0.02188469 -0.020484162
0.012588317 -0.008391115 0.07346551 0.007807967 0.08481681 0.06071169 0.08165046 -0.06583822
-0.012856905 -0.004855984 0.036784865 -0.082402535 -0.038768232 0.056359403 0.048664205 -0.024344804
-0.028396051 -0.06412977 -0.043779984 0.027744312 -0.039883316 -0.016987788 -0.023194117 0.09013592
0.06836036 0.04439537 -0.010872305 -0.037227105 -0.053904526 0.07712436 0.02029473 0.037078705
0.020279044 -0.03968131 -0.042100117 -0.008557638 0.069864206 0.0038684425 0.06984426 0.07784896
0.018752176 -0.032578636 0.0022182006 -0.046803873 -0.055951957 0.043772604 0.022106705 0.054926544
-0.0750294 0.0016123137 0.05628162 0.009113414 -0.07826078 0.08126115 0.019063404 0.056071952
0.040419664 -0.056477133 0.08478017 0.05802855 -0.031021623 0.027535742 -0.04433637 -0.053103626
0.06223068 0.031551413 -0.0490927 0.011766438 -0.0019847692 -0.0885106 -0.0017850432 0.02511094
0.03520602 -0.09088656 -0.06821546 -0.043894935 0.008775886 0.086217925 -0.067213036 -0.069744326
-0.025588825 -0.077136815 -0.0661213 0.07549814 0.051473863 0.07191044 -0.037641305 -0.07564241
-0.024076723 -0.056353793 -0.03749463 0.04939748 0.07572058 0.062521376 0.057939094 -0.05911121
-0.01868858 -0.07646122 -0.00039639036 -0.07242221 0.087312676 0.069726184 -0.078914925 0.05112616

weight_hh_l1 f4 [384, 128]
00000000: c669 ab3b ecc2 b13d ef9e 0a3d 2709 1b3d
00000010: 2b87 85bd 32e8 9abd 9696 2f3d 7ab1 e83b
00000020: ca98 a7bd bd07 01bb 52c5 8ebd bbb7 02bd
00000030: 591d afbd 1139 423c f266 7fbd 93cd 583d
00000040: 4c4b a8bc f2d3 323d a7a0 99bd 2025 61bd
00000050: 1028 453d 53e3 a03d 406e 813d 00a8 113c
00000060: 41f1 0cbc aae4 b0bc 6afc 353d 143e b43d
00000070: a221 a03d 24ee 1b3d 4665 ac3c 1449 37bd
00000080: 8ce1 863d 504c a33d de21 4dbd 31a7 603d
00000090: 9078 0f3d 4a2c d03c 913c 663b 31a3 ab3d
000000a0: 7b48 e23c 549f 00b9 ea9c 293d 00d6 0a3d
000000b0: 050d 8c3d d3a7 8c3b 71b7 ba3d 413a 92bc
000000c0: 0e5c aa3d 4e0e 48bd e2c2 cdbc 05c7 2b3c
000000d0: a34b 0abd 7a89 343c a5e0 b93c d597 8cbc
000000e0: e51a fbbc 3116 ef3c 8324 7fbd d464 2bbc
000000f0: 4f2c 6ebd db4a 5f3d 7248 0bbd 1b74 99bc
00000100: 73cf 92bc f3b2 8ebd aa1b 713d 7c06 4d3d
00000110: 622b 893d 94e3 063d 7c5d 5a3d a5ab 0a3d
00000120: 606d d8bc f452 7cbd 204d 8fbd 3774 f83a
00000130: 7588 cf3c d45e 1a3d a79b 5e3d a990 7fbd
00000140: 0954 35bd 5d8c 71bd c2a7 75bd 1a2c 30bd
00000150: 6e59 2bbd 0071 80bd f75f dfbb d541 6e3d
00000160: b144 8cbd 82d3 62bd b1fa 753d fa5e 9f3d
00000170: 95dc c1bc 3024 ac3d fbb5 00bc bb80 9abd
00000180: e49d 62bd 61af a73d 8a32 08bd 2bb7 15bd
00000190: baf4 3e3d f5d9 553d 56cc f63a 631c 3d3d
000001a0: 742d 533d 55ca 5a3d 99c7 d3bc 5633 b23d
000001b0: c6c2 893d e621 923d 224d c3bc 529a 04bc
000001c0: 2851 cbbc c12d 9ebd a536 9ebd 8dc3 a0bd
000001d0: 0438 8d3b 9a19 6d3d a391 e83c 697e dfbb
000001e0: c35f 383d a38e cf3c bbe4 3dbd 3cc0 45bd
000001f0: 7acf 83bc e6a7 1cbd 391e 14bd b01b cabb
00000200: 82b9 bfbc cf89 77bc 6fc0 a43d 00b8 0c3b
00000210: 85e1 debc 929f 8ebb b068 35bd 3a04 813d
00000220: 787c 76bd 0af6 4ebd 4c48 8dbd 1ac6 233c
00000230: fbc9 a4bd 0c2b 5a3d 48f7 753c ec80 a039
00000240: 54bd a23c 69ed afbd 1a71 bdbc 6205 2bbc
00000250: eb13 873d bb49 f43c 71ce 3b3c c803 e3bb
00000260: d862 fd3a e41d 1dbd 04c4 c6bc 0156 443d
00000270: 7339 183b 9ae0 83bc 981a 9dbd 0545 703d
00000280: ab02 c63c f445 9bbd 546d b03d 07f0 063c
00000290: 58b3 05bd a94f 6ebd 468b 683c aa05 783d
000002a0: 8f8d 323d b6e2 dbbc be91 46bc fc16 e3bc
000002b0: f8f3 4e3c 0003 093d 9f07 083d 14a3 ae3b
000002c0: 59e0 013d 1bc0 65bd 6781 d93c 743f 4e3d
000002d0: aac5 973d d84b bcbb efe9 76bc a4ae febc
000002e0: cb8f 473d 445a 943d 7b79 ab3d 188d 6fbd
000002f0: 2192 d53c c9fc 92bc 962d 533d d1c2 9e3c
00000300: f9b0 77bd 7597 7b3c 0d23 b1bd 207d 32bd
00000310: 0f7e 813d e29e ae3c 6786 b3bb dc1a 003d
00000320: c3b3 c1bc 3757 a63d ed8f 3a3d 369d 97bb
00000330: 9b11 f03c a892 8d3d ea49 8c3d 1bdb 653d
00000340: 3a55 84bd 7ecf 623d 1d57 1b3d 2e00 0c3d
00000350: dc8a 763d 67de 6abd 536b afbd 15ab a93d
00000360: 2e9c 8abc 62a0 a3bb 6a87 aa3d 5c8a fdba
00000370: 34d1 c33c ad74 f1bc 0b0f 2fbd 90f6 b3bd
00000380: 5adc bc3b a09e 983d b3bc 083d 8cd6 753d
00000390: 6918 2cbd 4f9a 4e3d a4da a9bd 7903 553d
000003a0: 6ce1 5f3c c6aa 983d 2a9e 27bc bcce 54bd
000003b0: 0ac9 a23d 36a6 9dbd e12a cbbc cfc3 8a3d
000003c0: 238c 6f3d d685 70bd dc65 173a 2830 89ba
000003d0: 75f0 92bc db6d 413d dd37 1e3c a0e6 ab3d
000003e0: ae31 543c b589 e3bc 14f3 923d 219e a7bd
000003f0: 4781 3cbd 3e87 c83c ec04 d9bc 1cdc 723d
0.005231115 0.086797565 0.033842977 0.037850525 -0.06519922 -0.07563819 0.04286822 0.007101235
-0.08183439 -0.001968845 -0.069712296 -0.0319135 -0.085505195 0.011854426 -0.062354036 0.052930426
-0.020543717 0.043659158 -0.07501345 -0.054967046 0.04813391 0.07855859 0.06319857 0.008890152
-0.008602441 -0.02159341 0.044430174 0.08800903 0.07818915 0.038068905 0.021044385 -0.044747427
0.065859884 0.0797354 -0.050081126 0.054846946 0.035027087 0.025411744 0.0035131315 0.08380736
0.027622452 -0.00012266386 0.04140941 0.033895493 0.06838421 0.004292467 0.0911702 -0.017850043
0.08318339 -0.048841767 -0.025117341 0.010484462 -0.03376354 0.011019105 0.022690127 -0.017162243
-0.030652473 0.029185386 -0.06229068 -0.010461051 -0.058147725 0.054514747 -0.034004636 -0.018732121
-0.017921185 -0.069677256 0.058864273 0.050055012 0.06697728 0.03293188 0.05331181 0.0338551
-0.026419342 -0.061602548 -0.06997132 0.0018955533 0.025333622 0.03768809 0.05434766 -0.062393818
-0.044269595 -0.05897175 -0.05997444 -0.04301081 -0.041833334 -0.06271553 -0.00681686 0.05816825
-0.06849039 -0.05537749 0.06005353 0.07781787 -0.023664752 0.0840534 -0.0078558875 -0.07544085
-0.055326357 0.08187748 -0.033251323 -0.036551636 0.04662011 0.052209813 0.0018829207 0.04616965
0.05155702 0.053415615 -0.025852012 0.08701198 0.06726603 0.07135372 -0.02384049 -0.008093433
-0.024818972 -0.077235706 -0.07725266 -0.07849798 0.004309656 0.057885744 0.028389757 -0.006820489
0.0450132 0.02533657 -0.046360712 -0.048279032 -0.016090143 -0.038246058 -0.036161635 -0.0061678514
-0.023403887 -0.01510854 0.08044516 0.0021471977 -0.027207145 -0.0043525184 -0.04428929 0.06299634
-0.060177296 -0.05052761 -0.06898555 0.009995962 -0.08046337 0.05326371 0.01501257 0.00030613632
0.01986567 -0.08590204 -0.02312522 -0.010438295 0.06595596 0.029820314 0.011462794 -0.006927941
0.0019331826 -0.038358584 -0.02426339 0.047933582 0.0023227602 -0.01609831 -0.07671088 0.058659572
0.024171194 -0.07581702 0.08614603 0.008235938 -0.03264174 -0.05818144 0.014193362 0.060552277
0.043592032 -0.026841503 -0.012119709 -0.02772092 0.012631409 0.033450127 0.033210393 0.005329499
0.031708095 -0.05609141 0.026550962 0.050353482 0.07410748 -0.005746346 -0.015070423 -0.031089135
0.048721116 0.07243779 0.0837278 -0.058484167 0.026070656 -0.017942803 0.051557146 0.019380005
-0.06047151 0.015355934 -0.086492635 -0.04357636 0.06322872 0.021315996 -0.0054786685 0.031275615
-0.023645287 0.08122104 0.045547415 -0.0046268953 0.02930527 0.06912738 0.068500355 0.05611716
-0.06461568 0.05537366 0.037924875 0.03417986 0.06019102 -0.057341006 -0.08565392 0.082845844
-0.016920175 -0.0049934844 0.083266094 -0.0019343602 0.023903467 -0.02947458 -0.042738955 -0.087872624
0.0057635726 0.0745213 0.033383083 0.06001906 -0.042015467 0.05044013 -0.082936555 0.052005265
0.013664585 0.074544474 -0.01023058 -0.05195497 0.079485014 -0.07697718 -0.02480072 0.06775629
0.058483254 -0.058721386 0.0005775371 -0.0010466622 -0.017936924 0.047223907 0.0096568735 0.083935976
0.012951298 -0.027775625 0.0717527 -0.081844576 -0.046021726 0.024478551 -0.026491605 0.059291944

bias_ih_l1 f4 [384]
00000000: 4e7a 8bbd 0b3e 8cbd 2b3e 92bd 4ede 3f3d
00000010: cc2d 833b d8a5 e03c dbfd b0bd eaa5 9b3d
00000020: 8b7a 79bd 4e88 68bd df54 26bd 219f 81bc
00000030: d14b 89bd 688c 5abd e9b2 d13b bbef 743d
00000040: 609e 0e3d a53a f7bc 6393 3bbd 7255 38bd
00000050: a436 75bd ad54 b0bd b2d1 c0bc 3b10 40bd
00000060: d471 ca3c 5959 65bc 83df 3fbd 34af f9bc
00000070: 0ad2 ad3d fdab f5b9 351b 97bd 0719 07bd
00000080: e4ab 45bd e468 9c3c 3ec8 1f3c adfe 4c3d
00000090: f1b4 733d c3a8 233c 2345 083b c335 863d
000000a0: de97 e9bc 9be2 96bd 2344 483c 8e94 653c
000000b0: 656c 75bd d1bd 313d 7fc8 a4bd 19d2 87bc
000000c0: c2eb c4bb 04a2 663d 6364 05bd 52c1 483d
000000d0: 8160 0cbc 5719 70bc 1128 b2bd 1f43 b23d
000000e0: c18d 373c b364 803d 1434 8f3b 165b f3bc
000000f0: e863 a93c 6281 c83c 3c1d 783d 8df0 153d
00000100: 256f 3f3d 358c acbd fd43 a5bd 4af3 ab3d
00000110: c8fe 31bd 435a 08bd 1c01 1f3c 5838 223d
00000120: e3e8 92bc 2568 9c3d 40ac 203a ccd4 ae3d
00000130: 8a32 8b3d 309a a4bd 56d4 0abd 5d1f 04bc
00000140: 1d0c 893d f1a7 4ebd 50e8 3a3c 1563 6e3d
00000150: 197c cbbb 06fd 26bd 9a3c 7f3d 56f5 b33c
00000160: 2697 90bd 170d 993d c829 a83c 3b94 883d
00000170: 0249 ba3c a8cc 8bbc 3247 333d 570b 76bd
00000180: 6b29 d93b 4dfb 143d 0b91 20bd 6f15 a2bd
00000190: 6ef7 963c f066 9e3b a2fd a6bd 817f b0bd
000001a0: a771 933b 3c18 acbd b330 473d 078c 73bd
000001b0: bf06 ad3d ce80 1a3d 4ebb 29bc a6cf aabd
000001c0: 5ce1 8d3d eb37 b2bd 78a1 55bd bd17 aa3c
000001d0: 25a6 8dbd 9d43 5b3d 3d20 63bd 8f85 493d
000001e0: 1e69 7c3d 7c79 1c3d 9f29 7fbd 99ee 80bd
000001f0: f9a6 01bd eefd 663d d61c 3f3d 84cb a43b
00000200: eee2 483d 30ab 96bd e036 07bd ec4d b7bc
00000210: 35d0 93bc 588b aa3c 1682 d8bc 3762 abbd
00000220: eace 6d3b ac45 df3c 7da7 82bd dd0d b8bc
00000230: 8513 333c 79b6 643d 0449 e33c 3d32 a5bd
00000240: 9717 c8bb 66f9 7dbd df99 8c3d e759 37bd
00000250: 2bef d0bc 6a8a 89bd b0c4 9b3d 5c68 a93d
00000260: 8ae1 d8bb 0a0d 81bc 0edd f6bc bbd0 30bd
00000270: 148a 973d 1c42 9a3d fe4a 003d 0bf1 673d
00000280: b23a eebc bcf8 b23d 89d1 88bd e0f0 6abd
00000290: c061 a13d 0d9e a33c 73ba ae3c be36 93bd
000002a0: e36b 22bd 711d 843d fb65 65bd 568a a33c
000002b0: 7fcb 8f3d 00ff ae3c eca8 ac3d 8345 4f3d
000002c0: 8128 86bc d21f 88bd 9e11 1b3d 2893 36bc
000002d0: cc64 69bd 00bc 703d 0700 b2bc 07b7 c83a
000002e0: d2f0 27bd 112f 083d ec1a 893d 7024 253d
000002f0: bdc3 94bd 9c34 8abc 2c9e b8bd 38ac b43d
00000300: 1aca 23bd 91ec 333d c849 93bd 39f1 b4bc
00000310: 7c8e 3c3d 3a42 7e3d 33aa a5bd 47d2 953d
00000320: b8f5 773d 3017 a2bd 2351 27bd 6c5d 553c
00000330: d03b b73c 07b8 70bd d0f8 8f3d 63c7 623d
00000340: 99f4 77bd c860 6fbd 3c0f 963d 9570 fcbb
00000350: e643 64bd dc30 00bd 35a9 023c 7ccf 85bd
00000360: 6cc4 1abc 874e 923d 5579 2abd 5f8d b73b
00000370: 4a24 aebd 5d4e a1bd 8d60 933d 7712 5bbc
00000380: 5727 fc3c 9eb0 8dbd f9a1 8ebd 1cbc 77bd
00000390: 1ad5 c93c 5a46 98bd e0f9 973d 517d 9abd
000003a0: d49c 70bd f0b8 c53c a32b 863d 2bef 563d
000003b0: 8595 b43d 3ee7 563d e076 30bd 0c3d ffbc
000003c0: 40fd ad3d 2f87 91bc d57e 9d3d 0e6c 0bbc
000003d0: 5232 253b 8112 e1bc 90a3 74bd 1b63 73bd
000003e0: 9d86 acbd 26a8 0bbd 6443 6fbd 3879 b73d
000003f0: e08b 9a3d 445a 8dbd f79f c5bb ba63 243d
-0.06810437 -0.06847771 -0.07140764 0.046842866 0.004003262 0.02742283 -0.08642169 0.07600005
-0.06090788 -0.056770615 -0.040608283 -0.015822949 -0.06703914 -0.053356558 0.0063995016 0.059798937
0.034819007 -0.030179331 -0.045794856 -0.045003362 -0.059866562 -0.086099006 -0.02353749 -0.04689048
0.02471248 -0.013998353 -0.046844017 -0.030479051 0.084873274 -0.00046858183 -0.07378236 -0.032982852
-0.04825963 0.019092984 0.009752331 0.050047565 0.05949873 0.009988966 0.0020793162 0.06553223
-0.028514799 -0.0736744 0.012223276 0.014012469 -0.059917826 0.043393914 -0.08046054 -0.016579675
-0.00600955 0.056306854 -0.03256644 0.04901249 -0.00856793 -0.014654479 -0.08699048 0.087042086
0.01120323 0.06269207 0.004370222 -0.02970652 0.020677522 0.024475757 0.060574755 0.03660636
0.046736855 -0.0842518 -0.08069608 0.08396013 -0.04345587 -0.033289205 0.009704854 0.039604515
-0.017933315 0.076370515 0.0006129183 0.085366815 0.06796749 -0.080372214 -0.033893906 -0.008064118
0.066917636 -0.05045313 0.011407927 0.05819996 -0.006209862 -0.040768646 0.062313654 0.021967571
-0.07060079 0.074732 0.020527735 0.06668898 0.022739891 -0.017065361 0.04376907 -0.06006941
0.006627252 0.03637247 -0.039200824 -0.079142444 0.01842853 0.0048340484 -0.08153845 -0.086180694
0.0044996324 -0.0840306 0.048630428 -0.059459712 0.08448552 0.037720494 -0.010359598 -0.08340387
0.069277495 -0.08702072 -0.05215594 0.020763272 -0.06916455 0.053531278 -0.055450667 0.049199637
0.061623685 0.038201794 -0.062295552 -0.06295509 -0.03165338 0.05639451 0.04665836 0.0050291438
0.049044542 -0.0735687 -0.033011317 -0.022376023 -0.018043617 0.020818397 -0.026429217 -0.08368342
0.003628666 0.027254902 -0.06379602 -0.022467548 0.010929947 0.055838082 0.027744778 -0.08066223
-0.0061063278 -0.062005423 0.06865286 -0.044763472 -0.02550467 -0.067158535 0.076058745 0.08271858
-0.006618683 -0.015753288 -0.030134704 -0.04316781 0.07399383 0.075321406 0.031321518 0.05662636
-0.029080722 0.087388486 -0.06680591 -0.057358623 0.078799725 0.019972825 0.02132914 -0.071881756
-0.03965367 0.06450928 -0.05600546 0.019963425 0.07021236 0.021361828 0.08430657 0.0506034
-0.016376736 -0.06646694 0.037858598 -0.011143483 -0.056980893 0.05877304 -0.021728529 0.0015313335
-0.04100115 0.03324801 0.06694588 0.040317953 -0.072638966 -0.01687079 -0.09014544 0.088219106
-0.03998766 0.04392678 -0.07191807 -0.02208768 0.04603432 0.062074877 -0.080891035 0.07315498
0.06053707 -0.07914579 -0.040848862 0.013022762 0.022367388 -0.058769252 0.07029879 0.05536593
-0.060536 -0.058441907 0.073271245 -0.0077038505 -0.055728815 -0.031296596 0.007974912 -0.06533715
-0.009446245 0.07143884 -0.041619617 0.0056015695 -0.08503015 -0.07876275 0.0719615 -0.013371102
0.030780477 -0.06918453 -0.069644876 -0.06048213 0.024637748 -0.074352935 0.07420707 -0.075434335
-0.058743313 0.024136037 0.06551292 0.052474182 0.08817581 0.052466623 -0.043082118 -0.03115704
0.08495569 -0.017764656 0.07690207 -0.008509649 0.0025206995 -0.027474644 -0.059726298 -0.059420686
-0.08424113 -0.034095906 -0.058413878 0.089586675 0.0754621 -0.069019824 -0.006031032 0.04013417
